PonziShield_tr_v2_gpu.pth (torch, 408246 bytes, 110 tensors)

weight f4 [108, 11]
000000 74 3c 6f bf b1 f4 d3 be 43 3b 4f bf 94 d7 20 bf
       -0.9345162 -0.41397622 -0.809498 -0.62828946
000010 08 02 ed 3f a8 0e 34 bf ce b3 35 3f fe 95 c3 3f
       1.8516245 -0.70334864 0.70977485 1.5280149
000020 f1 5b 86 3f e0 09 9a bf 56 83 c9 be b7 f9 be bf
       1.0496808 -1.2034264 -0.39358014 -1.4919957
000030 91 f8 e9 bf 3a 31 13 3f ff b9 6b 3c 6b 36 36 3f
       -1.8278981 0.5749699 0.014387607 0.71176785
000040 dd 53 dd bf 16 9e fd bf bb b4 99 bf 45 6b 4c bf
       -1.7291218 -1.9813869 -1.200828 -0.7985118
000050 0d c8 98 3f 8f 22 fe 3e fc 97 c4 be 0d ae 82 bf
       1.1936051 0.4963574 -0.38397205 -1.0209366
000060 2a c2 70 3c e0 71 7e bc f3 d2 65 3e 12 d3 91 3f
       0.01469473 -0.01553008 0.22443752 1.1392539
000070 76 3a 80 bd 81 b4 1f 3b d3 be 83 3f 86 52 c9 bf
       -0.062611505 0.0024369063 1.029261 -1.5728309
000080 a3 d0 91 bf 21 dc 06 bf 21 85 93 3f f1 3b fc 3e
       -1.1391796 -0.5267964 1.1525003 0.49264482
000090 78 a9 3e 3f f5 76 33 bf 64 d7 1b c0 91 6e 18 3f
       0.7447734 -0.7010339 -2.4350214 0.5954371
0000a0 b2 86 85 3f 21 77 2f 3f 31 11 cd bf cd ee f3 3e
       1.0431731 0.6854115 -1.6020871 0.47643128
0000b0 d0 2f 99 bf c5 39 aa 3f c1 40 c0 bf 74 b4 0b bf
       -1.1967716 1.329888 -1.5019761 -0.54572225
0000c0 a1 4b 12 40 09 c2 fb 3e aa 4d e2 bf a7 e9 40 3f
       2.285866 0.49171475 -1.7679951 0.75356525
0000d0 a7 24 00 3e b0 e5 10 3f 25 64 8e 3f 96 b5 f3 bf
       0.12513982 0.56600475 1.1124312 -1.9039791
0000e0 11 ef 8f bf be b6 af 3d 94 44 9a be 79 0c dc be
       -1.1244832 0.08579777 -0.30130446 -0.42978266
0000f0 26 15 5f 3f b9 8b ce 3e 22 cd b6 bd f5 46 e6 3e
       0.87141645 0.40340975 -0.08925845 0.4497601
000100 0c 62 e5 3e 09 a0 36 bf 8b b8 d5 bf fb b1 00 3f
       0.44801366 -0.71337944 -1.6696943 0.50271577
000110 93 18 8c 3f 67 cc 71 bf 9c 1f c2 bf a9 db 92 3f
       1.0945 -0.9445252 -1.5165896 1.1473285
000120 1b f7 a2 3f 97 42 0e 3f c6 66 08 3f 69 ac 88 3d
       1.2731661 0.5557036 0.5328182 0.0667351
000130 b3 66 91 3e fe 44 ed 3e 05 dc 71 bf e3 af c6 bf
       0.28398666 0.463417 -0.9447635 -1.5522426
000140 80 25 f6 be 0b d1 41 3f a6 e5 af be c2 25 5a bf
       -0.48075485 0.757096 -0.34354895 -0.85213864
000150 ca 9b e0 bf 5a 53 c1 bf 6b 6b c1 be 4e c9 20 bf
       -1.7547543 -1.5103562 -0.37777266 -0.62807167
000160 ba dc 1c bf 26 31 a2 3f bb 7d a5 3f f4 9a 7e bf
       -0.612743 1.2671249 1.2928995 -0.9945519
000170 7d ae 96 be 9f 79 86 be ab 92 80 bf db 0f 71 bf
       -0.2943 -0.26264665 -1.004476 -0.9416482
000180 38 52 4d 3f ef d6 bd bd 6a 8a 97 3e 18 f2 e9 3d
       0.8020358 -0.09269511 0.2959779 0.11423129
000190 a8 58 52 3f e7 8b 54 3f 4b 35 b5 3e 36 bb ee 3e
       0.8216653 0.83025974 0.35392222 0.46627206
0001a0 76 2e 3d 3e dd 8c bb bf ba fd 74 3f 1b 20 9b bf
       0.18474755 -1.4652363 0.95699656 -1.2119173
0001b0 f1 1c 3d 40 6c 95 58 3f 6c b2 07 40 6a ea f8 3d
       2.9548914 0.84603 2.120265 0.12154086
0001c0 07 e3 1a be 81 4e f4 bf 76 35 cc bf d8 7f 04 bf
       -0.15125667 -1.9086457 -1.5953815 -0.51757574
0001d0 8f ae 4b 3e 96 77 9c be 1e 97 3f 3f d1 5f a0 3e
       0.19890808 -0.30559987 0.7483996 0.31323102
0001e0 9f 64 2e be 0e a0 2e bf 3c a5 aa bf c8 47 55 3e
       -0.17030571 -0.68212974 -1.3331676 0.20828164
0001f0 eb c9 5f bf fc 8a b5 bf d9 a3 5c 3e 3c 1a 95 3f
       -0.8741748 -1.418304 0.21546878 1.1648631
000200 2d fa c1 be 21 8c 7e 3e f3 9b 8b 3e 7d 17 c8 3e
       -0.3788618 0.24858142 0.27267417 0.3908042
000210 a1 a7 c8 bd af 52 a4 bf 6f 92 f2 bf b3 c2 26 c0
       -0.09797598 -1.2837733 -1.8950938 -2.6056335
000220 5c 59 a6 3d 90 e3 7c 3e 28 af 93 bf 3c c7 7f be
       0.08122513 0.24696183 -1.1537828 -0.24978346
000230 55 01 4b 3f bb aa 9f bf c4 e6 da bf 78 86 fa bc
       0.7929891 -1.2473978 -1.7101674 -0.030581698
000240 1c 40 92 be 58 89 8d 3f 78 5d bc bc a8 6e fd be
       -0.28564537 1.1057539 -0.022993788 -0.49498487
000250 6e aa 68 bf 50 49 92 bf 93 1f 9e 3e 57 54 69 bf
       -0.90885055 -1.1428623 0.30883464 -0.9114432
000260 1c e9 83 3e 7d 6f 16 3e fd aa 95 be a0 63 df bf
       0.25763786 0.14690967 -0.29232016 -1.7452278
000270 cf d9 ae 3d a6 c2 ba 3f b5 6e 80 bf 33 16 a8 bf
       0.085376374 1.4590652 -1.0033785 -1.3131775
000280 d5 f2 30 bf e2 d7 12 bf 00 c8 4a 3f 04 61 95 3e
       -0.6912053 -0.5736066 0.79211426 0.2917558
000290 6d e2 d4 be cf d0 8d 3f 74 64 cd 3d 08 35 85 3d
       -0.41579 1.1079348 0.100289255 0.065042555
0002a0 01 cb 7a 3e b4 1e a4 3f 67 a3 e1 3f 3d c8 9b 3f
       0.24491502 1.282187 1.7627991 1.2170483
0002b0 1c 9f 0f 3e 2a ef 28 3f a4 c6 c1 be ea f1 68 3e
       0.14025539 0.65989935 -0.37846863 0.22748533
0002c0 33 1a 05 3e 4c 26 aa 3f 71 5e 19 3f 23 9f 14 40
       0.12998275 1.3292937 0.5990973 2.322213
0002d0 64 58 a1 bf 4e d9 fa 3f 2b de 21 3f e4 05 f0 3f
       -1.26051 1.9597566 0.63229626 1.8751798
0002e0 2e 70 08 3f c3 e4 66 3f a3 b3 98 3c 52 9c 97 be
       0.5329617 0.9019281 0.018640345 -0.2961145
0002f0 f3 75 82 3f 6f 95 5d be 5e d4 90 bf dc f2 71 bf
       1.0192245 -0.21639036 -1.1314809 -0.945112
000300 d6 11 7d 3f e5 7f 2f 3e 6f 86 ea bd fd 5f d8 be
       0.9885534 0.17138632 -0.114514224 -0.42260733
000310 1e a6 9b be 6d f7 23 3f 0b 60 f2 3f d6 09 d0 be
       -0.30400175 0.64049417 1.893556 -0.40632504
000320 0c 30 99 3f 0a a4 13 3e b8 0d 3d 3e 1d 5c a1 be
       1.1967788 0.14418045 0.18462265 -0.3151559
000330 f8 fb b9 bc 54 42 71 3e b2 be 2f be e7 31 59 bd
       -0.022703156 0.23560458 -0.17162588 -0.053026106
000340 fd 8e 8c 3f 0e cf b1 3f c0 7e 8f bf 73 01 cf 3e
       1.0981137 1.3891313 -1.1210556 0.40430793
000350 d2 9d ac bf 49 e5 22 bf 5e a2 de bf 61 e8 d7 3f
       -1.3485663 -0.6363111 -1.73933 1.6867791
000360 b8 a0 4f 3f dd c8 68 be 27 89 4a bf e7 5d be be
       0.8110461 -0.22732873 -0.7911553 -0.37181017
000370 52 a7 d0 bd d8 ae 5e 3f 8c 6d e6 3b 21 5b d5 bf
       -0.10188164 0.8698554 0.007032102 -1.6668435
000380 e6 81 ce 3e 6b 09 55 bf e8 5b 46 bf 50 3a dc 3d
       0.4033348 -0.83217496 -0.7748399 0.1075331
000390 11 f6 95 bf 73 5d eb be 68 eb b5 bd 44 49 6e bf
       -1.1715719 -0.45969734 -0.08882791 -0.93080544
0003a0 97 35 5d 3e 1b 1d 87 3f 41 63 ac 3f 5c 93 2e 3f
       0.21602474 1.0555757 1.346779 0.681936
0003b0 f1 1c a1 3f a0 69 b5 3f b2 36 3a 3e 11 e3 90 3f
       1.2586957 1.4172859 0.18184927 1.1319295
0003c0 5f 7b 27 3f 9f 14 e0 be 68 52 a0 3f 87 a1 40 be
       0.65422624 -0.43765733 1.2525148 -0.18811618
0003d0 56 eb 46 3f 13 e6 f9 3e 98 1c 2f bf ba 67 4c 3c
       0.77702844 0.48808345 -0.68403006 0.012475902
0003e0 af bb 6d 3e 4b 8c 37 bf ad 32 86 bf 90 9c 49 3f
       0.23216127 -0.71698445 -1.0484215 0.7875452
0003f0 d5 bc 58 bf fd ca 84 3f 7d be f9 3e fa 45 bd 3f
       -0.84663135 1.0374447 0.48778144 1.478698

in_proj_weight f4 [33, 11]
000000 af fa 12 3e b1 84 35 3c a1 6e 96 3e 1d e5 b4 be
       0.1435344 0.011078999 0.29381278 -0.3533105
000010 da 2c f7 bd ee 16 2f 3c 73 2c 09 be 58 2f 17 be
       -0.12069102 0.010686619 -0.13395862 -0.14764154
000020 be 27 b4 be 6c 16 47 3e fe c2 ac bc 92 5b 02 3e
       -0.3518657 0.19442147 -0.021089073 0.12730244
000030 87 14 84 3d f3 ed 9d be ce c0 04 3f 24 7b b3 3e
       0.06449228 -0.30845603 0.51856697 0.35054886
000040 5b a7 42 bd 10 82 0e be dd a6 e5 3a 57 04 52 3e
       -0.047522884 -0.13916802 0.0017521043 0.20509468
000050 34 4a 12 be 74 f0 ac be ea e4 08 be 8d b7 a2 3c
       -0.14286119 -0.337772 -0.13368574 0.019862914
000060 b1 c0 a9 b9 f4 39 ea be 8c 2e 2e bd 23 00 a4 3e
       -0.00032377758 -0.4574734 -0.04252486 0.32031354
000070 cb ee 32 3e 4f 95 d5 be 06 7a a8 3e 28 9d 36 3e
       0.17473905 -0.41715476 0.32905596 0.17833388
000080 46 ba 6a be a5 84 4a be 08 3d a4 bd 46 14 49 3e
       -0.2292262 -0.19777162 -0.08019453 0.1963664
000090 a2 07 29 be 61 ea 08 3e 38 a6 b1 bc b9 4c 9d 3e
       -0.16506818 0.13370658 -0.021685705 0.30722597
0000a0 8b 20 60 be ba d9 2c be 52 5f 8e be ae 1e b8 be
       -0.21887414 -0.16879931 -0.278071 -0.35960907
0000b0 ef 6d 03 bf d1 cd cb be d7 bb 1b 3e 5c 8f 9f 3e
       -0.5133962 -0.39805463 0.15208374 0.31164062
0000c0 b0 00 0a be 85 27 c0 be d2 07 17 3e 60 fd 89 be
       -0.13476825 -0.3753015 0.14749077 -0.26951122
0000d0 68 66 2d bd 50 c8 49 3d c4 cc b3 be 4a 2c 9c be
       -0.04233399 0.0492633 -0.3511716 -0.3050254
0000e0 45 0f 31 3e 21 6c 20 3e 93 b3 a0 3e 2d 34 a3 bc
       0.17290981 0.15666248 0.31387004 -0.01992234
0000f0 94 21 e3 bd 41 5b c9 3e 50 81 8a bd e0 1c b6 bd
       -0.11090389 0.39327434 -0.06762946 -0.08892226
000100 4e 5e 42 3d 1e e3 7e be 73 66 0c 3d 5b ab 5d 3d
       0.047453217 -0.24891326 0.03427739 0.054118495
000110 62 65 c8 bc 86 10 aa be 02 47 a1 be 77 58 c8 bd
       -0.024462406 -0.3321573 -0.31499487 -0.09782498
000120 4b e7 9c be f5 b8 b6 3e 85 8d 1c 3e eb 03 37 3e
       -0.30645213 0.35687986 0.1528836 0.17872588
000130 25 f2 ac 3e e5 59 ab 3e f5 42 b3 3e 49 e6 de bc
       0.33778492 0.33467022 0.35012022 -0.027209418
000140 78 7e 27 3e b4 5a 58 be 33 1f 09 3d 1f 3d 5d 3e
       0.16356838 -0.2112835 0.03347702 0.21605347
000150 30 34 c3 3e 0b 4d 9d 3e b9 4a 51 3e 68 34 39 3c
       0.38125753 0.30722842 0.2043866 0.0113039985
000160 ee 1d 24 3e c1 17 35 3e 84 55 87 3d dc 61 b5 3d
       0.16027042 0.17684843 0.06608108 0.08856556
000170 eb 0a 53 be 80 e6 a0 be 37 95 aa 3e 09 66 c3 ba
       -0.20609634 -0.31425858 0.33316967 -0.0014907728
000180 fd c7 ab 3d 12 1e 07 3e 2e 92 3f 3e b5 bb cb 3d
       0.08387754 0.13195065 0.18708107 0.09947912
000190 28 97 21 be 48 1e 89 3e 62 07 ef bd 41 83 32 bb
       -0.15780318 0.26780915 -0.1167133 -0.0027238878
0001a0 26 05 1f be d3 99 70 3e 91 60 b8 3d 37 f3 9f be
       -0.15529308 0.2349618 0.090027936 -0.31240246
0001b0 f1 8d ac be 45 b4 19 3e bd 61 1d 3d ed 0e 3d bc
       -0.33702043 0.15010174 0.03842329 -0.011539203
0001c0 67 11 89 3e 26 9c f3 bd 00 8f ed be 3e 49 91 be
       0.2677109 -0.11895017 -0.46398163 -0.28376192
0001d0 6f d8 1b be 0f c6 00 3f 0f 7b ad 3c 32 d7 b8 3e
       -0.15219282 0.50302213 0.021176843 0.3610168
0001e0 17 a9 17 3e a3 46 97 be a0 58 41 3e 27 87 6b 3d
       0.14810596 -0.2954608 0.18881464 0.05750194
0001f0 ba ab 10 3d 1c a4 31 be d6 58 6d 3e 0d 20 fb 3d
       0.03532002 -0.17347759 0.2317842 0.122619726
000200 5f 69 6d be aa c4 3e be f0 98 b9 bd 49 8f 85 be
       -0.23184727 -0.18629709 -0.09062374 -0.2608588
000210 63 45 fc bc dd d1 b4 3c d8 fd ff 3e b7 d6 c6 3d
       -0.030794805 0.022072727 0.49998355 0.09708922
000220 ec f8 5a bd 40 07 9a bc 10 c4 8d be fb 43 17 3f
       -0.053460047 -0.018802285 -0.27688646 0.59088105
000230 1c 32 d4 3e 49 64 e5 3e a2 09 9e 3e 30 26 40 3e
       0.4144448 0.44803074 0.30866724 0.18764567
000240 04 08 11 3b b6 b9 62 bd d2 59 84 3d 48 50 44 be
       0.0022130022 -0.05535289 0.06462444 -0.1917125
000250 23 b4 b6 be 74 ed 71 be 37 9d 29 3e d1 0e d5 3e
       -0.35684308 -0.23625737 0.16563879 0.41612867
000260 a0 f3 b2 3e 89 37 c7 be ba 7a e6 3e 7c d5 5b 3e
       0.34951496 -0.38909557 0.45015508 0.21468157
000270 3d 3c 2a be 62 f9 bb 3d e5 96 49 3e f6 1a 9c 3e
       -0.16624542 0.09178425 0.19686468 0.3048932
000280 47 a4 ac bc fd f1 3e 3e d8 36 cc 3e d5 03 88 3e
       -0.021074427 0.18646999 0.39885592 0.26565424
000290 09 98 23 3e b7 e9 fa be d3 91 b8 be 20 c1 a3 3e
       0.15975966 -0.49006435 -0.36048755 0.3198328
0002a0 81 e1 d9 3e d2 67 95 be 8f 64 8c 3e 6d 74 a8 3e
       0.42554858 -0.2918077 0.2742047 0.32901326
0002b0 06 33 d2 bd 73 1d 07 3e 90 19 53 be a5 e8 56 3e
       -0.10263638 0.13194828 -0.2061522 0.20987184
0002c0 73 a1 01 bd 92 60 15 bd 9b 68 0d be c1 77 2f be
       -0.03164811 -0.03646905 -0.13809435 -0.17135526
0002d0 e5 3e a7 be ee 6b 13 3d b1 2d 06 3e 0d 7a 66 be
       -0.32665172 0.0359916 0.13103367 -0.22507496
0002e0 f2 39 f1 be 10 0a 6a be 58 68 d8 bc 20 b4 b7 3c
       -0.4711452 -0.22855401 -0.026416942 0.022424757
0002f0 4a 73 cb be 20 86 d8 3e a8 b3 4b 3d e1 0b 70 3e
       -0.39736396 0.4228983 0.04973188 0.23442031
000300 bc 05 83 3c 4d 80 99 3d 38 48 63 bc 4c 6a a5 be
       0.015993945 0.074951746 -0.013872199 -0.3230766
000310 fa e1 26 3e fd 89 06 bb 9c f3 27 be e8 ec b5 3e
       0.1629714 -0.0020529025 -0.16401523 0.35532308
000320 3b 3d 03 3e e7 dc 98 3e 04 98 86 bd 9a 04 2c bc
       0.12816326 0.29856035 -0.065719634 -0.010499144
000330 74 b1 07 3e 0b 91 4e be fe 12 0e be b4 06 f5 bd
       0.13251287 -0.20172517 -0.13874432 -0.11964169
000340 2c 58 97 3d 91 9d cc 3e c6 06 ad bd 1b 49 a0 3d
       0.07389864 0.39963964 -0.084485576 0.07826444
000350 04 cc 5b 3e 77 92 4b be 47 13 d7 3e fc ec 11 be
       0.21464545 -0.1988009 0.42006895 -0.14250559
000360 33 c8 fb 3d dd aa 19 be 17 93 86 3e 27 a1 d9 3d
       0.12294044 -0.15006585 0.26284096 0.106264405
000370 1e a6 55 3d 87 8d 84 3e df d2 1a be af de 6e 3e
       0.052160375 0.25889227 -0.15119503 0.23327135
000380 a0 99 ea bd 11 c8 dd 3d 1e 86 8a be d9 67 f9 3d
       -0.11455083 0.10829175 -0.27055448 0.121780105
000390 7f ba b0 be e8 af ac be 0e 10 af be be 2e da 3d
       -0.34517285 -0.33727956 -0.34191936 0.106534466
0003a0 8f cb 4f 3e 2a 1a 14 be a0 ec fa 3d 9a 97 06 be
       0.20292495 -0.14463106 0.12252164 -0.13143769
0003b0 fe cc 2f 3e c7 32 bf be e5 85 2c be 99 9a bc be
       0.17168042 -0.37343428 -0.16847952 -0.368367
0003c0 3a 9f 1f 3e 56 37 b9 3c 71 d1 81 be 45 35 d1 bd
       0.15588084 0.022609394 -0.25355104 -0.102152385
0003d0 96 c3 06 bd 96 98 9e 3e 1a 0e 47 3e eb 13 b6 bd
       -0.03290137 0.3097579 0.19438973 -0.08890518
0003e0 3b 34 9e 3d f3 f7 8a 3c ad 00 ac 3e c2 6b 9d be
       0.07724806 0.016963935 0.33594266 -0.30746275
0003f0 72 dd 15 bd aa d0 86 3e 8c bc 23 3d c0 24 44 be
       -0.03658814 0.26331073 0.039974734 -0.19154644

in_proj_bias f4 [33]
000000 85 c6 a2 3c a5 46 67 3e 79 0e 5b 3d ef 42 f8 3c
       0.019870052 0.22585543 0.0534806 0.030305354
000010 5d 0e af bc a4 7d 06 3d 8f 56 fb bd 15 3f d2 bc
       -0.021369154 0.032834664 -0.12272369 -0.025664845
000020 02 d9 37 3d b4 72 36 3d 4c c3 96 3a 1b 41 93 3b
       0.04488469 0.044542983 0.0011502295 0.004493845
000030 58 84 16 bc c0 2e 22 bb 07 6b a0 3b 70 ca 96 bb
       -0.009186827 -0.0024747103 0.004895571 -0.004601769
000040 6f fb 16 bb ba c4 0a 3c 19 1b 26 3c 44 9c 11 3c
       -0.002303805 0.008469755 0.0101382965 0.008887354
000050 e7 e4 70 3a 84 1c 85 3b 88 6c 6c 3c 39 0d 84 bd
       0.00091893825 0.004062237 0.014430173 -0.064478345
000060 18 10 39 3d fd ed 8b 3b 3f 7f 97 3d 7a 77 43 bd
       0.045181364 0.004270314 0.07397317 -0.047721364
000070 79 ba ae 3d 98 f3 b8 39 69 0e 68 3c 0b 0d 38 bd
       0.085316606 0.00035276706 0.014163592 -0.044934314
000080 45 d4 19 3c
       0.009388988

weight f4 [11, 11]
000000 ab d7 81 3e db 65 8d be ff 88 d7 3d c5 ee 50 bd
       0.25359854 -0.27616772 0.10524177 -0.05100896
000010 c7 6a 22 3e 51 e5 87 3d 30 17 46 bd 72 e8 3f be
       0.15861045 0.066355355 -0.048361957 -0.18741015
000020 78 03 80 bd 43 72 69 be 5a 1f ec bc 1d 82 7f 3d
       -0.062506616 -0.22797494 -0.028823543 0.062379945
000030 dc dc 79 3c 0e bf 35 3e 33 1c b6 3c 93 3b ac bd
       0.015250411 0.17748663 0.022230243 -0.084098004
000040 ef 35 cb bd f6 0f a3 3e ec 71 e8 bb 4c 9d 7a 3e
       -0.099223964 0.31848115 -0.0070936587 0.24474066
000050 74 ec 66 be 4f 91 22 3e 32 f9 c7 3d 28 55 63 be
       -0.22551137 0.15875743 0.09764327 -0.22200453
000060 35 ee 57 3e fc 1c 18 3d f3 4b dc bc 9a 1a 7b be
       0.21086963 0.037137017 -0.026891684 -0.24521866
000070 a7 23 13 3e 49 e9 0b bd 68 09 1c bc 25 f6 1e be
       0.14369069 -0.034158025 -0.009523727 -0.15523584
000080 a0 af b8 3d 0b 7e ae 3d 0a b7 ef 3d 7c ee 12 bc
       0.09017873 0.085201345 0.11704834 -0.008967992
000090 0a 79 07 3e c1 5b 1d be 8b 75 1e 3e 12 a1 e8 3d
       0.13229766 -0.15367033 0.15474527 0.11358847
0000a0 33 a5 1f be f3 53 96 3d d1 89 f8 bd 51 bf 00 3f
       -0.15590362 0.07340231 -0.121356614 0.50291926
0000b0 57 99 a5 bd 00 49 42 3e 6e d6 4f 3d de f2 ff bd
       -0.08085888 0.1897316 0.050741605 -0.12497495
0000c0 57 31 e5 bd 7b 33 80 3c ec 5a d5 bd e3 cc 42 be
       -0.111910515 0.015649548 -0.104177326 -0.1902347
0000d0 d3 4e 16 be 7b b1 36 be b8 82 9a be b1 00 e3 be
       -0.14678507 -0.17841141 -0.30177855 -0.44336465
0000e0 63 25 9b 3e 0d 68 4c be 64 b2 45 be 62 66 81 bd
       0.3030196 -0.19961567 -0.19306332 -0.06318356
0000f0 eb 5b 9f be 80 56 48 be 0a e8 0b be ea 3f 55 bd
       -0.31124815 -0.19564247 -0.13662735 -0.052062906
000100 37 93 8a bd ff 1e 09 be ff ab 70 3e 16 e9 af 3d
       -0.0676636 -0.1339073 0.23503111 0.085893795
000110 81 9d 28 3e 3b cd 80 3d 4e 49 fa bd f6 4f 57 3d
       0.16466333 0.062891446 -0.12221013 0.05256649
000120 e3 ca 95 be a2 c2 df 3d 16 3c 60 bd 40 d5 19 be
       -0.29256353 0.10925795 -0.054744802 -0.15022755
000130 ca 1b 5f be 5f dd 8e be e9 fb 17 3e f6 23 0e 3a
       -0.21787944 -0.27903268 0.1484219 0.0005422229
000140 29 00 2f 3e b1 bb 00 be 17 75 02 be 27 ce c2 3d
       0.17089905 -0.12571599 -0.12739979 0.09511977
000150 73 bf 6e 3e 4f c5 77 3e 54 33 8f be 2c 9e c0 3e
       0.2331522 0.24196361 -0.27968848 0.37620676
000160 ba 52 36 3d b1 8f 92 3e 22 6f 57 3d 6d a9 ac 3d
       0.044512488 0.28625253 0.05259622 0.08430753
000170 e9 e7 5b be cc b3 c6 3d 3e dd 40 be bb aa 8e 3e
       -0.21475185 0.09702262 -0.18834397 0.27864632
000180 c4 e8 5e 3d 40 3a bc 3d 6a 62 4d 3e 77 08 5f be
       0.0544212 0.09190798 0.20057073 -0.21780573
000190 13 2e 82 bc 24 87 8e 3c 21 ca 8b be 6d 6a 85 3e
       -0.01589111 0.017398424 -0.2730265 0.2605776
0001a0 9d c3 52 3e f2 9c a7 bd 94 52 25 be ec 26 0c be
       0.20582433 -0.08184232 -0.16144782 -0.13686723
0001b0 75 66 6d be c8 e6 88 be be 0e 78 3e 8f 9e 2a be
       -0.23183616 -0.26738572 0.24224374 -0.16662048
0001c0 0e 9b 9e 3e bb 97 ad 3e fe 70 73 be 62 c3 eb bd
       0.30977672 0.33904824 -0.23773572 -0.11511876
0001d0 a5 e9 62 3e f8 ad 77 3e 17 68 9a 3e 3b 24 a5 3e
       0.22159441 0.24187458 0.3015754 0.32254204
0001e0 52 c2 48 be
       -0.19605377

bias f4 [11]
000000 79 64 cb 3d 2f a0 b1 3d c5 19 49 3d 4b 31 b1 bd
       0.09931273 0.08673131 0.04909684 -0.0865198
000010 80 d2 e2 bc 52 50 32 bd 48 4d 1c bb 50 34 99 bd
       -0.027688265 -0.04353363 -0.0023849774 -0.07480681
000020 da dc b7 bd d8 cc 05 3a 67 45 01 3d
       -0.08977671 0.00051040715 0.031560328

weight f4 [8, 11]
000000 7d e8 36 3e 05 6c 34 be 6a 66 10 be 3d f0 70 be
       0.17862125 -0.17619331 -0.14101568 -0.23529144
000010 47 a4 d5 3c e8 f3 12 bd b0 5d 08 3e 7e 4b f2 bc
       0.02607931 -0.03587714 0.13316989 -0.029577013
000020 5e b1 33 bd 33 13 63 3e 06 64 ab 3e a1 eb 3b 3b
       -0.043870322 0.22175293 0.3347475 0.0028674381
000030 8e e9 a3 bd 1c 9a 73 3e 63 cb 2e be a1 5f 6f be
       -0.080035314 0.23789257 -0.17069773 -0.23376323
000040 f7 6e de bd 0e 89 3a be 76 f0 32 be 78 57 6f bd
       -0.108610086 -0.18216345 -0.17474541 -0.058433026
000050 bf fd db 3b 23 3c 6c bd 07 b4 45 be 1b e7 a0 be
       0.0067135985 -0.05767454 -0.19306956 -0.3142632
000060 c7 8a 8e 3d 3a f0 68 be f7 79 45 be 0e 2d 8f 3e
       0.069600634 -0.22747889 -0.19284807 0.27964061
000070 9c 0f 64 bd 7d 02 e3 bd f9 f1 54 be a3 e0 ce 3d
       -0.05567895 -0.11084459 -0.2079543 0.1010144
000080 bb 10 4f 3e 61 d9 c3 3c 9d 02 88 bd a7 52 b4 bd
       0.20221226 0.023907365 -0.066411234 -0.08804827
000090 fa 18 83 3e 6c 47 13 3e 55 fe 91 be 79 62 71 bd
       0.25604993 0.14382714 -0.28514352 -0.0589318
0000a0 11 25 8b 3e 02 d2 5f 3e 49 4f 73 3e a7 27 ca 3d
       0.27176717 0.21857455 0.23760714 0.09870844
0000b0 70 df 14 bd 2c 91 6c bd c6 1a 2c 3e 8e bc 24 be
       -0.0363459 -0.057755634 0.16807088 -0.16087553
0000c0 16 40 d8 bd 05 be 83 3e 7c d5 a0 be 16 ee 7f 3e
       -0.105590984 0.2573091 -0.31412876 0.24993166
0000d0 b2 9c b8 3d 58 78 96 bd 02 88 7e be b1 92 bd 3d
       0.09014262 -0.073471725 -0.2485657 0.09256495
0000e0 35 a1 39 be 2f 2a a5 3d 8f bd f2 3d 39 b6 7c 3e
       -0.18127902 0.080646865 0.11852562 0.24678887
0000f0 ad 56 71 be 38 7f 4d 3e af 70 a1 3c 77 fb 82 3e
       -0.2356822 0.20068061 0.019707052 0.25582477
000100 78 d5 0c be 2d f4 1b bd 47 a4 2f 3e 9b 6e 84 bd
       -0.13753307 -0.03807466 0.1715251 -0.06466409
000110 ea d7 19 3e 67 1f 55 be ad 95 d1 3d ae f9 55 be
       0.15023771 -0.2081276 0.102336265 -0.20896026
000120 a4 b7 58 be fc 1e 2c 3e 0a e1 93 bd 1e c2 95 3e
       -0.21163803 0.16808695 -0.07220657 0.29249662
000130 3a 71 85 be ac 6d 9a bc 80 de 72 be 41 17 5c bd
       -0.26062948 -0.018851124 -0.2371769 -0.053733114
000140 d2 bc 0b bd 75 72 0e 3d ea 17 59 3e e4 ba 1a be
       -0.03411562 0.034777123 0.21200529 -0.15110356
000150 cb 94 a5 3e 93 f0 dd 3c 4c 8d 47 3c be 9a 63 be
       0.32340083 0.027092254 0.012179684 -0.22226998

bias f4 [8]
000000 3a 43 79 be 4a aa 93 3e 4f f3 82 be b0 8f 6f 3e
       -0.24342051 0.28840858 -0.25576255 0.23394656
000010 44 c6 92 3e 7f d4 09 3e 57 92 e5 bd c1 0c 9b be
       0.2866689 0.13459967 -0.11209553 -0.30283168

weight f4 [11, 8]
000000 5f 27 05 3e bd 3b 84 be d8 ea 8b be 61 f3 87 be
       0.130033 -0.25826827 -0.2732761 -0.2655287
000010 9f 82 e8 3d 75 48 1d be ae 87 13 be f0 60 b2 be
       0.11353039 -0.15359671 -0.14407226 -0.34839582
000020 7d 1c 67 bd f8 37 a6 3e 9c 68 2e be d5 cc e4 3d
       -0.056423653 0.32464576 -0.17032093 0.11171881
000030 25 c5 6a 3e de f3 e9 bd a9 d1 2a be cf bb 79 bd
       0.22926767 -0.11423467 -0.16681542 -0.060970124
000040 92 44 de bd 6d a8 8a 3e 17 27 93 bd 26 05 a7 bd
       -0.108529225 0.27081624 -0.0718519 -0.08155279
000050 97 80 8a be 96 53 90 3d 26 2c f1 3d 47 2c 35 be
       -0.2705123 0.07047193 0.11775999 -0.17692672
000060 5b 29 4a 3d 0b 83 d1 be 0d e2 5a 3d ce 60 96 3e
       0.049355846 -0.4092029 0.053438235 0.2937073
000070 4b 90 56 3e 56 6f 80 3e 96 a6 e9 bd 65 15 54 3e
       0.20953481 0.25084943 -0.11408727 0.20711286
000080 00 cf 5d 3e c7 50 61 bd 00 c4 39 be a3 2b 8e be
       0.21660995 -0.055008676 -0.18141174 -0.27767667
000090 3d a9 8e 3e db 42 b5 be b9 2f 5b 3e ee 21 45 3e
       0.27863494 -0.3540257 0.21404923 0.19251224
0000a0 f2 62 d7 bb f5 c9 78 be 57 be 3c be 59 c5 fe bd
       -0.0065730745 -0.2429579 -0.18431984 -0.12439985
0000b0 50 f2 83 3e 1f 24 0f 3b 9f f7 bd 3e 30 8f a2 3e
       0.25770807 0.0021841598 0.37102982 0.31749868
0000c0 47 74 cf bc 8d de c3 3a 42 e9 5c 3c 22 7b 5e 3e
       -0.025324 0.0014943645 0.013483347 0.21726659
0000d0 ee 46 88 bd a0 a6 bc bc 77 59 ab 3e c8 6b 96 3e
       -0.06654154 -0.023028672 0.33466694 0.29379106
0000e0 a2 98 f6 3d 6d 92 87 3e 05 86 4b be dc 13 58 be
       0.12040831 0.26478902 -0.19875343 -0.21101326
0000f0 ee 69 0a 3e 3b a3 b2 be 1f d5 0d 3e 2a 16 57 be
       0.13516971 -0.3489016 0.1385083 -0.21004549
000100 ab 26 81 bc 4d 84 00 3e c2 b7 37 be 67 72 bc be
       -0.015765509 0.12550469 -0.17941192 -0.36806032
000110 9e 13 12 bd c4 0e 18 bd 2e c1 3e 3e 1f b0 f6 3d
       -0.03566324 -0.037123457 0.1862838 0.12045311
000120 a8 ae 7a 3e bf 32 75 be d9 c0 83 bd 56 15 91 be
       0.24480689 -0.2394514 -0.06433267 -0.2833659
000130 30 2e 4d be 1d 4e 48 3e 7b 27 21 3e b9 27 89 3e
       -0.2003715 0.19561048 0.15737717 0.26788118
000140 b1 19 80 3e e9 15 4f bd 00 6f a8 be 14 4c b2 be
       0.250196 -0.050558005 -0.32897186 -0.34823668
000150 56 c2 98 be f2 24 fd 3d 32 d2 c4 bd 90 d6 fb 3d
       -0.29835767 0.123605624 -0.09610404 0.12296784

bias f4 [11]
000000 3f 22 9a 3e 37 84 30 be c0 75 7c 3e 9d 19 4c 3e
       0.30104253 -0.17237936 0.24654293 0.19931646
000010 f1 c6 89 bd 2c 01 75 be 06 f6 fd bd c4 ae 90 3e
       -0.06727398 -0.23926228 -0.12400441 0.28258336
000020 12 56 5e be 59 fb 9d 3c bb 3f 8a 3e
       -0.2171252 0.019284891 0.27001747

weight f4 [11]
000000 45 5b 7a 3f 25 1c 7a 3f fb b4 7a 3f 82 c7 89 3f
       0.97795516 0.97699195 0.97932404 1.076401
000010 ae 61 6a 3f fe e8 80 3f 93 48 7b 3f ca f1 95 3f
       0.915553 1.0071104 0.98157614 1.1714413
000020 38 25 6d 3f 62 42 8b 3f 64 2c 81 3f
       0.92634916 1.0879633 1.0091672

bias f4 [11]
000000 62 b9 51 3d f5 18 1a 3d 05 a1 b1 3c a6 ab 46 bc
       0.051202185 0.037621457 0.021683225 -0.012125885
000010 3a 9e 6d bc c6 f6 c8 3c 43 79 26 3c 5a ea 8f bd
       -0.014503056 0.024531733 0.010160747 -0.07027121
000020 b4 9f 4b bd 63 a5 e0 3b 24 9e 10 bd
       -0.04971285 0.006855653 -0.035307065

weight f4 [11]
000000 62 25 80 3f a3 c5 7f 3f 3e 37 79 3f 12 98 83 3f
       1.0011408 0.99910945 0.9734992 1.0280783
000010 25 4b 67 3f 8f 8f 82 3f f3 99 74 3f e8 ec 85 3f
       0.90349036 1.0200061 0.9554741 1.0462923
000020 2a e1 78 3f 58 1d 8a 3f 00 91 80 3f
       0.97218573 1.0790205 1.004425

bias f4 [11]
000000 27 ef 3a 3d 67 76 b1 3c d2 a8 59 3c b6 20 3d bc
       0.04563823 0.021662904 0.013284879 -0.011543443
000010 29 41 8e bc a2 88 b0 3c 5d 03 c2 3c 96 db 3d bd
       -0.017365055 0.021549527 0.023683244 -0.04635199
000020 e3 4b 40 bd e2 31 18 3c ab 16 fc bc
       -0.04694737 0.009289237 -0.030772528

in_proj_weight f4 [33, 11]
000000 23 6c 71 3d b0 55 e5 3b 10 0e 9a 3e ca 48 3d be
       0.058941018 0.00699874 0.30088854 -0.18484798
000010 73 d5 86 bd ed c0 77 bd a2 9a d7 bd f7 0d 8c bd
       -0.06583681 -0.060486723 -0.10527541 -0.06838601
000020 30 16 86 be 2f 26 db 3d dc 88 1b be ea be e4 3d
       -0.26188803 0.10700642 -0.15188926 0.111692265
000030 b7 ba 7c 3a 40 7e 9c be df 04 a7 3e 83 6f d5 3e
       0.000964086 -0.3056507 0.32620904 0.4168664
000040 04 b2 ff 3d ed 7b 18 be 33 0e 37 bc e1 e6 17 3e
       0.12485126 -0.14891024 -0.011172819 0.14834167
000050 63 09 6e bc 8e 34 47 be c7 be 16 be 44 5e a2 bd
       -0.014528605 -0.19453642 -0.14721213 -0.07928136
000060 19 f3 1d 3b 9d a3 b3 be 55 19 5d 38 f9 7f 72 3e
       0.0024101196 -0.35085765 5.27141e-05 0.2368163
000070 14 0d 05 3d 59 51 e7 be 36 31 5b 3e 4d 85 9f 3e
       0.032483175 -0.4517925 0.21405491 0.31156388
000080 d5 c4 5a be 1f bf a3 be f8 03 30 be 2c 66 cb 3d
       -0.21364148 -0.3198175 -0.17189014 0.09931597
000090 39 a7 db bd 5a 49 b3 3d a0 8b 6d 3d 34 85 a8 3e
       -0.107252546 0.08754225 0.057994485 0.32914126
0000a0 0d 3f 34 bd 3e e3 b1 bd cf 80 4d be f3 e5 76 be
       -0.044005442 -0.08685921 -0.20068668 -0.24111156
0000b0 47 96 cb be 68 db c3 be 32 6c aa 3d b2 8a 11 3e
       -0.3976309 -0.3825333 0.08321418 0.14213064
0000c0 eb 25 19 bd 58 28 b7 be 90 f4 31 3e 22 d8 24 be
       -0.037389677 -0.35772967 0.1737845 -0.16098073
0000d0 80 51 06 bb 3d 85 1a 3e 37 6f 2a be 9e 0f 42 be
       -0.0020495355 0.15089889 -0.16643988 -0.1895127
0000e0 cf 98 48 3e e2 93 a5 3d b6 be 81 3e 46 ff 00 bd
       0.19589542 0.08084847 0.25340813 -0.031493448
0000f0 77 64 26 be d0 31 b3 3e 68 62 a1 bd 8b 46 b0 bd
       -0.16249262 0.3499894 -0.07880098 -0.08607205
000100 55 5f 8e bc db 4c 3f be 68 f9 fa 3d 85 1d 77 bc
       -0.017379442 -0.18681662 0.12254602 -0.015082722
000110 06 51 e9 bd 6f 4d 71 be bc 26 87 be 30 f3 c3 bd
       -0.11392407 -0.23564695 -0.2639674 -0.09567869
000120 c2 00 24 be 41 2e 42 3e 15 cf da 3d 2b 66 1c 3e
       -0.16015914 0.18962957 0.10684029 0.15273349
000130 8f 20 22 3e de 19 66 3e d8 d5 d2 3e 31 86 ef bd
       0.15832733 0.22470805 0.41178775 -0.11695517
000140 58 77 fa 3d 4e 36 25 be 05 11 bd 3d 80 7b f7 3d
       0.12229794 -0.16133997 0.09231762 0.12084103
000150 a1 b4 b5 3e b0 05 17 3e 28 71 91 3e 7d bc c2 bd
       0.3548937 0.14748263 0.28406644 -0.095086075
000160 e7 24 9c 3d 23 96 5b 3d 52 80 49 3e 56 db a1 3d
       0.07624226 0.05360998 0.19677857 0.07903163
000170 70 3d 2f be df c6 93 be 31 80 77 3e 5d ff 91 3c
       -0.1711328 -0.28862664 0.24169995 0.017821962
000180 49 60 66 3d 01 e9 91 3e b6 af 5a 3e eb dd 78 3d
       0.05624417 0.2849808 0.21356091 0.060758512
000190 a5 dd 7e be 85 a9 a3 3e f1 02 76 be 44 94 0a 3c
       -0.24889238 0.3196527 -0.2402456 0.008458201
0001a0 6f 6f 93 be ce e2 80 3e 08 ae fc 3d ed fe 96 be
       -0.28795955 0.25173038 0.12337881 -0.29491368
0001b0 57 3b 55 be a8 a8 9b 3e 99 de 0b bd f5 f5 9f bd
       -0.20823418 0.30402112 -0.034147833 -0.078105845
0001c0 f1 e9 42 3e a0 93 c6 3c 7e 44 e6 be 5c ad 83 be
       0.19034554 0.024240315 -0.4497413 -0.257182
0001d0 3c be 74 bd 26 98 b5 3e ae 8e 6a 3d 85 af 42 3e
       -0.059751734 0.35467643 0.057264976 0.19012268
0001e0 2b 54 1b 3e 36 1c 85 be a1 8d 58 3e a6 14 b1 bc
       0.15168826 -0.25998086 0.21147777 -0.021616291
0001f0 e5 0b 9f 3d 21 f7 9a bd b4 5c 85 3d 2d 20 9f bc
       0.077659406 -0.07566667 0.06511822 -0.019424522
000200 9c 7e 7f bd b7 a2 90 bd 93 74 1d 3d dd db 4b be
       -0.062376603 -0.070622854 0.038441252 -0.1990809
000210 57 05 f3 bd 7d 4a c7 b8 20 cb b1 3e 19 c7 31 3e
       -0.11866253 -9.502934e-05 0.34725285 0.17361106
000220 44 7c bc bc 97 6f 3a bc 76 db b0 be 8c 27 da 3e
       -0.023008473 -0.011379144 -0.34542435 0.42608297
000230 e1 79 7d 3e d8 6c af 3e c8 d3 97 3e 22 9e 89 3e
       0.24753524 0.3426273 0.29653764 0.26878458
000240 da 20 09 3e 60 50 15 bc 1b 34 dd 3d 6f b1 94 be
       0.13391438 -0.009113401 0.10800954 -0.2904162
000250 84 12 15 be 22 02 37 be fe cf c3 3d c5 e0 73 3d
       -0.14557844 -0.17871907 0.09561156 0.05954053
000260 0c 9f a6 3e 66 6b a2 be ae b0 b4 3e d4 08 2c 3e
       0.32543218 -0.31722564 0.35291046 0.16800243
000270 2d 08 21 be 33 e1 19 3e 0f 9e 53 3e 07 f7 9e 3e
       -0.15725775 0.15027313 0.20665763 0.31047842
000280 ae e6 96 bd 32 2c 00 3e 83 99 bd 3e f3 00 64 3e
       -0.073682174 0.12516859 0.37031183 0.22265987
000290 7b e3 5f 3e 98 7d c4 be 6e 37 1e be 96 2b 94 3e
       0.2186412 -0.3837707 -0.15450832 0.28939503
0002a0 0c 29 ca 3e 00 30 38 be 00 2a 59 3e 68 29 d9 3e
       0.3948444 -0.1798706 0.21207428 0.42414403
0002b0 16 50 f2 bc 28 26 03 3e 46 c1 e1 bd 60 11 d4 ba
       -0.029579204 0.12807524 -0.11023192 -0.0016179495
0002c0 ca eb 3b bd c7 6a 92 3c 8c 0b 93 be 6f 4f 5f be
       -0.045879163 0.017873181 -0.28719747 -0.21807645
0002d0 98 c3 26 be 2f c0 0e ba cb 37 0c 3d bc c2 12 be
       -0.1628555 -0.00054455077 0.034232896 -0.14332098
0002e0 87 db 8c be 46 7d 80 be b9 e4 6a 3d 03 c9 aa 3d
       -0.27511236 -0.25095576 0.057347033 0.08339121
0002f0 63 9a bb be c8 20 cb 3e f3 e6 49 bd 26 6a 8f 3e
       -0.36641225 0.39673448 -0.049292516 0.28010672
000300 40 b0 20 3d bc 06 28 3d 20 44 18 3e 85 9c 1c 3c
       0.039230585 0.041022047 0.14869738 0.009558802
000310 c2 4b 32 3e 0c f5 d1 3d c9 a5 98 be 71 7b 6f 3e
       0.17411712 0.10251817 -0.29813984 0.23386933
000320 6b 0d 21 3e c5 47 ac 3e b5 58 9b bd 71 d6 1f bc
       0.15727775 0.33648506 -0.07585279 -0.009755717
000330 bf 26 ae 3d 8c 96 e6 bd f9 16 df bc ed 3b 3b be
       0.08503484 -0.11259183 -0.027232634 -0.18284579
000340 6e 7d 4f 3d a9 30 99 3e f9 c0 a2 bd 4d 75 8c 3e
       0.05065673 0.29919937 -0.07946963 0.27433243
000350 ba 3e 87 3e 0e ae ac be ed 4e af 3e d6 b4 46 be
       0.26415044 -0.33726543 0.34239903 -0.19404921
000360 97 d7 f9 3d 7f 17 9c be 0d 19 24 3e 09 87 e9 3c
       0.121993236 -0.30486676 0.16025181 0.028506773
000370 c3 d2 01 3e f6 b0 bc 3e 75 e2 1f be 5c 6a 85 3e
       0.12678055 0.3685376 -0.1561373 0.26057708
000380 b2 0a c7 bd 39 ea 05 3e e8 01 8a be 67 e3 f8 3d
       -0.09718837 0.1307763 -0.2695458 0.121527486
000390 87 67 6a be 33 2d 9e be 88 54 bb be ef 86 db 3d
       -0.22891055 -0.3089386 -0.3658793 0.10719096
0003a0 d9 6f aa bc b6 ce 06 be a9 d8 19 3e 47 b9 2a be
       -0.020805286 -0.13164791 0.15024056 -0.1667224
0003b0 1a a0 71 3e 1e 77 a9 be d3 39 32 be 52 1f 5f be
       0.2359623 -0.33098692 -0.1740487 -0.21789292
0003c0 79 52 99 3d 25 c3 db bd fa 69 99 be 69 85 0d bd
       0.074864335 -0.1073058 -0.29963666 -0.034551058
0003d0 05 2f 04 3d f8 c2 d6 3e 4c be 8c 3e ec ef 0a 3e
       0.032271404 0.41945624 0.27488935 0.13568085
0003e0 c5 0e 54 3d cb 94 de 3d 60 c1 8a 3e e4 94 ae be
       0.051771898 0.10868224 0.27100658 -0.3409797
0003f0 68 92 0d be ef 14 25 3e b0 52 32 bd b8 2d 01 be
       -0.13825381 0.16121267 -0.04353589 -0.12615097

in_proj_bias f4 [33]
000000 6b 35 ce bc 7f 9b 29 bc bc 87 3d 3d 49 45 98 3d
       -0.025171956 -0.010352015 0.046272025 0.0743509
000010 4c 10 1d 3d 32 da 3a 3d 58 10 0b be ee 81 10 be
       0.03834562 0.045618244 -0.13580453 -0.14112064
000020 d8 4b b9 bd 79 67 c6 3c e2 5e 4a bd 34 77 86 ba
       -0.09047669 0.024219261 -0.049406894 -0.0010258914
000030 d8 f6 ac 38 1e 7a 1e 3a da 98 3f 3a 30 85 6b b7
       8.247577e-05 0.00060454186 0.00073088484 -1.4038102e-05
000040 1f 8a 81 39 7c 3a 54 ba 13 f0 9f 39 2c 62 78 3a
       0.00024707706 -0.0008095873 0.00030505712 0.0009475078
000050 ae a3 b4 b9 e3 ba 8a ba 49 6d 1e bd 0f 04 3c 3d
       -0.00034454226 -0.0010584261 -0.03867844 0.045902308
000060 3a 17 ee bc 63 6b 68 bc d3 cd 4b 3d 04 98 ed bc
       -0.02906381 -0.014185759 0.049756836 -0.02900315
000070 4b 2c ca 3c eb 4b 60 3c 98 37 91 bc 1c f7 1d bd
       0.024679324 0.013689975 -0.017726704 -0.03856574
000080 bd 1a 79 3c
       0.015204129

weight f4 [11, 11]
000000 61 4f f2 3d 61 50 0a be 76 f5 43 bd c0 72 ae 3c
       0.118315466 -0.13507225 -0.04784151 0.021294951
000010 c0 6f 47 3e b7 9e 28 3d 0d ce ee bc 6e 8b a6 3c
       0.19476223 0.041166987 -0.029150987 0.020330157
000020 61 d0 64 bd 43 8a 28 be 13 c7 ea bc 4c 41 15 bd
       -0.055862788 -0.16458993 -0.02865938 -0.036439225
000030 31 af 5c 3e ea 4d c4 3d ce 93 1b 3c 5e 6e a7 bd
       0.21551205 0.095851734 0.009495689 -0.08175348
000040 45 bf ec bd f7 3d 4b 3e a3 59 ba 3d d4 da 50 3e
       -0.11559919 0.19847856 0.09099128 0.20395976
000050 4d 58 5e be b7 a0 10 3e be f4 14 bd 45 6d 53 bd
       -0.21713372 0.14123808 -0.036366217 -0.05161788
000060 73 f0 c2 3d 2f d2 a8 3d 6e a0 54 bd 0f d6 56 be
       0.09518518 0.08243214 -0.05191081 -0.20980094
000070 0f d7 c6 3c 52 7b ca 3d e0 ae 14 3c 0d 35 e3 bd
       0.02427247 0.09886803 0.009074897 -0.11094103
000080 d4 01 ad 3d c8 e0 ac 3e 9d 0f 1c be eb 32 8d 3e
       0.08447614 0.33765244 -0.15240331 0.2757791
000090 ff f5 cd bc a5 ce 20 bd 82 cd 33 3e 70 ca 95 3d
       -0.025141714 -0.03925957 0.17558864 0.073140025
0000a0 b1 2f 0e bf 3e 93 6c 3d 03 5b 06 be 05 2c ba 3e
       -0.5554152 0.05775761 -0.13120656 0.3636171
0000b0 25 29 b4 bd e3 f6 8a 3e 3d 8a d4 3d 85 f0 1a be
       -0.0879691 0.27141485 0.10377929 -0.15130813
0000c0 b4 23 e6 bd 67 b9 c2 bb ed bd 99 bd 39 5b 8c be
       -0.112372786 -0.005942512 -0.075069286 -0.27413347
0000d0 db 52 09 be f5 1e 3d be c9 8f 64 be b6 9f 8d be
       -0.13410513 -0.1846884 -0.22320475 -0.27660912
0000e0 05 85 48 3e 2e ca 11 be c9 e8 33 be fc c7 92 bd
       0.19581993 -0.14237282 -0.17569269 -0.0716705
0000f0 28 40 23 be 9c 69 4a be f3 f1 5d be 47 cd 73 bd
       -0.15942442 -0.1976685 -0.21674328 -0.05952194
000100 e5 02 8f bd fb 3e fa bd 0e cf 24 3e 33 1e c3 3d
       -0.06982974 -0.12219044 0.1609461 0.095272444
000110 00 38 2a 3e 17 ea d2 3c 33 a1 1d be 26 29 88 3d
       0.16622925 0.025746388 -0.15393524 0.066484734
000120 b7 f4 6e be 0d c7 67 3e 3c bb bf bd 98 aa 17 be
       -0.23335539 0.22634526 -0.09361884 -0.1481117
000130 1e ac c4 bd 3d c0 d3 bd 78 c9 a7 bd 3c 32 15 3e
       -0.09603141 -0.10339401 -0.08192724 0.14569944
000140 f5 7b 55 3d f0 d0 98 bd 28 70 b6 bb 5c 3f 0f 3d
       0.052120168 -0.07461727 -0.0055675693 0.034972534
000150 d8 79 f7 bc 6e 3a 78 3e 04 ac 79 be ab 92 85 3e
       -0.030209467 0.24241039 -0.24382025 0.2608846
000160 68 7a 8b 3e 2c b8 c9 3d f4 69 63 3e fb 54 00 be
       0.27241826 0.09849581 0.22208387 -0.12532417
000170 ca 52 40 be 80 2a 40 3d c2 ea a1 be 23 c7 18 be
       -0.18781582 0.04691553 -0.31624418 -0.14919715
000180 e9 f0 93 3d 0b 58 09 3e 87 1b d5 3c e0 eb a4 be
       0.07223684 0.13412492 0.026014103 -0.32211208
000190 8a df 91 bd ca da 8c 3d 27 0a 86 be 1c f3 54 3e
       -0.07122715 0.06877668 -0.2617962 0.20795864
0001a0 6a ee 5b 3e 88 a7 5b 3a 89 dd 15 3d 6f b9 3c be
       0.21477666 0.0008379151 0.036588226 -0.18430112
0001b0 72 28 75 be 1b 23 13 be 86 f5 c2 3d 34 52 15 3d
       -0.2394121 -0.1436886 0.09519486 0.036455348
0001c0 7e 00 34 3e ba d8 ac 3e 7e 58 52 be 24 92 6f be
       0.17578313 0.337591 -0.2054157 -0.23395592
0001d0 bb 6e 76 3e 29 6b af 3e a3 db a0 3e 71 2c b7 3e
       0.24065678 0.34261444 0.3141757 0.35776094
0001e0 65 95 73 be
       -0.23787458

bias f4 [11]
000000 51 e4 78 3d 5e 78 63 3d d7 7b 3d bb 23 dd 16 bd
       0.060764614 0.055534713 -0.0028912926 -0.036831986
000010 38 4c 35 bc bd 27 18 3d 6c cc c3 3c 8d 2d 3f bd
       -0.011065535 0.037147272 0.023901187 -0.0466743
000020 7e 6c 76 bd 50 86 7c 3c 71 0d 35 bc
       -0.06016206 0.015412882 -0.011050568

weight f4 [8, 11]
000000 ef 6a 67 3e 61 2a 30 be 63 7d 43 be 6a ed 72 be
       0.22599386 -0.17203666 -0.190908 -0.23723379
000010 93 8c 04 3d 63 8e 10 3b d6 ca 04 3e f1 00 8e bd
       0.032360625 0.0022057525 0.12968001 -0.06933773
000020 14 15 3f bd 59 e3 31 3e 9f 21 8d 3e d6 d9 80 3c
       -0.04665096 0.17371882 0.27564713 0.015728872
000030 8a 9f 75 bd 6e 28 4a 3e 98 ee 33 be 4d 71 73 be
       -0.0599666 0.19741985 -0.17571485 -0.2377369
000040 30 50 00 be 1c be 7b be 64 8d e1 bd c1 60 5b bd
       -0.12530589 -0.2458424 -0.11013296 -0.05355907
000050 21 d8 ae bc b0 75 02 3d 54 3e 1c be 1d 52 92 be
       -0.021343293 0.031850517 -0.15258151 -0.28578272
000060 87 d1 2b bc e9 84 17 be cd 64 25 be 8e f5 8a 3e
       -0.010486967 -0.14796795 -0.16151734 0.27140468
000070 ba 2a 90 bd 25 2f bc bd 41 70 0c be be 4f 50 3d
       -0.070393994 -0.091886796 -0.13714696 0.050857298
000080 0d 0e eb 3d d6 65 ff 3c 8d 3f 86 bd d7 ec 1d be
       0.11477289 0.031176489 -0.0655509 -0.15422378
000090 8f 3f 5d 3e eb f3 4e 3e 2b 25 5c be 10 48 6f bd
       0.21606277 0.20210235 -0.21498553 -0.058418334
0000a0 cf e7 5b 3e 40 1c 99 3e a4 17 8c 3e 47 a7 3b 3d
       0.21475147 0.29904366 0.27361786 0.045813825
0000b0 f7 e7 20 bd 72 2c 66 bd 54 ff c3 3d 6c 9f 43 be
       -0.03928372 -0.05619473 0.09570184 -0.19103783
0000c0 44 73 92 bd 28 5c 8b 3e fc a6 5b be ef a9 86 3e
       -0.071508914 0.27218747 -0.21450418 0.26301524
0000d0 61 9c cb 3d 17 c5 53 bd 98 ef 8c be 1d b6 26 3e
       0.09941936 -0.05170163 -0.27526546 0.16280408
0000e0 27 27 2a be 20 3d 13 3e 39 b1 42 3d 11 96 6e 3e
       -0.16616498 0.14378786 0.047532294 0.23299433
0000f0 7d c6 41 be d5 cb 68 3e 56 03 e6 3d f8 c0 a0 3e
       -0.18923374 0.22734006 0.11231105 0.31397223
000100 04 43 95 be 0b cd b6 bd f4 71 79 3e d0 a2 d6 bd
       -0.2915269 -0.089258276 0.24359876 -0.10480273
000110 d4 80 40 3e e2 7d 58 be 3e 34 0f 3e 2d d4 2a be
       0.18799144 -0.2114177 0.13984773 -0.16682501
000120 9f a4 5f be ba 27 bc 3d 47 22 ae bd 6d d1 a3 3e
       -0.21840142 0.09187265 -0.08502632 0.31995717
000130 b8 83 95 be c8 b8 1d 3d 25 90 fc bd 4f 4e 14 bd
       -0.29202056 0.0385063 -0.12332181 -0.036207493
000140 25 d2 73 bd 3c b9 c1 3d d1 e8 5a 3e 71 bd 12 be
       -0.05952658 0.09459159 0.21377875 -0.14330079
000150 30 a7 81 3e dc 4a e0 3c 2b ee 2a bc 66 61 92 be
       0.25322866 0.027379446 -0.01043276 -0.28589934

bias f4 [8]
000000 8b a1 8d be 1b f2 9b 3e 15 51 a4 be 93 6c 96 3e
       -0.2766231 0.3045815 -0.3209311 0.2937971
000010 48 cf 8d 3e c7 71 14 3e 52 27 0e be fd 24 93 be
       0.27697206 0.14496528 -0.13882187 -0.28739157

weight f4 [11, 8]
000000 f8 90 2c 3e 58 7f 7c be cf 44 52 be ce 12 7c be
       0.16852176 -0.24657953 -0.20534061 -0.24616548
000010 28 2c b5 3d 77 42 22 be f5 f7 d6 bd 0e 0d 91 be
       0.08846313 -0.15845667 -0.10496513 -0.28330272
000020 55 4c a8 bd 30 67 9e 3e 0f fa 16 be 22 6d 20 3e
       -0.08217684 0.309381 -0.14743827 0.15666631
000030 a1 11 87 3e 6f 9c 75 bd cf b2 5d be 00 ff a3 bc
       0.26380637 -0.05996364 -0.21650241 -0.020019054
000040 22 39 be bd ea 51 94 3e 65 82 74 bd 37 7d 37 bd
       -0.09288241 0.28968745 -0.059694666 -0.04479715
000050 1b 6c 9c be c9 9b 2f 3d 08 78 14 3e 7b 2b 4c be
       -0.30551228 0.042873178 0.14498913 -0.19938461
000060 a2 0a c9 bc 6c 8e dd be 0c 1a 84 bc 2f cd 4e 3e
       -0.024541203 -0.43272722 -0.016125701 0.20195459
000070 32 b0 45 3e 05 41 55 3e 3c d2 37 be a6 59 d3 3d
       0.19305494 0.20825584 -0.17951292 0.103198335
000080 06 d1 34 3e be 07 d3 bc bb 1f 5e be 72 61 a4 be
       0.17657861 -0.025760528 -0.21691792 -0.32105595
000090 1b 24 9b 3e 55 5a cf be 1a 7b 44 3e 9c 87 58 3e
       0.30300984 -0.40498605 0.19187585 0.21145481
0000a0 10 fd f1 3c 09 42 6f be d8 a8 44 be 6b 47 f5 bd
       0.029539615 -0.23365034 -0.19205034 -0.119765125
0000b0 80 a2 82 3e 3e dd 13 be 0f 22 bc 3e cd 77 81 3e
       0.25514603 -0.14439866 0.36744735 0.25286713
0000c0 f4 bc ac bd 2d f2 a4 b9 fc f7 00 3d d8 9f 4d 3e
       -0.084344774 -0.00031460953 0.031486496 0.20080507
0000d0 6c 22 43 bd de fc 6a 3c 19 28 a7 3e 9d 79 a2 3e
       -0.04764025 0.014342515 0.3264778 0.3173341
0000e0 93 ac 01 3e 3d 49 9c 3e 46 51 12 be d4 ac 6e be
       0.12663488 0.30524626 -0.14288816 -0.23308116
0000f0 ee 76 6d 3e 96 f0 dd be 79 3a 37 3e 26 52 8b be
       0.231899 -0.43347615 0.178934 -0.27211112
000100 ec 48 6a bc 8e 5d 25 3e 74 f2 2f be 8b 48 b6 be
       -0.0142996125 0.1614897 -0.17182332 -0.3560222
000110 dd 8c a0 bb f2 26 53 bd 5b da 6d 3e f3 8d a8 3d
       -0.0048996047 -0.051550813 0.23227827 0.082302
000120 d9 93 6c 3e 56 0c 80 be a1 c8 5d bd 64 00 a8 be
       0.23103274 -0.25009412 -0.054146413 -0.32812798
000130 11 5d 47 be 5b 46 83 3e 52 23 36 3e 4d 60 8b 3e
       -0.19469096 0.25639614 0.17786911 0.2722191
000140 6e 1a 72 3e e7 b9 69 bd 2f d6 95 be 55 7f a8 be
       0.23642895 -0.057062056 -0.29264972 -0.32909647
000150 d7 1e b0 be d1 21 10 3e bf 20 6d bd 09 22 00 3e
       -0.3439853 0.140754 -0.057892557 0.12512983

bias f4 [11]
000000 9f 30 99 3e e4 16 2c be 72 29 61 3e fe 59 1f 3e
       0.29919907 -0.16805607 0.21988466 0.15561673
000010 d6 19 94 bd ca 16 84 be b2 c8 e3 bd a5 f2 9d 3e
       -0.0723149 -0.25798637 -0.11122264 0.30849186
000020 58 f8 48 be 0f d0 e2 3c b9 0d 86 3e
       -0.19625986 0.0276871 0.26182345

weight f4 [11]
000000 3c db 7f 3f 74 89 7e 3f e1 87 7a 3f 59 7f 89 3f
       0.999439 0.99428487 0.97863585 1.0741988
000010 36 6e 69 3f 10 cd 7b 3f ea 04 7b 3f 3f 59 84 3f
       0.91183794 0.98359776 0.98054373 1.0339736
000020 09 e7 78 3f 69 e7 87 3f 66 87 86 3f
       0.9722753 1.0617496 1.051007

bias f4 [11]
000000 66 5b 27 3d ad 2c 3c 3d 78 85 38 3b b2 25 4e bc
       0.04085865 0.045941044 0.0028155725 -0.012582229
000010 31 78 6f bc f9 3f 41 3d 43 21 e8 3c 73 95 5b bd
       -0.014616058 0.04718015 0.028336173 -0.053609323
000020 6e 7d 1a bd f0 55 09 3c 94 af 8b bc
       -0.037717275 0.0083823055 -0.017051496

weight f4 [11]
000000 9b 5c 7b 3f 76 28 82 3f c7 3e 7e 3f 0c 05 83 3f
       0.9818818 1.0168598 0.9931454 1.0235915
000010 39 54 71 3f 01 db 80 3f e6 c7 79 3f ac ab 79 3f
       0.9426914 1.0066835 0.97570646 0.97527575
000020 bd c8 7c 3f 2e 65 85 3f 8f 93 87 3f
       0.987438 1.0421503 1.0591906

bias f4 [11]
000000 9a a5 26 3d ff f9 21 3d 08 c9 e3 bb f7 f1 c0 bc
       0.040685274 0.039545055 -0.006951455 -0.023552878
000010 9d 32 a7 bc f7 5c 7b 3d d7 52 07 3d 47 ac 0a bd
       -0.020409876 0.061367955 0.033037987 -0.033855703
000020 a7 f2 28 bd 0e e5 68 3c e2 24 a0 bc
       -0.041247036 0.014214767 -0.019548837

in_proj_weight f4 [33, 11]
000000 96 9b af 3d 51 f1 af 3b 2a ca 84 3e 8d d2 f8 bd
       0.085745975 0.0053693433 0.2593549 -0.121495344
000010 d3 19 ba bd 62 f2 90 3c ac 70 94 bd 01 7a 22 be
       -0.09086957 0.017693702 -0.07248053 -0.15866853
000020 9c aa 8d be 9a 9b e8 3d 02 c2 17 be 19 2b c8 3d
       -0.27669227 0.11357804 -0.14820102 0.09773845
000030 5e 61 a7 bd 7e a3 bd be 7b 2b d1 3e 73 f8 c2 3e
       -0.08172868 -0.37038797 0.40853485 0.38080177
000040 79 31 1d 3e 9d 7a ef bd d7 ab c9 3c 94 9a 28 3e
       0.15350904 -0.116933085 0.024618072 0.16465217
000050 00 f6 03 bd 7b 6a 2e be 92 ab 41 be 91 5f 03 bd
       -0.032217026 -0.17032807 -0.18913105 -0.03207356
000060 68 a7 6c 3d cb 44 de be f6 74 98 bd 44 6b 4e 3e
       0.05777684 -0.4341186 -0.074441835 0.20158106
000070 e3 cf 95 3d fa 50 ae be 7e 2b 1e 3e 70 a6 9d 3e
       0.07315042 -0.34046155 0.15446278 0.30791044
000080 da 5f 4f be 25 a1 83 be 45 18 f6 bd d4 71 77 3e
       -0.20251408 -0.2570888 -0.12016348 0.24164516
000090 e0 0b 28 be cf 32 03 bd 45 5d c7 ba 9e 83 ad 3e
       -0.1641078 -0.032030877 -0.0015210292 0.33889478
0000a0 51 e1 a3 bd ba d0 c3 bd af 55 50 be 1f 7d 89 be
       -0.0800196 -0.09561296 -0.20345186 -0.26853272
0000b0 0a 3e c1 be 77 5c cc be 08 03 ff 3d 96 e5 f1 3d
       -0.37742645 -0.39914295 0.1245175 0.11811368
0000c0 62 e3 d6 bc 4e 3e d2 be b4 50 ae 3d a8 8a f9 bd
       -0.026231471 -0.4106316 0.08511487 -0.1218465
0000d0 c4 37 20 3d 23 3d 2e 3e 0d a6 19 be 4a fc 6a be
       0.039115682 0.1701551 -0.1500475 -0.22947803
0000e0 c1 fa 70 3e 5c e9 85 3d 98 c6 75 3e cd bc 03 bd
       0.23533155 0.065386504 0.24001539 -0.032162476
0000f0 30 43 5a be 3c 06 c8 3e e3 d8 93 bd d2 d9 fc bd
       -0.21314692 0.39067256 -0.07219102 -0.123462334
000100 af 8e c2 3b 7c f3 0c be 31 bf b7 3d 41 3b 0b 3d
       0.0059374194 -0.13764757 0.08972014 0.033992056
000110 f8 ea ba bd bb 9a b8 be c5 be 86 be 3b f8 2e 3c
       -0.09126848 -0.3605555 -0.2631742 0.0106793
000120 65 ff 88 be f9 0b 82 3e 30 22 13 3e 9d d1 1f 3e
       -0.2675735 0.2539976 0.1436851 0.15607305
000130 7d 08 48 3e 48 fa 39 3e b0 cf b7 3e 8c ae d5 bd
       0.19534488 0.18161881 0.3590064 -0.10433683
000140 cf 98 e3 3d 40 ae 65 be 21 a8 3f 3e a2 e8 4d 3e
       0.1111313 -0.22429752 0.1871648 0.20108274
000150 1d 9a c7 3e 72 06 21 3e fa 7d 7f 3e 44 6e 07 be
       0.38984767 0.15725115 0.249504 -0.13225657
000160 ca 92 45 3d a7 91 17 3d b7 ee 33 3e 3b 72 f5 3d
       0.048235692 0.03700414 0.17571531 0.11984678
000170 43 0d 79 be fe 4b a5 be 2d 5c 48 3e d5 9e fb 3d
       -0.24321465 -0.3228454 0.19566412 0.12286154
000180 a4 12 05 3d a1 c2 8e 3e 9d 93 8c 3e ae d4 a0 3d
       0.03248848 0.27882865 0.2745637 0.078530654
000190 94 08 8b be a9 44 a9 3e 1b b4 3f be 0c e9 8c bd
       -0.27154982 0.33060196 -0.18721049 -0.06880388
0001a0 42 fb 73 be 5c 36 8e 3e 16 96 1e 3e 8c b7 70 be
       -0.23826316 0.27775848 0.1548694 -0.23507518
0001b0 5f ab 8b be 66 ea 96 3e a6 78 ea 3c 41 44 11 bb
       -0.27279183 0.29475707 0.028621983 -0.0022165927
0001c0 8b 5b 92 3e 9a 76 8a bd 62 05 c4 be de 5f 9a be
       0.28585467 -0.06760903 -0.38285357 -0.30151266
0001d0 b4 57 5e be 7f 2f a1 3e e6 0e a5 3c a1 33 34 3e
       -0.21713144 0.3148155 0.020148706 0.1759782
0001e0 15 11 41 3e 1f 93 80 be 3b 0a 7f 3e 1c c6 21 3e
       0.18854173 -0.25112244 0.24906246 0.15798229
0001f0 dc b3 8d 3d bf b0 17 be 6b 61 2e bc b7 c2 c0 3d
       0.06919071 -0.14813517 -0.010643343 0.09412139
000200 0b 35 9a 3d 33 ce d1 bd 04 29 4c 3c c4 df 0e be
       0.075296484 -0.102444075 0.012460951 -0.13952547
000210 dc 70 24 be 32 ec 72 b9 fa 3f d4 3e 61 2e 3f 3e
       -0.16058677 -0.00023166908 0.4145506 0.18670036
000220 a6 73 d6 bd b6 92 5c 3b 57 95 bd be c7 af 92 3e
       -0.10471277 0.0033656782 -0.37028 0.28649732
000230 1f 3d 64 3e fa 9f ba 3e 4f 46 ce 3e ac df 63 3e
       0.22288941 0.36450177 0.40288016 0.22253293
000240 1c 83 c0 3d a0 ba 7e bd d7 47 6f 3e a4 59 93 be
       0.09400007 -0.0621897 0.23367248 -0.28779328
000250 20 e1 82 bd 99 92 33 be 94 88 84 3d ab 08 85 3e
       -0.063905954 -0.17536391 0.06471363 0.25983176
000260 eb 8b 99 3e ae eb cc be d7 d4 a1 3e 2b 20 09 3e
       0.2998956 -0.4002356 0.31607696 0.13391177
000270 92 d3 23 be 55 67 25 3e 12 45 09 3e 13 34 a7 3e
       -0.15998676 0.161527 0.13405254 0.32656917
000280 6d ce 41 bd 49 b4 09 3e c5 3f c2 3e 2e 1d 69 3e
       -0.047316004 0.1344768 0.37939277 0.22765037
000290 f7 ec 70 3e 82 be bd be 32 5c 1c be 71 ba a2 3e
       0.23527895 -0.37059408 -0.15269545 0.31782869
0002a0 f1 2a c3 3e 79 8c 36 be ae 1c 1b 3e fb 32 ce 3e
       0.381187 -0.17827024 0.15147659 0.4027327
0002b0 8d 09 2d bd 41 af 10 3e f7 7b d9 bd 6c 6c cb 3d
       -0.042245436 0.14129354 -0.106193475 0.09932789
0002c0 d6 63 01 bd b7 4e f5 3c f2 3b 8d be c2 8f 93 bd
       -0.03158935 0.02994476 -0.27584797 -0.07205154
0002d0 bd 52 37 be ee 55 87 3c bd 34 54 3d 25 95 1f be
       -0.17902656 0.016520467 0.051808108 -0.15584238
0002e0 04 11 ac be ae 4d 9e be e5 3f 30 3a 99 f0 6f 3d
       -0.33606732 -0.3091864 0.0006723388 0.05857906
0002f0 cc 05 d6 be 08 ab 8d 3e da ac 63 bd a4 9f 9c 3e
       -0.41801298 0.2766955 -0.055584766 0.30590546
000300 9c 85 8e 3d ab 2f e8 3d a2 0b e9 3d 57 ca b2 bd
       0.06959078 0.11337217 0.11379172 -0.087299995
000310 39 ae 8a 3e b6 c6 63 3e 6a c9 87 be a2 d9 4c 3e
       0.27086046 0.22243771 -0.26520854 0.20004895
000320 ee 09 88 bc 2a 22 b9 3e 07 54 5f bd 18 ba 4c 3d
       -0.016606297 0.36158878 -0.054523494 0.04998216
000330 fb 25 1d 3e 18 88 03 be 03 1e ed bd 77 22 18 be
       0.1534652 -0.12844884 -0.1157799 -0.14856897
000340 4c 23 55 3d 17 73 8d 3e f7 14 b3 bd 46 88 8b 3e
       0.052035615 0.2762687 -0.08744233 0.27252406
000350 fb 58 89 3e 27 7f a1 be 36 49 c5 3e d2 e9 87 be
       0.268257 -0.31542322 0.38532418 -0.26545578
000360 4f 10 8f bc 22 b4 80 be a0 72 3d 3e 86 0c 93 bc
       -0.017463831 -0.2513743 0.18500757 -0.017950308
000370 72 45 15 3e dc 01 d8 3e 3c 24 db bd 74 8b 29 3e
       0.14577273 0.4218892 -0.107002705 0.16557103
000380 03 61 15 be 1e a1 f8 3d 16 b0 63 be a2 4b a7 3d
       -0.14587788 0.12140106 -0.2223514 0.08168723
000390 00 a7 7d be ec 5c 9e be 8d bb b4 be 8a e5 a2 bb
       -0.24770737 -0.3093027 -0.3529934 -0.004971211
0003a0 b1 dc 7c 3d 87 e4 f4 bd 9f 56 94 3d f4 df a0 bd
       0.061733905 -0.11957651 0.07243084 -0.07855216
0003b0 a8 b9 8e 3e c9 b0 8a be 60 dd 86 be c2 ec 60 be
       0.2787602 -0.27088 -0.2634077 -0.21965316
0003c0 4b 72 26 3e d6 48 7e bd ac 7b 9d be 0f bd 58 bd
       0.16254537 -0.06208118 -0.30758417 -0.052914675
0003d0 5a 48 68 bb c8 bd cf 3e 7b 63 75 3e dd d5 1e 3e
       -0.0035443516 0.4057448 0.2396373 0.1551127
0003e0 59 f8 45 3d 6f 6c 49 3d e8 e0 8b 3e 08 31 a5 be
       0.048332546 0.049175676 0.27320027 -0.3226397
0003f0 69 26 8f bd e8 df 1d 3e e8 49 8b bd fe a1 11 be
       -0.06989748 0.15417445 -0.06801206 -0.14221951
