PonziShield_tr_v1.pth (torch, 406178 bytes, 110 tensors)

weight f4 [108, 11]
1.3799521 -1.0232426 0.23909742 -1.3016399 0.47131386 0.13105312 -0.6584017 -1.2456065
-0.35254633 -1.7589335 -0.48868516 1.4982773 0.34265172 -0.049751572 -2.0779395 0.10574929
0.45979404 -0.6456391 -1.0657231 0.05458198 0.857544 -0.9436824 1.5735697 -0.76709
-1.8340392 -0.38212577 -1.3560117 2.516764 0.018040981 0.052867852 -0.6176783 -0.120021194
0.16425698 -1.7596544 -0.3676572 -1.3187382 0.5020049 0.37049538 -1.2203335 0.48207182
-0.498779 -0.7976552 -0.131633 -0.71285087 -0.41464105 0.3933977 0.7719571 -1.2974465
-1.6541909 -1.3110235 -0.47108305 0.94679034 -0.80030984 2.0454733 0.12663476 -0.16175158
0.33482632 1.226316 1.9447557 -1.4903325 -1.0883842 -1.1223835 -0.17263633 -0.91176826
-0.104781196 0.5617755 0.6275349 -0.66342276 0.36954296 1.0766963 -1.4935005 0.6913672
-0.8176205 -1.5599878 -0.45839962 -1.8602734 -1.1108649 -0.057003457 -0.35045278 -1.7276342
-0.028903719 -0.22489108 -1.04893 1.334179 -0.5216908 2.1587822 0.6946584 -0.32730916
0.766759 1.498529 0.16524969 -0.39448613 -1.3638091 -0.34903982 1.1155236 -0.82801175
-0.48084697 -0.0007208791 -0.63896126 -0.41518027 0.6927866 -0.89817023 0.83615017 1.2441468
0.8893403 -0.15071331 -0.6864348 1.0477483 0.20326935 1.2583607 -0.3068996 -0.63075155
-2.1082947 -1.286449 0.8266084 -0.59249926 0.8109664 -1.5095832 1.1355599 0.5320393
-0.46662515 1.4760505 0.52805066 0.94911677 -1.4926575 0.7774845 0.97022676 -1.1473149
-0.7060129 -2.145982 -0.18836556 -0.61383027 3.7006538 0.7613051 0.09139207 1.0830932
-0.6388773 0.8219033 -0.5823736 0.3600553 -0.7199105 0.62462085 -0.8400247 0.795648
0.35804275 -0.5507927 0.3021419 -0.60252905 -0.002825213 -0.108898975 1.3501691 1.2718812
0.54827917 -0.1251109 0.020887367 0.2533841 0.53374326 -0.3669369 -0.6220007 0.9690237
1.3261573 1.1435621 0.112090446 0.9513803 2.0789318 0.6659666 0.2076492 -0.87112963
1.4220698 -0.95206314 -0.6602846 -1.5402913 -1.5561457 1.2663136 0.111579925 0.62339693
0.06439434 -0.29875332 1.6943411 1.5957823 -0.5215961 -1.1467954 0.62438977 0.6230038
0.43389872 1.186324 -0.81399816 1.0290376 -3.0817254 -0.063766524 -1.0885131 1.0687722
0.3195016 -0.7399414 -1.4979757 1.1458175 0.044198137 0.3455659 0.75795823 1.4748422
-0.1578163 -2.861075 1.1722432 -0.69183093 0.4585858 -0.10034866 -0.30145273 0.85321814
-0.71932614 -0.0916965 1.1023475 1.3211869 1.181737 -0.73895144 -1.1604757 1.0205041
-0.31426808 -2.0147567 0.8162904 -0.103334755 -0.71320176 0.3188436 0.58130234 -0.8916661
0.17974491 0.047878385 -0.15837634 -1.2596681 -0.024100289 1.2888016 -1.1454312 0.050983828
0.3699059 -1.9515388 -0.1924655 0.42342585 -0.49573198 0.9577455 0.4380219 1.1819825
1.2008861 -1.2968152 0.3398838 -0.35493907 -0.73345727 0.12165525 -1.4802831 0.34858003
-0.14502273 1.2807691 -0.18775302 0.7646089 -0.18138297 -0.4489293 0.5362876 0.83277875
00000000: 45a2 b03f 9df9 82bf f4d5 743e 239c a6bf
00000010: 0d50 f13e ca32 063e 048d 28bf 0970 9fbf
00000020: f480 b4be bc24 e1bf f134 fabe 8dc7 bf3f
00000030: 0c70 af3e 4ec8 4bbd f6fc 04c0 1593 d83d
00000040: 206a eb3e 9b48 25bf 9d69 88bf 5b91 5f3d
00000050: 0188 5b3f 2b95 71bf bb6a c93f 0360 44bf
00000060: ccc1 eabf fda5 c3be cb91 adbf a912 2140
00000070: aeca 933c f68b 583d 2a20 1ebf accd f5bd
00000080: fb32 283e 5b3c e1bf 913d bcbe 6acc a8bf
00000090: 6583 003f 92b1 bd3e e333 9cbf 1ed2 f63e
000000a0: f65f ffbe 2233 4cbf cdca 06be 657d 36bf
000000b0: d54b d4be 6c6b c93e fb9e 453f ba12 a6bf
000000c0: 87bc d3bf 9ecf a7bf cc31 f1be da60 723f
000000d0: 1be1 4cbf 09e9 0240 8bac 013e 35a2 25be
000000e0: 5b6e ab3e ecf7 9c3f c1ed f83f 37c3 bebf
000000f0: 2c50 8bbf 43aa 8fbf 94c7 30be a569 69bf
00000100: 8697 d6bd 85d0 0f3f 21a6 203f 13d6 29bf
00000110: bc34 bd3e 2fd1 893f 062b bfbf 71fd 303f
00000120: 944f 51bf aead c7bf 5bb3 eabe 701d eebf
00000130: d230 8ebf 757c 69bd 8c6e b3be 1e23 ddbf
00000140: 7ec7 ecbc d949 66be 5743 86bf 61c6 aa3f
00000150: 878d 05bf 7d29 0a40 22d5 313f 1195 a7be
00000160: 514a 443f cccf bf3f 3737 293e 16fa c9be
00000170: 4c91 aebf 59b5 b2be 7ac9 8e3f 94f8 53bf
00000180: 9331 f6be 61f9 3cba f792 23bf 8292 d4be
00000190: 765a 313f 7cee 65bf f00d 563f 3440 9f3f
000001a0: ceab 633f 9754 1abe 31ba 2fbf 9e1c 863f
000001b0: d725 503e f711 a13f f221 9dbe ef78 21bf
000001c0: 4dee 06c0 5caa a4bf 9c9c 533f 08ae 17bf
000001d0: 7e9b 4f3f 063a c1bf 075a 913f ba33 083f
000001e0: 7ee9 eebe 39ef bc3f 542e 073f 51f9 723f
000001f0: 670f bfbf 3909 473f c860 783f 37db 92bf
00000200: 43bd 34bf c557 09c0 e7e2 40be fb23 1dbf
00000210: 83d7 6c40 e4e4 423f c42b bb3d cca2 8a3f
00000220: 768d 23bf 4168 523f 7016 15bf 2b59 b83e
00000230: 0e4c 38bf 27e7 1f3f dc0b 57bf 96af 4b3f
00000240: 6151 b73e c000 0dbf 58b2 9a3e 583f 1abf
00000250: 3527 39bb 6d06 dfbd 57d2 ac3f 01cd a23f
00000260: 065c 0c3f 121d 00be fc1b ab3c 90bb 813e
00000270: 66a3 083f 27df bbbe 703b 1fbf f011 783f
00000280: 86bf a93f 3e60 923f ad8f e53d a98d 733f
00000290: 380d 0540 c97c 2a3f fea1 543e 5a02 5fbf
000002a0: 6206 b63f 69ba 73bf 6908 29bf 4428 c5bf
000002b0: c82f c7bf 9016 a23f 0484 e43d f196 1f3f
000002c0: 2ee1 833d 32f6 98be 2be0 d83f 9842 cc3f
000002d0: 5287 05bf 31ca 92bf 02d8 1f3f 2d7d 1f3f
000002e0: f927 de3e 77d9 973f 2f62 50bf 81b7 833f
000002f0: fd3a 45c0 0698 82bd 6654 8bbf 87cd 883f
00000300: b795 a33e cd6c 3dbf abbd bfbf 26aa 923f
00000310: 1b09 353d 03ee b03e 8d09 423f a1c7 bc3f
00000320: 999a 21be da1b 37c0 110c 963f d51b 31bf
00000330: c2cb ea3e 9983 cdbd 0358 9abe 816c 5a3f
00000340: c225 38bf 60cb bbbd b919 8d3f a71c a93f
00000350: 2843 973f ec2b 3dbf 788a 94bf e19f 823f
00000360: bfe7 a0be c6f1 00c0 68f8 503f 2ca1 d3bd
00000370: 6494 36bf 783f a33e 3bd0 143f 3b44 64bf
00000380: 0d0f 383e 201c 443d 682d 22be ce3c a1bf
00000390: f86d c5bc 73f7 a43f 7d9d 92bf 6bd4 503d
000003a0: 4e64 bd3e 06cc f9bf ad15 45be 46cb d83e
000003b0: 95d0 fdbe cf2e 753f 6844 e03e 344b 973f
000003c0: a3b6 993f 0afe a5bf 4005 ae3e 93ba b5be
000003d0: dbc3 3bbf 6326 f93d eb79 bdbf 1579 b23e
000003e0: d780 14be 3ef0 a33f 5442 40be 69bd 433f
000003f0: 75bc 39be 10da e5be 254a 093f fd30 553f

in_proj_weight f4 [33, 11]
0.13782224 0.22885552 -0.36356556 -0.24982159 -0.36443952 -0.37522253 -0.37768728 -0.31895268
-0.33529812 -0.22654366 0.08039701 -0.30874506 0.17734888 -0.14316338 0.36136904 0.23568377
-0.39664778 -0.03520812 -0.09597632 -0.041703753 -0.11408523 -0.30559883 -0.1419034 0.19884416
0.19558501 0.2706777 -0.17366862 0.32895237 0.10677071 0.123036884 0.22773945 -0.19348916
0.08405543 -0.3168733 -0.09071142 0.18510227 -0.40673676 -0.04069996 0.07225845 0.37975752
0.08930277 0.22294104 -0.2721649 0.1303823 -0.122291006 -0.045057826 0.13088635 -0.1442699
0.301209 -0.06688969 0.3470118 0.106381856 0.018456796 -0.10083943 0.18781759 0.19202025
-0.24219683 -0.31449598 -0.37752613 -0.08380935 0.35015848 -0.23026203 -0.3232894 -0.15111887
-0.070690945 -0.24703398 -0.010399205 -0.33273828 -0.32402462 -0.099651396 -0.37169707 -0.08414898
-0.008744776 -0.12195811 -0.16237271 0.102302946 0.041048225 0.2558005 0.14155944 0.25833872
-0.17789704 -0.15790391 0.11667976 -0.3230478 -0.31389967 -0.032446917 -0.11804885 0.07646036
0.16183935 -0.25432038 0.36475328 -0.31130257 -0.047082067 0.16818225 0.29534155 -0.023193719
-0.03600977 -0.14678848 0.038081776 -0.3074869 0.11633143 0.3620735 0.11758199 0.18963346
-0.34813136 0.09946442 -0.06325277 -0.29122746 -0.23916622 -0.21975079 0.0034625963 -0.2348011
0.14302255 0.004286807 -0.056945097 0.33617344 0.15376236 -0.21327017 -0.20151486 0.1619311
-0.3675173 0.37627524 0.07888586 0.006876592 -0.39987677 -0.02317487 -0.010405244 -0.3671572
-0.20562392 0.13684013 -0.18710817 -0.020712476 0.19207191 -0.319641 -0.044700116 0.13706025
0.078296125 -0.2822308 0.34532577 0.20916164 -0.13564783 0.2848334 -0.0021789374 -0.0945659
0.22697844 0.33346894 0.23720679 -0.10487451 -0.14423776 -0.07219185 0.2425713 0.2372911
-0.083812654 0.0077237585 -0.2903335 -0.11284368 -0.20466241 0.072345585 0.020683354 -0.07932779
-0.004306054 0.033054933 -0.16555396 0.121586055 -0.007671841 0.11865885 -0.26677313 0.25061125
-0.18960905 -0.3740188 0.024239859 0.05779421 0.2606204 -0.14958054 0.16867551 -0.18400978
-0.19490959 -0.07684899 -0.34088433 0.29648006 -0.36297718 0.18410845 0.14157683 0.24866515
-0.30945826 0.24997161 0.22466968 0.08201701 0.122235976 0.027851695 -0.073795676 -0.062115982
-0.12883084 0.14472172 -0.33544746 -0.09475968 -0.021494396 -0.36057872 -0.1422679 -0.12471451
-0.05498893 0.32109237 0.31743386 0.027437866 -0.062421065 0.2931645 0.05583012 0.27994427
0.27568558 0.019301573 0.16829783 0.18753396 -0.048344757 -0.30772513 -0.15685274 -0.0292933
-0.24938682 0.09660594 -0.18430845 0.07781541 -0.095585115 0.10910946 -0.15984917 -0.27041885
-0.18458498 -0.20258261 0.051793527 0.0270488 0.038947392 0.04612598 -0.3380262 0.2645706
-0.33008352 0.09436394 0.08659536 -0.1440244 0.16212876 -0.14285782 -0.31522757 -0.038800515
0.07000969 0.17800839 -0.08113971 -0.19096085 -0.2931561 0.18549767 0.081513256 -0.2717699
0.07377004 0.124480896 -0.19904806 0.21097729 0.055623658 0.053860083 -0.1802361 0.30253294
00000000: 4621 0d3e 1a59 6a3e 4425 babe 3bd1 7fbe
00000010: d197 babe 2b1d c0be 3a60 c1be c44d a3be
00000020: 32ac abbe 10fb 67be 30a7 a43d d513 9ebe
00000030: f29a 353e 6c99 12be 5d05 b93e 1657 713e
00000040: 6b15 cbbe 6436 10bd 3c8f c4bd 8ed1 2abd
00000050: 84a5 e9bd 7377 9cbe 204f 11be ce9d 4b3e
00000060: 7047 483e 4496 8a3e 30d6 31be 726c a83e
00000070: 9aaa da3d c3fa fb3d 8834 693e 0622 46be
00000080: 4125 ac3d 383d a2be e9c6 b9bd 738b 3d3e
00000090: cd3f d0be 00b5 26bd 3dfc 933d 946f c23e
000000a0: 5fe4 b63d a84a 643e 3359 8bbe f082 053e
000000b0: b573 fabd 8e8e 38bd 1207 063e 7dbb 13be
000000c0: 1138 9a3e 76fd 88bd 88ab b13e bbde d93d
000000d0: b532 973c e784 cebd 4153 403e f5a0 443e
000000e0: 7202 78be 9e05 a1be 1b4b c1be 3da4 abbd
000000f0: f947 b33e cfc9 6bbe 3086 a5be e8be 1abe
00000100: 6ac6 90bd 7af6 7cbe 6d61 2abc ac5c aabe
00000110: 8ee6 a5be 0816 ccbd 144f bebe 4d56 acbd
00000120: 4046 0fbc 2cc5 f9bd 0845 26be 3584 d13d
00000130: 2f22 283d 48f8 823e f5f4 103e f944 843e
00000140: a42a 36be 90b1 21be ccf5 ee3d 8566 a5be
00000150: 75b7 a0be 0fe7 04bd 98c3 f1bd 4097 9c3d
00000160: 37b9 253e 4836 82be f1c0 ba3e 0d63 9fbe
00000170: 20d9 40bd f837 2c3e 0237 973e c100 bebc
00000180: fb7e 13bd b84f 16be a3fb 1b3d ec6e 9dbe
00000190: 2c3f ee3d b361 b93e d4ce f03d 462f 423e
000001a0: 463e b2be 00b4 cb3d ab8a 81bd c41b 95be
000001b0: fde7 74be 5a06 61be baec 623b b36f 70be
000001c0: 8174 123e 5878 8c3b 433f 69bd ed1e ac3e
000001d0: e173 1d3e 7f63 5abe e959 4ebe 44d1 253e
000001e0: 3a2b bcbe 26a7 c03e e98e a13d 0955 e13b
000001f0: a6bc ccbe 3ad9 bdbc c27a 2abc 07fc bbbe
00000200: 148f 52be d21f 0c3e 4999 3fbe 36ad a9bc
00000210: 80ae 443e fca7 a3be 7817 37bd 8659 0c3e
00000220: b859 a03d 8e80 90be 8ace b03e 782e 563e
00000230: 44e7 0abe afd5 913e 81cc 0ebb c4ab c1bd
00000240: 096d 683e 71bc aa3e 56e6 723e 72c8 d6bd
00000250: 10b3 13be 52d9 93bd 9c64 783e 70fc 723e
00000260: f8a5 abbd 9517 fd3b 98a6 94be 961a e7bd
00000270: 0693 51be ec29 943d 2370 a93c 9c76 a2bd
00000280: cd19 8dbb 9c64 073d fa86 29be 1c02 f93d
00000290: 1164 fbbb 6903 f33d 7d96 88be 1e50 803e
000002a0: e028 42be 647f bfbe ab92 c63c 9fb9 6c3d
000002b0: 0970 853e a42b 19be 46b9 2c3e 0f6d 3cbe
000002c0: 6196 47be 0163 9dbd 6488 aebe 3ccc 973e
000002d0: 25d8 b9be ed86 3c3e 84f9 103e 14a2 7e3e
000002e0: 5071 9ebe 8ff8 7f3e cf0f 663e 89f8 a73d
000002f0: db56 fa3d 3d29 e43c 3022 97bd 546d 7ebd
00000300: 3bec 03be ee31 143e c5bf abbe 5d11 c2bd
00000310: 0415 b0bc c69d b8be adae 11be 526a ffbd
00000320: 123c 61bd 3866 a43e b186 a23e 60c5 e03c
00000330: 3bad 7fbd a819 963e 20ae 643d db54 8f3e
00000340: a926 8d3e 551e 9e3c 4456 2c3e e708 403e
00000350: 2705 46bd 268e 9dbe 019e 20be 81f8 efbc
00000360: 425f 7fbe 56d9 c53d 5bbb 3cbe b05d 9f3d
00000370: 21c2 c3bd c874 df3d 80af 23be 5774 8abe
00000380: d803 3dbe d171 4fbe 7325 543d 7295 dd3c
00000390: 4d87 1f3d 98ee 3c3d c511 adbe cc75 873e
000003a0: b500 a9be e241 c13d e858 b13d 227b 13be
000003b0: 1505 263e 5249 12be 8265 a1be 4aed 1ebd
000003c0: 3e61 8f3d d547 363e 942c a6bd 3e8b 43be
000003d0: 8e18 96be 1af3 3d3e 6cf0 a63d 6d25 8bbe
000003e0: bf14 973d d7ef fe3d 41d3 4bbe 6e0a 583e
000003f0: a2d5 633d 649c 5c3d d08f 38be 99e5 9a3e

in_proj_bias f4 [33]
0.044096913 -0.02908608 -0.050597936 -0.05800144 -0.039059613 -0.062471006 0.024997484 0.027957493
-0.053624008 -0.07179331 0.037267435 0.012640033 -0.005156233 -0.0016853049 0.0023696984 -0.0029969907
-0.016359037 0.0007828125 -0.0069399434 0.0047329613 0.0004262513 -0.00040279076 0.0145267295 -0.008629566
-0.042523403 -0.0078090546 0.0045341966 -0.028913915 -0.012455454 -0.009160235 0.03688237 0.008451294
-0.032348584
00000000: f79e 343d ee45 eebc c83f 4fbd eb92 6dbd
00000010: f9fc 1fbd 99e1 7fbd 86c7 cc3c 1d07 e53c
00000020: d9a4 5bbd 5f08 93bd bda5 183d 2418 4f3c
00000030: 9ef5 a8bb 73e5 dcba f14c 1b3b 2969 44bb
00000040: 6303 86bc a835 4d3a 7768 e3bb f516 9b3b
00000050: 7b7a df39 a92d d3b9 8501 6e3c 0663 0dbc
00000060: 052d 2ebd 19e3 ffbb 9993 943b e0dc ecbc
00000070: f611 4cbc cf14 16bc f811 173d 4c77 0a3c
00000080: f37f 04bd

weight f4 [11, 11]
-0.007538691 -0.16507185 -0.27617937 0.11184754 -0.14292605 -0.26540336 -0.24223147 -0.058718182
0.06064125 0.2243702 -0.23721685 0.28848237 -0.2692581 -0.058406137 0.14751858 0.25034922
-0.28453988 0.02140154 -0.120169155 -0.1420098 -0.18209039 -0.29909876 -0.22982754 -0.1586871
0.23201266 0.039744053 -0.03336752 0.14002463 -0.01072728 0.21091637 -0.17104347 -0.29598933
0.10683894 0.2278602 -0.021224003 0.1800927 0.11258953 -0.03308906 -0.11188553 0.28587356
-0.036546312 -0.23623462 -0.18449531 0.15152818 0.21539228 0.27292967 0.095216826 0.24593467
-0.16828986 0.16145177 0.10039919 -0.25730863 0.06723492 0.32264408 -0.035668403 -0.017566336
0.05706533 0.06448004 0.15492077 -0.20817745 -0.20773998 -0.02733894 0.28797537 -0.0395938
-0.23909268 -0.26667464 0.2495678 -0.13175486 -0.009884087 -0.2886436 0.061170574 -0.17210911
-0.19138789 -0.19879408 0.122396 0.22926241 -0.0069198464 0.09367569 -0.23492481 -0.19406523
0.1892977 0.21701345 0.16561978 0.032316025 0.22775158 0.23918276 -0.17785724 -0.0675696
-0.20240694 0.084336184 -0.2531289 0.04769396 -0.22175168 -0.0034813213 0.18812074 -0.16906758
0.08657681 -0.063848 -0.21454924 0.12763089 -0.2875166 -0.22961512 -0.2912525 -0.05989263
-0.07115784 0.023857823 -0.2185365 0.24393953 0.21129201 -0.22155954 0.037176825 0.18411423
0.12410281 -0.009694392 -0.27731612 -0.17367192 -0.21331348 -0.046686377 0.0012434167 -0.1408923
-0.00827392
00000000: 2007 f7bb 9808 29be 6267 8dbe 5310 e53d
00000010: 355b 12be f3e2 87be 870b 78be 7a82 70bd
00000020: f662 783d 4dc1 653e f9e8 72be f6b3 933e
00000030: 33dc 89be 463b 6fbd 1c0f 173e c62d 803e
00000040: 36af 91be 4852 af3c 3f1b f6bd 046b 11be
00000050: e775 3abe 7923 99be e957 6bbe df7e 22be
00000060: ba94 6d3e a9ca 223d 61ac 08bd 9e62 0f3e
00000070: 79c1 2fbc 76fa 573e 0526 2fbe ea8b 97be
00000080: 60ce da3d 2f54 693e f6dd adbc 396a 383e
00000090: 5795 e63d 6588 07bd 3e24 e5bd 055e 923e
000000a0: 96b1 15bd 7de7 71be 57ec 3cbe 342a 1b3e
000000b0: cb8f 5c3e 70bd 8b3e 0a01 c33d 4cd6 7b3e
000000c0: 2d54 2cbe 9d53 253e 179e cd3d f5bd 83be
000000d0: 76b2 893d 9b31 a53e 0819 12bd 47e7 8fbc
000000e0: 56bd 693d 1c0e 843d 8da3 1e3e 782c 55be
000000f0: cab9 54be eaf5 dfbc 8271 933e 1c2d 22bd
00000100: b6d4 74be 9489 88be b48e 7f3e bfea 06be
00000110: def0 21bc 18c9 93be ff8d 7a3d 5f3d 30be
00000120: 30fb 43be ad90 4bbe c1aa fa3d c4c3 6a3e
00000130: e1bf e2bb 0ad9 bf3d 2190 70be 09b9 46be
00000140: 42d7 413e c638 5e3e 3b98 293e cf5d 043d
00000150: b637 693e 53ec 743e 3520 36be ee61 8abd
00000160: c443 4fbe 73b8 ac3d 1c9a 81be be5a 433d
00000170: df12 63be e126 64bb b9a2 403e 0d20 2dbe
00000180: 2f4f b13d bdc2 82bd ccb2 5bbe acb1 023e
00000190: 6035 93be 3a20 6bbe 0c1f 95be f951 75bd
000001a0: 34bb 91bd 7b71 c33c 08c8 5fbe 49cb 793e
000001b0: ef5c 583e 81e0 62be ba46 183d 7188 3c3e
000001c0: 9d29 fe3d 3ad5 1ebc 61fc 8dbe 0dd7 31be
000001d0: d96e 5abe 373a 3fbd 24fa a23a 1246 10be
000001e0: 568f 07bc

bias f4 [11]
0.01741925 0.018517295 -0.027823016 -0.0029868307 -0.0099143665 0.0025048724 -0.0020973496 0.0063124816
0.0021375818 0.0068895924 0.007609455
00000000: d1b2 8e3c 95b1 973c 18ed e3bc b4be 43bb
00000010: de6f 22bc c928 243b b073 09bb efd8 ce3b
00000020: ac16 0c3b 17c2 e13b bc58 f93b

weight f4 [8, 11]
0.12688246 -0.31360963 0.046759937 0.034256812 -0.12409579 0.11116364 -0.06016911 -0.143
-0.003216703 -0.12860045 0.23434746 -0.010281591 0.29138252 -0.104489274 0.100616306 -0.08097393
0.26709422 0.077721424 0.28312182 0.082434714 -0.034448106 0.024870398 0.015935814 0.0870663
-0.06881522 -0.16661313 -0.13585399 -0.31243044 -0.26717153 -0.09203248 -0.26421335 0.010025739
-0.21289241 0.27972525 0.18466061 0.17432813 0.112751104 0.21914034 -0.22223017 0.10019808
-0.17345068 0.10132424 0.12118199 0.19211628 0.17180102 -0.03544561 -0.28619954 0.20466317
-0.04251147 0.14523475 -0.059234608 0.078937545 0.12951557 0.023919214 0.20735765 0.12310548
-0.050378863 0.14239801 0.24366222 -0.2683531 -0.17582552 0.095304556 -0.2866026 -0.08763136
0.13480283 -0.09927555 -0.120200634 0.26713482 0.22699672 0.30053574 0.019211948 -0.0075324527
0.009206898 -0.14135426 0.015722914 0.11190636 -0.21666954 0.19539657 0.159566 0.0027247898
0.20026195 0.024609368 0.16492121 -0.2128097 -0.09119 0.15147898 0.2592742 0.25700152
00000000: 7aed 013e 7191 a0be 5987 3f3d df50 0c3d
00000010: ef25 febd c3a9 e33d e273 76bd 986e 12be
00000020: 52cf 52bb d6af 03be c8f8 6f3e 1e74 28bc
00000030: 1730 953e 79fe d5bd ec0f ce3d a9d5 a5bd
00000040: 93c0 883e 692c 9f3d 58f5 903e 88d3 a83d
00000050: 7519 0dbd 01bd cb3c d38b 823c d14f b23d
00000060: feee 8cbd a29c 2abe 4f1d 0bbe e2f6 9fbe
00000070: b5ca 88be 867b bcbd f946 87be ff42 243c
00000080: 7800 5abe 2638 8f3e ac17 3d3e 1383 323e
00000090: 0dea e63d 5366 603e 4e90 63be a734 cd3d
000000a0: 0e9d 31be 1583 cf3d 432e f83d 21ba 443e
000000b0: 9bec 2f3e 6a2f 11bd bf88 92be 3993 513e
000000c0: 8220 2ebd 6bb8 143e fd9f 72bd 02aa a13d
000000d0: bb9f 043e 3af2 c33c 9055 543e ba1e fc3d
000000e0: 115a 4ebd c9d0 113e 9782 793e 9465 89be
000000f0: 9b0b 34be 092f c33d 93bd 92be 1278 b3bd
00000100: c109 0a3e fb50 cbbd c02b f6bd e5c5 883e
00000110: d471 683e d2df 993e 6062 9d3c cbd2 f6bb
00000120: 87d8 163c 2cbf 10be 57cd 803c 292f e53d
00000130: 9fde 5dbe 0a16 483e 4565 233e 6392 323b
00000140: 7811 4d3e 9699 c93c 1be1 283e c9ea 59be
00000150: d3c1 babd 4e1d 1b3e 97bf 843e b495 833e

bias f4 [8]
-0.058103923 -0.25059348 0.08977897 -0.09152102 -0.043397997 -0.0011033481 0.028009143 0.13675143
00000000: 61fe 6dbd ca4d 80be 09de b73d 5f6f bbbd
00000010: 19c2 31bd 389e 90ba 6e73 e53c 9108 0c3e

weight f4 [11, 8]
0.27562994 -0.0143003855 0.07793075 -0.020405326 0.17771688 0.308914 0.170447 -0.31680828
0.081782304 -0.0799745 0.0011938751 -0.07433211 -0.021451779 -0.038004298 -0.04894986 -0.17698933
0.28368947 0.011926288 -0.09095859 -0.28738585 -0.28946808 -0.34747297 -0.04440402 -0.1310362
-0.14559983 -0.110919595 -0.23674294 -0.0521029 0.29316303 -0.122829676 0.25933805 -0.1648319
-0.28254116 -0.048432425 -0.03269028 0.081039146 -0.008573438 0.08694697 -0.06812875 -0.18952094
0.2728231 -0.22836414 -0.110999234 0.3237817 -0.19073611 -0.29411408 -0.07714234 0.117124744
-0.22741728 -0.20558664 0.026000941 0.14571318 -0.21331024 -0.107730255 -0.19705924 -0.12006818
0.32229015 0.14823578 -0.16610233 0.33574688 -0.04621466 -0.24342792 -0.29551515 -0.27246183
-0.26627633 -0.107774094 -0.107633136 -0.3056307 -0.25693846 -0.16304454 0.005300574 -0.31719142
0.16745067 -0.20535594 -0.06402527 -0.090197615 0.2467743 -0.24323134 0.27517602 0.22215776
-0.089083716 0.23204865 0.37715554 -0.18701614 -0.3252857 -0.2035936 -0.25457957 -0.11376631
00000000: 5e1f 8d3e 2a4c 6abc 289a 9f3d 1229 a7bc
00000010: 6afb 353e fa29 9e3e a989 2e3e b234 a2be
00000020: 7b7d a73d acc9 a3bd cd7b 9c3a 6f3b 98bd
00000030: a4bb afbc 65aa 1bbd a67f 48bd b13c 35be
00000040: bf3f 913e 7a66 433c 7f48 babd 3d24 93be
00000050: 2935 94be fae7 b1be fde0 35bd 5b2e 06be
00000060: 1f18 15be d029 e3bd be6c 72be da69 55bd
00000070: 7719 963e 208e fbbd f5c7 843e b2c9 28be
00000080: 3ca9 90be 1461 46bd 3ee6 05bd daf7 a53d
00000090: 9b77 0cbc 4111 b23d 1687 8bbd c711 42be
000000a0: 78af 8b3e 4ad8 69be 9153 e3bd b7c6 a53e
000000b0: 5450 43be 1f96 96be cefc 9dbd 19df ef3d
000000c0: 13e0 68be 4e85 52be edff d43c d635 153e
000000d0: 006e 5abe aea1 dcbd e6c9 49be 4ee6 f5bd
000000e0: 3703 a53e 1fcb 173e bb16 2abe 04e7 ab3e
000000f0: 954b 3dbd 2b45 79be c34d 97be 1e80 8bbe
00000100: 5f55 88be aab8 dcbd c36e dcbd a17b 9cbe
00000110: 708d 83be 26f5 26be 70b0 ad3b ea66 a2be
00000120: 3078 2b3e d448 52be ae1f 83bd 87b9 b8bd
00000130: 67b2 7c3e a311 79be dfe3 8c3e 537d 633e
00000140: 8671 b6bd 299e 6d3e 881a c13e 2981 3fbe
00000150: d98b a6be d77a 50be 4158 82be 50fe e8bd

bias f4 [11]
0.20153952 0.30616128 0.13967839 -0.23578852 0.1866398 -0.32831165 -0.028179571 0.08109798
0.14523065 -0.34225678 -0.3092778
00000000: 6060 4e3e 2cc1 9c3e da07 0f3e 8c72 71be
00000010: 811e 3f3e 7718 a8be d8d8 e6bc b316 a63d
00000020: 58b7 143e 483c afbe a959 9ebe

weight f4 [11]
0.97356457 0.97970295 1.0276487 1.0272094 0.99420124 1.0168735 0.9888711 1.0020565
0.9898412 0.97856075 0.9781127
00000000: 873b 793f d0cd 7a3f fe89 833f 997b 833f
00000010: f983 7e3f e928 823f a826 7d3f 6343 803f
00000020: 3c66 7d3f f582 7a3f 9865 7a3f

bias f4 [11]
0.0062633636 0.012691935 -0.021696359 0.006242769 -0.014681984 -0.004437389 0.007795789 0.012532633
-0.005982954 -0.008242127 0.008735679
00000000: e73c cd3b d5f1 4f3c 90bc b1bc 2490 cc3b
00000010: b48c 70bc 8467 91bb d173 ff3b ac55 4d3c
00000020: a80c c4bb fc09 07bc 1820 0f3c

weight f4 [11]
1.0011355 0.99974984 1.0392125 1.0107826 0.9820482 1.0082968 0.99387515 1.0088286
1.0026809 0.97922856 0.9903599
00000000: 3525 803f 9bef 7f3f ea04 853f 5361 813f
00000010: 8367 7b3f df0f 813f 9a6e 7e3f 4c21 813f
00000020: d957 803f b9ae 7a3f 3a88 7d3f

bias f4 [11]
0.0020061752 0.018389774 -0.02217689 0.0034903528 -0.01391071 0.0003715984 0.012285325 0.013055685
-0.0037051754 -0.010104187 0.005727702
00000000: 097a 033b 27a6 963c 4fac b5bc 67be 643b
00000010: bfe9 63bc 18d3 c239 6348 493c 83e7 553c
00000020: 87d2 72bb 088c 25bc 72af bb3b

in_proj_weight f4 [33, 11]
0.1666289 0.196981 -0.28734446 -0.18725759 -0.34568924 -0.30911115 -0.38581222 -0.25965086
-0.28734565 -0.22780873 0.06081791 -0.34739482 0.19954875 -0.18806829 0.34175697 0.24093997
-0.41925082 -0.04397865 -0.10265755 -0.03870291 -0.0845663 -0.29173687 -0.1571057 0.19749716
0.25236797 0.28837007 -0.1774387 0.36337495 0.07866536 0.12777069 0.28597066 -0.21141835
0.10222556 -0.28065556 -0.020036448 0.1272316 -0.38528883 -0.052024726 0.0020756875 0.29949868
0.10258133 0.18085916 -0.20210737 0.13986707 -0.1790445 -0.06489828 0.118256904 -0.16153431
0.2787968 -0.07773169 0.35512698 0.14755023 0.06361849 -0.09352189 0.22245805 0.09086991
-0.27775308 -0.31689698 -0.3458645 -0.119204424 0.33747783 -0.27100736 -0.25618106 -0.15534917
-0.097703524 -0.23499563 -0.05337274 -0.34961087 -0.3437125 -0.10830136 -0.33630225 -0.059640516
-0.01606321 -0.068261586 -0.1541842 0.10813154 0.060707465 0.3403496 0.16301173 0.27201736
-0.24096246 -0.16248652 0.10742331 -0.31071234 -0.36017334 -0.046374448 -0.12120243 0.08654893
0.15931633 -0.2706458 0.33689058 -0.30284384 -0.02169193 0.19577579 0.3234029 -0.013238129
-0.004805773 -0.107015766 0.053631842 -0.3168711 0.14228326 0.3333301 0.07120141 0.15744153
-0.2945236 0.13156101 -0.100958206 -0.24116111 -0.19688104 -0.16984713 0.016292684 -0.19570413
0.14386028 0.044891737 -0.04953435 0.36496297 0.1611382 -0.2015715 -0.19619241 0.18055362
-0.35676995 0.35249642 0.043587215 0.029278334 -0.3393585 -0.06875747 -0.018452426 -0.34377456
-0.25640747 0.10315054 -0.21322648 -0.053869385 0.23574193 -0.28537315 -0.07723331 0.103849836
0.06742522 -0.24337986 0.32998884 0.19971201 -0.09366733 0.294474 -0.01685931 -0.013120565
0.3063181 0.2883913 0.15037905 -0.004995922 -0.09698917 -0.11053224 0.25827894 0.2653335
0.0567008 0.059116438 -0.1985352 0.0004588315 -0.15699446 0.0035165306 0.06331036 -0.0781497
-0.033506718 0.119981736 -0.16921519 0.2066385 0.000648131 0.13662301 -0.27554896 0.26987767
-0.20314965 -0.35925126 0.023527753 0.0457075 0.3112678 -0.12879753 0.19552492 -0.207154
-0.17196566 -0.06520179 -0.3012873 0.28954774 -0.24943165 0.13626863 0.15641308 0.26886645
-0.32730865 0.25119135 0.20520626 0.07313229 0.10681748 0.026971139 -0.08902608 -0.069873475
-0.13007908 0.15935968 -0.37024316 -0.09755286 0.0069768764 -0.33924 -0.15436523 -0.12867902
-0.20750259 0.3196831 0.33619073 0.05787993 -0.032338675 0.3035007 0.14050315 0.30392957
0.27319735 0.094868444 0.17747031 0.22441927 -0.054226052 -0.25018594 -0.0979962 -0.030632973
-0.18465506 0.07940228 -0.122174844 0.043895062 -0.005970863 0.15595315 -0.12805867 -0.2640667
-0.20110717 -0.18330394 0.06679103 0.0039972663 0.10394021 -0.023261666 -0.24429007 0.2615909
-0.35347798 0.11717107 0.12148649 -0.14901988 0.1345537 -0.14067556 -0.3213965 -0.017152335
0.072272584 0.2130813 -0.020745708 -0.14620712 -0.31012863 0.120348535 0.123466715 -0.33906472
0.07272985 0.13019387 -0.1564903 0.24453807 0.09605286 0.06189731 -0.17762089 0.36010903
00000000: c4a0 2a3e 63b5 493e d01e 93be 74c0 3fbe
00000010: 2efe b0be d143 9ebe 2e89 c5be f5f0 84be
00000020: f81e 93be b146 69be 331c 793d bcdd b1be
00000030: 8256 4c3e f994 40be c5fa ae3e f8b8 763e
00000040: 0ba8 d6be f522 34bd 1f3e d2bd f186 1ebd
00000050: 1931 adbd 895e 95be 51e0 20be b23c 4a3e
00000060: 6036 813e 3ea5 933e 7eb2 35be 480c ba3e
00000070: 4e1b a13d 52d6 023e bf6a 923e 0d7e 58be
00000080: a25b d13d 16b2 8fbe 7a23 a4bc 0049 023e
00000090: 9444 c5be e117 55bd 4208 083b e457 993e
000000a0: 2916 d23d 2533 393e 3cf5 4ebe 5039 0f3e
000000b0: 7157 37be 64e9 84bd ad30 f23d 4069 25be
000000c0: 74be 8e3e cb31 9fbd 34d3 b53e 6817 173e
000000d0: 694a 823d 6888 bfbd 0bcc 633e 011a ba3d
000000e0: a735 8ebe 5240 a2be 2715 b1be 7321 f4bd
000000f0: e5c9 ac3e 7ac1 8abe 2a2a 83be da13 1fbe
00000100: c918 c8bd b2a2 70be 609d 5abd 3200 b3be
00000110: 16fb afbe 1acd ddbd cf2f acbe 9d49 74bd
00000120: fe96 83bc bbcc 8bbd 77e2 1dbe 1274 dd3d
00000130: 64a8 783d 4e42 ae3e 8cec 263e dc45 8b3e
00000140: ddbe 76be de62 26be c100 dc3d b015 9fbe
00000150: a468 b8be 22f3 3dbd fb38 f8bd 9140 b13d
00000160: d223 233e 1692 8abe ec7c ac3e 590e 9bbe
00000170: 46b3 b1bc 7379 483e 1195 a53e bde4 58bc
00000180: bf79 9dbb 152b dbbd 10ad 5b3d ee3c a2be
00000190: b4b2 113e 3eaa aa3e 0bd2 913d 5a38 213e
000001a0: cccb 96be eeb7 063e 2dc3 cebd f0f2 76be
000001b0: 2f9b 49be 68ec 2dbe 3c78 853c aa66 48be
000001c0: 1c50 133e 66e0 373d 88e4 4abd 6ddc ba3e
000001d0: 6a01 253e c268 4ebe aae6 48be 0ce3 383e
000001e0: 8daa b6be 697a b43e 8288 323d 1ed9 ef3c
000001f0: 66c0 adbe b7d0 8cbd 8b29 97bc 3803 b0be
00000200: d747 83be 9740 d33d 0b58 5abe 25a6 5cbd
00000210: 5566 713e 6e1c 92be 7f2c 9ebd 39af d43d
00000220: 3c16 8a3d 9238 79be 4cf4 a83e 4e81 4c3e
00000230: a8d4 bfbd 4cc5 963e 891c 8abc a3f7 56bc
00000240: bad5 9c3e 06a8 933e f7fc 193e d5b4 a3bb
00000250: 42a2 c6bd ba5e e2bd 233d 843e cbd9 873e
00000260: 193f 683d 1424 723d d04c 4bbe 528f f039
00000270: 28c3 20be 9875 663b dda8 813d f30c a0bd
00000280: 573e 09bd fcb8 f53d bf46 2dbe 0b99 533e
00000290: 56e7 293a e7e6 0b3e c114 8dbe 682d 8a3e
000002a0: 7606 50be c8ef b7be 46bd c03c ca37 3b3d
000002b0: 7e5e 9f3e 80e3 03be af37 483e 2e20 54be
000002c0: c417 30be 8488 85bd 5442 9abe 9a3f 943e
000002d0: 036b 7fbe 018a 0b3e c02a 203e dda8 893e
000002e0: 0095 a7be 279c 803e 9721 523e 62c6 953d
000002f0: 1fc3 da3d 94f2 dc3c 4e53 b6bd d319 8fbd
00000300: 7333 05be 2f2f 233e 8390 bdbe cbc9 c7bd
00000310: 489e e43b deb0 adbe eb11 1ebe 6fc4 03be
00000320: 8f7b 54be 81ad a33e 3121 ac3e 8113 6d3d
00000330: 8f75 04bd 7264 9b3e 0fe0 0f3e a89c 9b3e
00000340: 86e0 8b3e 634a c23d c7ba 353e 2ace 653e
00000350: 231c 5ebd 5f18 80be 3bb2 c8bd 00f2 fabc
00000360: 3716 3dbe aa9d a23d ce36 fabd 4fcb 333d
00000370: 3ba7 c3bb 2fb2 1f3e d021 03be c033 87be
00000380: 0aef 4dbe 07b4 3bbe bcc9 883d 80fb 823b
00000390: 9bde d43d 408f bebc 2d27 7abe 3eef 853e
000003a0: 11fb b4be 63f7 ef3d e9cd f83d ab98 18be
000003b0: 72c8 093e 410d 10be 158e a4be 0e83 8cbc
000003c0: a603 943d fc31 5a3e e7f2 a9bc 52b7 15be
000003d0: 2ec9 9ebe 4b79 f63d 1edc fc3d e499 adbe
000003e0: 63f3 943d 8b51 053e fe3e 20be 3068 7a3e
000003f0: 5db7 c43d 0988 7d3d 40e2 35be 3660 b83e

in_proj_bias f4 [33]
0.00032278185 -0.018005794 -0.005231665 0.024654808 -0.016627891 0.0035252 0.00772825 0.011755811
-0.054230973 -0.009260123 0.010957172 -0.0020423932 -0.00037871304 -0.00040917023 0.0010302109 3.422112e-05
0.0001580283 -0.0010940911 0.0016680814 -0.0022946713 6.487779e-05 0.0012753392 0.011328485 -0.021762224
-0.027193822 0.023116933 0.01626324 0.003905179 -0.0046082176 -0.0057892455 0.024752626 0.007469431
-0.00964611
00000000: 0c3b a939 e380 93bc 636e abbb e1f8 c93c
00000010: 3737 88bc 0b07 673b 433d fd3b 729b 403c
00000020: 4c21 5ebd c5b7 17bc b685 333c acd9 05bb
00000030: 018e c6b9 e685 d6b9 2408 873a a688 0f38
00000040: 66b4 2539 9b67 8fba 86a3 da3a 3262 16bb
00000050: 000f 8838 4829 a73a 1c9b 393c b146 b2bc
00000060: 94c5 debc b95f bd3c 7c3a 853c 08ee 7f3b
00000070: 8800 97bb b6b3 bdbb 05c6 ca3c 21c2 f43b
00000080: b80a 1ebc

weight f4 [11, 11]
-0.008055149 -0.1780619 -0.2595748 0.1102111 -0.11931373 -0.2887781 -0.23183687 -0.06423747
0.062343355 0.19880378 -0.22577068 0.29231906 -0.26280302 -0.086414725 0.15024109 0.25073484
-0.26973668 0.009511339 -0.13124914 -0.118539795 -0.2440063 -0.2960555 -0.20325729 -0.15141897
0.25832808 0.0012644875 -0.06795756 0.14930846 -0.0073010135 0.2275216 -0.18775176 -0.22327878
0.0792598 0.19581549 -0.023819337 0.15594433 0.12458078 -0.0044147223 -0.08849944 0.28498968
-0.040462535 -0.2184686 -0.21995643 0.17706607 0.18101366 0.24164414 0.025365155 0.2994204
-0.14164591 0.17489518 0.07245175 -0.28517663 0.10456827 0.2836746 -0.023872906 0.017215692
0.057814613 0.0954911 0.11278656 -0.21885061 -0.20250517 -0.025791114 0.3119775 -0.06502879
-0.1654894 -0.27754712 0.25216 -0.13529117 -0.004409703 -0.27850443 0.08244056 -0.20402376
-0.20028134 -0.23438287 0.12953934 0.13580042 -0.007898361 0.06800065 -0.23345533 -0.23801199
0.2109783 0.21719648 0.1741122 0.029126555 0.21705875 0.26895705 -0.24232979 -0.07388531
-0.18591525 0.097018056 -0.23061474 0.03683929 -0.23882627 0.0088983765 0.1932031 -0.15873782
0.073310904 0.0004052025 -0.21242824 0.10261508 -0.3115413 -0.24959117 -0.29081553 -0.041036896
-0.034126304 0.016019488 -0.22983915 0.25792605 0.21615623 -0.20494121 0.042482346 0.20202
0.11789901 0.029749742 -0.2685529 -0.19712025 -0.18326707 -0.09271484 -0.019740906 -0.18805422
-0.029345261
00000000: bef9 03bc dc55 36be fde6 84be 5bb6 e13d
00000010: c25a f4bd b9da 93be a566 6dbe ef8e 83bd
00000020: bf5b 7f3d 3893 4b3e 6e30 67be d8aa 953e
00000030: 1e8e 86be 34fa b0bd cdd8 193e 5160 803e
00000040: ed1a 8abe 72d5 1b3c 2d66 06be fec4 f2bd
00000050: cadc 79be 9694 97be ae22 50be 930d 1bbe
00000060: 9443 843e 29bd a53a 552d 8bbd 51e4 183e
00000070: 573d efbb 6cfb 683e ff41 40be 31a3 64be
00000080: f652 a23d db83 483e c520 c3bc dfaf 1f3e
00000090: 3524 ff3d 60a9 90bb 323f b5bd 2bea 913e
000000a0: 0bbc 25bd 3cb6 5fbe 423c 61be cf50 353e
000000b0: a55b 393e 9071 773e 96ca cf3c a14d 993e
000000c0: a00b 11be b917 333e 9561 943d ac02 92be
000000d0: e427 d63d cc3d 913e 1d91 c3bc ec07 8d3c
000000e0: 04cf 6c3d d690 c33d a4fc e63d 601a 60be
000000f0: 845d 4fbe e347 d3bc 84bb 9f3e d02d 85bd
00000100: 0e76 29be a81a 8ebe 1e1b 813e c589 0abe
00000110: 457f 90bb 2298 8ebe 99d6 a83d 9beb 50be
00000120: 8d16 4dbe 1002 70be f6a5 043e 440f 0b3e
00000130: 2168 01bc ed43 8b3d ea0e 6fbe 6ab9 73be
00000140: b20a 583e c168 5e3e 784a 323e d09a ee3c
00000150: a644 5e3e bdb4 893e 4d25 78be 2e51 97bd
00000160: 9160 3ebe 67b1 c63d 4526 6cbe cce4 163d
00000170: e08e 74be 7fca 113c 09d7 453e 2b8c 22be
00000180: 0724 963d 5c71 d439 ca86 59be db27 d23d
00000190: 5782 9fbe d494 7fbe c6e5 94be 4e16 28bd
000001a0: 06c8 0bbd 4d3b 833c f45a 6bbe e20e 843e
000001b0: 0f58 5d3e 1cdc 51be f801 2e3d 55de 4e3e
000001c0: 0975 f13d bbb5 f33c c47f 89be e4d9 49be
000001d0: 5daa 3bbe 47e1 bdbd aeb7 a1bc 4991 40be
000001e0: 7965 f0bc

bias f4 [11]
0.01603388 0.005936939 -0.018477151 -0.0052104713 -0.0016165194 -0.016204804 -6.289009e-05 0.036989894
0.00026547327 -0.005313831 -0.004253363
00000000: 7c59 833c a78a c23b 655d 97bc 9abc aabb
00000010: 64e1 d3ba f0bf 84bc dce3 83b8 b782 173d
00000020: 382f 8b39 a51f aebb cb5f 8bbb

weight f4 [8, 11]
0.0693379 -0.27282792 0.008821644 0.073066175 -0.12720297 0.10129867 -0.06910832 -0.15487562
0.05537086 -0.09386391 0.276999 -0.036939133 0.28842813 -0.15750524 0.107056566 -0.0801621
0.28457552 0.06193871 0.2805564 0.080078475 -0.011486987 0.081014775 0.016140724 0.066684775
-0.06771157 -0.16635449 -0.10079009 -0.3035151 -0.25027213 -0.09565638 -0.30146596 0.0019947556
-0.19084153 0.30197468 0.1270734 0.17478704 0.09511855 0.2380415 -0.15939187 0.10643174
-0.2123599 0.10988748 0.09972319 0.21984066 0.19773056 0.010089869 -0.2897133 0.1877239
-0.050028242 0.15325259 -0.07811442 0.07968382 0.16839342 0.0061139925 0.16183281 0.15836424
-0.028078083 0.15133035 0.2459211 -0.23831919 -0.20192727 0.068148315 -0.28991857 -0.10475124
0.12829868 -0.09373732 -0.122478835 0.27658197 0.25858307 0.30585104 0.0108976625 -0.035552952
0.045568794 -0.15174918 0.022276267 0.11089163 -0.24608737 0.21560672 0.16287835 -0.02623861
0.20344839 0.038173992 0.17417341 -0.21306819 -0.09867065 0.14667355 0.2605487 0.25432292
00000000: 0701 8e3d 1ab0 8bbe a888 103c b8a3 953d
00000010: 7f41 02be ad75 cf3d aa88 8dbd b797 1ebe
00000020: 8ecc 623d b93b c0bd d0d2 8d3e 7d4d 17bd
00000030: daac 933e 0e49 21be 7940 db3d 072c a4bd
00000040: e2b3 913e 72b3 7d3d 17a5 8f3e 2f00 a43d
00000050: ea33 3cbc 13eb a53d 8d39 843c 0792 883d
00000060: 5dac 8abd d558 2abe 096b cebd 5566 9bbe
00000070: ab23 80be 7ee7 c3bd bf59 9abe 72ba 023b
00000080: f66b 43be 6d9c 9a3e 881f 023e 60fb 323e
00000090: 84cd c23d 27c1 733e 9f37 23be e2f8 d93d
000000a0: e074 59be b00c e13d ac3b cc3d e91d 613e
000000b0: e179 4a3e fa4f 253c 4d55 94be b23a 403e
000000c0: 6aea 4cbd 3fee 1c3e 74fa 9fbd 4531 a33d
000000d0: 536f 2c3e e357 c83b 80b7 253e 3c2a 223e
000000e0: 0204 e6bc 58f6 1a3e bed2 7b3e f209 74be
000000f0: 06c6 4ebe 5891 8b3d 3570 94be d187 d6bd
00000100: bb60 033e 5af9 bfbd 2fd6 fabd 279c 8d3e
00000110: 0065 843e 8298 9c3e 1c8c 323c f99f 11bd
00000120: 58a6 3a3d 2364 1bbe b87c b63c 271b e33d
00000130: 54fe 7bbe 02c8 5c3e 95c9 263e 5af2 d6bc
00000140: c654 503e 555c 1c3d 845a 323e 8c2e 5abe
00000150: d613 cabd 9731 163e a466 853e 9d36 823e

bias f4 [8]
-0.061878942 -0.20647532 0.073475845 -0.09246804 -0.035781324 -0.016536148 0.0318364 0.11835495
00000000: c674 7dbd 446e 53be 817a 963d e25f bdbd
00000010: 708f 12bd d176 87bc e366 023d 1464 f23d

weight f4 [11, 8]
0.31226924 -0.025652554 0.075199366 -0.02806483 0.1999697 0.2940589 0.1831475 -0.30526596
0.048011974 -0.07967471 -0.0008774005 -0.07632919 -0.052813258 -0.031159798 -0.037010554 -0.17277882
0.29658267 0.007123533 -0.08922924 -0.2716019 -0.321544 -0.35574248 -0.033085883 -0.12144264
-0.16591372 -0.083855316 -0.22473675 -0.0480276 0.30577078 -0.0849815 0.28944084 -0.20870626
-0.27774754 -0.017304026 0.00418803 0.09834185 0.012664764 0.12218959 -0.06838542 -0.20670442
0.2683454 -0.28133163 -0.11653653 0.33553228 -0.16647616 -0.2817609 -0.028347932 0.10188611
-0.24729325 -0.2080074 0.025219232 0.1055587 -0.21048974 -0.06458537 -0.21782771 -0.11954987
0.28562737 0.14362516 -0.1533884 0.36866018 -0.06265464 -0.29408 -0.2925081 -0.25371498
-0.26349142 -0.12025226 -0.099494 -0.2724268 -0.2673335 -0.16030826 -0.024779413 -0.32525283
0.13927174 -0.19805382 -0.082816966 -0.1052612 0.21364082 -0.24036561 0.307856 0.21261515
-0.035947014 0.23820524 0.37124214 -0.20328705 -0.29430166 -0.22888172 -0.28192025 -0.10366612
00000000: c1e1 9f3e 4e25 d2bc 2002 9a3d 37e8 e5bc
00000010: dbc4 4c3e e38e 963e 058b 3b3e d24b 9cbe
00000020: 34a8 443d 7f2c a3bd 5a01 66ba 7a52 9cbd
00000030: b752 58bd d542 ffbc 6198 17bd eeec 30be
00000040: afd9 973e 876c e93b d2bd b6bd 670f 8bbe
00000050: 6aa1 a4be e123 b6be 1085 07bd ebb6 f8bd
00000060: 49e5 29be 56bc abbd 6421 66be 97b8 44bd
00000070: fd8d 9c3e c80a aebd 9731 943e 18b7 55be
00000080: ed34 8ebe 2cc1 8dbc be3b 893b 7467 c93d
00000090: df7f 4f3c 893e fa3d a80d 8cbd 53aa 53be
000000a0: 9164 893e b30a 90be b4aa eebd e3ca ab3e
000000b0: ba78 2abe f742 90be ec39 e8bc aaa9 d03d
000000c0: 713a 7dbe e4ff 54be 9098 ce3c 292f d83d
000000d0: 9f8a 57be 5645 84bd 3a0e 5fbe 90d6 f4bd
000000e0: c03d 923e 7912 133e d911 1dbe 07c1 bc3e
000000f0: 1351 80bd a791 96be 9fc3 95be eee6 81be
00000100: 59e8 86be d146 f6bd 83c3 cbbd 877b 8bbe
00000110: f0df 88be d927 24be 32fe cabc 8a87 a6be
00000120: 409d 0e3e 9fce 4abe f19b a9bd 2f93 d7bd
00000130: a9c4 5a3e 6722 76be 4d9f 9d3e c9b7 593e
00000140: 2d3d 13bd 13ec 733e 7313 be3e 7b2a 50be
00000150: b5ae 96be f85f 6abe da57 90be e74e d4bd

bias f4 [11]
0.19382413 0.2956229 0.14135477 -0.2320175 0.1931909 -0.3220619 -0.031900793 0.08676582
0.13902868 -0.34853923 -0.29375064
00000000: d579 463e e25b 973e 4ebf 103e ff95 6dbe
00000010: d6d3 453e 4ce5 a4be 68aa 02bd 47b2 b13d
00000020: 895d 0e3e bc73 b2be 7c66 96be

weight f4 [11]
0.9948998 0.997522 1.0373617 1.0116553 0.9683796 1.0159822 0.9925023 1.0100919
1.0002846 0.9737448 0.9960253
00000000: c1b1 7e3f 9a5d 7f3f 45c8 843f ec7d 813f
00000010: bae7 773f b40b 823f a114 7e3f b14a 813f
00000020: 5309 803f 5747 793f 84fb 7e3f

bias f4 [11]
0.0025569648 0.007517009 -0.013226294 -0.0052735484 -0.011830177 0.0055888407 0.008438858 0.021603998
0.0013251165 -0.013972675 0.008369692
00000000: c092 273b 3e51 f63b 19b3 58bc bbcd acbb
00000010: 5cd3 41bc 9822 b73b 2343 0a3c defa b03c
00000020: 88af ad3a a6ed 64bc 0821 093c

weight f4 [11]
0.9913728 1.0105555 1.0359833 0.9947743 0.98208094 1.0023328 0.99414724 1.0045228
1.0011293 0.97791904 0.99873465
00000000: 9cca 7d3f e259 813f 1a9b 843f 87a9 7e3f
00000010: a869 7b3f 714c 803f 6f80 7e3f 3494 803f
00000020: 0125 803f e758 7a3f 13ad 7f3f

bias f4 [11]
-0.00060935516 0.007416642 -0.012077847 -0.0102504995 -0.009313144 0.0029446105 0.008946024 0.017595408
-0.00045947096 -0.013338022 0.00614327
00000000: 22bd 1fba 4d07 f33b 29e2 45bc b6f1 27bc
00000010: 2896 18bc 5efa 403b 5892 123c 3f24 903c
00000020: 26e5 f0b9 b887 5abc 7c4d c93b

in_proj_weight f4 [33, 11]
0.16691965 0.19144867 -0.26894692 -0.18851203 -0.3411252 -0.32472566 -0.3708688 -0.25935403
-0.2830812 -0.24871029 0.049674306 -0.32439184 0.18315801 -0.17263976 0.3678912 0.21406643
-0.37712923 -0.06586107 -0.12163377 -0.013446367 -0.12314657 -0.29531512 -0.17521663 0.18603924
0.22628787 0.3293989 -0.16017321 0.37950885 0.054063756 0.13542569 0.3085687 -0.22529529
0.11377688 -0.2756224 -0.030033402 0.1426814 -0.372354 -0.066217996 -0.016034087 0.28737092
0.15534276 0.18544714 -0.22214474 0.14122507 -0.1730357 -0.0636544 0.12665358 -0.13683598
0.2709761 -0.04083176 0.31060997 0.14213564 0.055644713 -0.097777896 0.21531348 0.116443306
-0.2589015 -0.33814394 -0.37194204 -0.09411172 0.32009917 -0.2865711 -0.2559796 -0.16958573
-0.05729051 -0.2563353 -0.023566144 -0.32660773 -0.33855107 -0.08721901 -0.3540328 -0.06759388
-0.0070333285 -0.06685055 -0.16860844 0.10316439 0.05796888 0.3339111 0.16469255 0.29866835
-0.22700976 -0.15771961 0.12733573 -0.30959252 -0.3412849 -0.06386366 -0.15498121 0.06494974
0.14689538 -0.25630268 0.3157792 -0.29266304 -0.03483416 0.18602648 0.32387063 -0.041331522
-0.017720982 -0.09367607 0.079198346 -0.30670506 0.15244986 0.32846266 0.08883767 0.15127058
-0.29917482 0.112866856 -0.08204113 -0.22493578 -0.22517861 -0.18366793 0.0281812 -0.2033699
0.13894749 0.063653246 -0.04446526 0.3342358 0.18378837 -0.21462113 -0.20499265 0.1772648
-0.3735601 0.30698273 0.033939328 0.034342032 -0.3430603 -0.05394437 -0.016370868 -0.32914692
-0.24585526 0.11196294 -0.22860903 -0.052057717 0.22852688 -0.2924357 -0.074952 0.10273867
0.060948312 -0.22131757 0.32483447 0.19313236 -0.11778772 0.28062248 -0.03188916 -0.03967653
0.2741712 0.32958513 0.134029 0.015103854 -0.111500435 -0.11720552 0.28408468 0.27954417
0.011542796 0.06281369 -0.2091132 -0.009452597 -0.14148612 -0.000553444 0.079528466 -0.10536301
-0.008588849 0.13571918 -0.1893174 0.1894995 0.016950456 0.10940111 -0.27008528 0.23890495
-0.2040252 -0.3411153 0.008829855 0.051255528 0.327295 -0.12719634 0.18201825 -0.18406232
-0.18841125 -0.07023694 -0.30401897 0.31526735 -0.2622589 0.16281721 0.15943909 0.25204062
-0.33159572 0.25730968 0.21197096 0.05215719 0.113679685 0.032912876 -0.104422495 -0.049679685
-0.12626292 0.16188599 -0.33136705 -0.075337894 0.0017918403 -0.3788523 -0.13884696 -0.14156333
-0.19332787 0.33967882 0.32709047 0.02910307 -0.014720751 0.2815728 0.14114918 0.29959208
0.28331855 0.034370966 0.21264657 0.19084807 -0.060677428 -0.2475225 -0.11733653 -0.012709842
-0.20203134 0.10831471 -0.13049427 0.09121899 0.015615839 0.1767771 -0.11038156 -0.23946065
-0.22911724 -0.15891446 0.05675065 0.019225754 0.07030616 -0.027939081 -0.26057926 0.26538074
-0.38073552 0.13770047 0.13594092 -0.17358209 0.15997078 -0.14480469 -0.33113074 -0.037928667
0.09014592 0.15557128 -0.03265078 -0.14475004 -0.31111354 0.12518042 0.115001634 -0.32594067
0.0712276 0.1363784 -0.15145785 0.25448537 0.09331719 0.07823855 -0.15407838 0.3598547
00000000: fcec 2a3e 1f0b 443e 69b3 89be 4c09 41be
00000010: f6a7 aebe 7142 a6be 84e2 bdbe 0dca 84be
00000020: 05f0 90be e9ad 7ebe 4977 4b3d b016 a6be
00000030: c68d 3b3e 7ac8 30be 3c5c bc3e 3b34 5b3e
00000040: 1517 c1be 2be2 86bd 201b f9bd 274e 5cbc
00000050: 4534 fcbd 8b33 97be fd6b 33be 1281 3e3e
00000060: 02b8 673e f9a6 a83e 7204 24be fc4e c23e
00000070: f571 5d3d 08ad 0a3e b7fc 9d3e cfb3 66be
00000080: da03 e93d 611e 8dbe 9c08 f6bc 131b 123e
00000090: 2fa5 bebe 4d9d 87bd eb59 83bc 4822 933e
000000a0: 2c12 1f3e dbe5 3d3e e979 63be 4e9d 103e
000000b0: 4530 31be 3d5d 82bd 7ab1 013e bb1e 0cbe
000000c0: 61bd 8a3e 343f 27bd 4508 9f3e 018c 113e
000000d0: b6eb 633d c73f c8bd 237b 5c3e d479 ee3d
000000e0: bd8e 84be 3421 adbe 306f bebe a5bd c0bd
000000f0: 0ae4 a33e 72b9 92be c20f 83be e2a7 2dbe
00000100: 74a9 6abd 613e 83be c90d c1bc 2139 a7be
00000110: 9156 adbe e19f b2bd ca43 b5be a96e 8abd
00000120: d677 e6bb f1e8 88bd b1a7 2cbe da47 d33d
00000130: c770 6d3d 65f6 aa3e 2aa5 283e 0feb 983e
00000140: 3f75 68be 4081 21be 4c64 023e e982 9ebe
00000150: e5bc aebe f3ca 82bd 65b3 1ebe 5f04 853d
00000160: be6b 163e 1b3a 83be d0ad a13e eed7 95be
00000170: 44ae 0ebd ba7d 3e3e 5fd2 a53e 3e4b 29bd
00000180: 982b 91bc 3dd9 bfbd be32 a23d 7208 9dbe
00000190: d11b 1c3e 422c a83e 86f0 b53d ade6 1a3e
000001a0: 712d 99be bd26 e73d 2e05 a8bd 9155 66be
000001b0: 3995 66be 7213 3cbe 43dc e63c 3340 50be
000001c0: 4048 0e3e a25c 823d 3421 36bd f420 ab3e
000001d0: 0533 3c3e a4c5 5bbe 98e9 51be e784 353e
000001e0: 4543 bfbe d72c 9d3e f703 0b3d 3baa 0c3d
000001f0: 9aa5 afbe c6f4 5cbd 331c 86bc f285 a8be
00000200: 7bc1 7bbe d34c e53d 7c18 6abe 793a 55bd
00000210: f302 6a3e 22ba 95be 6f80 99bd a768 d23d
00000220: f0a4 793d 13a1 62be b450 a63e 7dc4 453e
00000230: b03a f1bd c0ad 8f3e 359e 02bd db83 22bd
00000240: 2b60 8c3e 62bf a83e e63e 093e 2876 773c
00000250: 575a e4bd 7309 f0bd 8c73 913e 6a20 8f3e
00000260: ff1d 3d3c 77a4 803d c521 56be 11df 1abc
00000270: bde1 10be 0015 11ba d2df a23d 90c8 d7bd
00000280: 3eb8 0cbc f8f9 0a3e 6cdc 41be 280c 423e
00000290: afdb 8a3c b00d e03d 9e48 8abe 80a3 743e
000002a0: fbeb 50be aaa6 aebe 19ab 103c 51f1 513d
000002b0: 3693 a73e c23f 02be fe62 3a3e d57a 3cbe
000002c0: e1ee 40be 63d8 8fbd 60a8 9bbe b96a a13e
000002d0: cc46 86be 8eb9 263e 0044 233e 780b 813e
000002e0: eac6 a9be 18be 833e ea0e 593e c7a2 553d
000002f0: e5d0 e83d a7cf 063d 76db d5bd ed7c 4bbd
00000300: 114b 01be 71c5 253e f1a8 a9be c14a 9abd
00000310: 2fdc ea3a eef8 c1be e62d 0ebe faf5 10be
00000320: bef7 45be 62ea ad3e 6778 a73e 9069 ee3c
00000330: 4e2f 71bc 4f2a 903e 6989 103e 2264 993e
00000340: 210f 913e 92c8 0c3d 06c0 593e ad6d 433e
00000350: e588 78bd 8a76 7dbe 224e f0bd f13c 50bc
00000360: 4ee1 4ebe 1ad4 dd3d 4aa0 05be 06d1 ba3d
00000370: 93d9 7f3c 0e05 353e ba0f e2bd 2c35 75be
00000380: b69d 6abe 79ba 22be 5f73 683d 547f 9d3c
00000390: adfc 8f3d 80e0 e4bc a56a 85be fcdf 873e
000003a0: c4ef c2be 5a01 0d3e 1934 0b3e 81bf 31be
000003b0: 61cf 233e ae47 14be f889 a9be 175b 1bbd
000003c0: 6d9e b83d 144e 1f3e d3bc 05bd 5b39 14be
000003d0: 464a 9fbe 4c2f 003e fa85 eb3d b2e1 a6be
000003e0: c7df 913d c7a6 0b3e c417 1bbe e84b 823e
000003f0: 151d bf3d 883b a03d b9c6 1dbe e03e b83e

in_proj_bias f4 [33]
0.0057565384 0.0053617014 0.0030737265 0.025602326 -0.002280948 0.02667561 0.011348707 -0.002047923
-0.035952646 0.0026975868 0.0062059844 0.0039398116 -0.00030501583 0.00016243172 -0.0001214791 0.0004081703
0.00012089031 0.0007929613 0.0026649812 0.00024258645 -0.00017382037 0.0004075645 0.0012920633 0.0011412387
-0.0037924922 0.012080184 0.0012024576 -0.006418293 -0.004079793 1.3367549e-05 -0.0021312716 -0.005612495
-0.0067650466
00000000: 58a1 bc3b 36b1 af3b 9370 493b f8bb d13c
00000010: f57b 15bb cf86 da3c edef 393c 7236 06bb
00000020: 1543 13bd ffc9 303b 925b cb3b 8919 813b
00000030: 88ea 9fb9 6f52 2a39 98c2 feb8 b1ff d539
00000040: 7e86 fd38 bbde 4f3a f7a6 2e3b ce5e 7e39
00000050: 8d43 36b9 62ae d539 735a a93a 9e95 953a
00000060: 768b 78bb f7eb 453c c89b 9d3a 8b50 d2bb
00000070: c9af 85bb 3045 6037 ceac 0bbb 05e9 b7bb
00000080: 53ad ddbb

weight f4 [11, 11]
-0.016439514 -0.16375482 -0.2540388 0.10970588 -0.09735899 -0.30019116 -0.23241922 -0.06497356
0.044060197 0.2069449 -0.23200558 0.29576775 -0.26968205 -0.086370036 0.1621239 0.25966713
-0.26263204 0.022695828 -0.11268751 -0.08779446 -0.24847245 -0.28979218 -0.20355807 -0.1456992
0.2469741 -0.012837426 -0.078299515 0.14413214 -0.01656808 0.21977387 -0.1966704 -0.2086554
0.08300382 0.18838495 -0.027064892 0.15887128 0.14382866 -0.021030115 -0.0844898 0.28065693
-0.015410462 -0.22920954 -0.1904085 0.16610692 0.21130525 0.23887548 0.034997955 0.32753405
-0.13243127 0.1802097 0.09252613 -0.27792194 0.11331668 0.26024666 0.008441391 0.023326937
0.06924172 0.097553395 0.100307316 -0.23514584 -0.21255942 -0.026144737 0.29843408 -0.09002035
-0.14458734 -0.2966326 0.24133869 -0.13462082 0.002137939 -0.27457067 0.09823881 -0.20766243
-0.19283088 -0.22817552 0.12020665 0.15150006 -0.001733495 0.07853565 -0.2238096 -0.21819192
0.20354897 0.2329542 0.15779272 0.035317853 0.20494625 0.2810586 -0.26212844 -0.06022248
-0.17511708 0.10565919 -0.24207187 0.026301807 -0.25321096 0.00506971 0.19655296 -0.16503964
0.073580846 0.006775356 -0.23303162 0.112015046 -0.3046527 -0.2365976 -0.2816275 -0.03880989
-0.03696485 0.02122988 -0.21084979 0.24800222 0.21645717 -0.2119278 0.035072263 0.19198468
0.1174386 0.04237114 -0.23526353 -0.16782781 -0.18092269 -0.070447184 -0.01052655 -0.20670979
0.012449695
00000000: 29ac 86bc 58af 27be 6011 82be 7aad e03d
00000010: 2664 c7bd a8b2 99be 4eff 6dbe dc10 85bd
00000020: 7778 343d 5de9 533e df92 6dbe df6e 973e
00000030: c413 8abe c6e2 b0bd cf03 263e 17f3 843e
00000040: b577 86be 9aec b93c b6c8 e6bd 95cd b3bd
00000050: 906f 7ebe a45f 94be 8771 50be 2c32 15be
00000060: c7e6 7c3e 1154 52bc 7f5b a0bd 6097 133e
00000070: c8b9 87bc 670c 613e f763 49be c3a9 55be
00000080: e8fd a93d fce7 403e 31b7 ddbc 27af 223e
00000090: d247 133e 5947 acbc fd08 adbd 44b2 8f3e
000000a0: 2a7c 7cbc e8b5 6abe 72fa 42be ef17 2a3e
000000b0: 6760 583e c69b 743e 045a 0f3d 8bb2 a73e
000000c0: 109c 07be e488 383e 577e bd3d c94b 8ebe
000000d0: 9312 e83d 0d3f 853e c34d 0a3c 2218 bf3c
000000e0: 9ace 8d3d 13ca c73d ec6d cd3d 12ca 70be
000000f0: 2da9 59be 7d2d d6bc 5acc 983e 975c b8bd
00000100: b40e 14be 3ae0 97be 7d21 773e 0ada 09be
00000110: aa1c 0c3b 8794 8cbe 6e31 c93d 76a5 54be
00000120: 7575 45be d8a6 69be e72e f63d d522 1b3e
00000130: 7136 e3ba 4dd7 a03d 582e 65be b46d 5fbe
00000140: 246f 503e 8c8b 6e3e 6a94 213e 74a9 103d
00000150: 6edd 513e eae6 8f3e b335 86be d9ab 76bd
00000160: e451 33be d863 d83d b0e1 77be e376 d73c
00000170: dea4 81be cf1f a63b 2e45 493e 2700 29be
00000180: 8eb1 963d ce03 de3b d79f 6ebe 2568 e53d
00000190: 70fb 9bbe a446 72be 7b31 90be 1ff7 1ebd
000001a0: 7468 17bd 49ea ad3c 02e9 57be 4bf4 7d3e
000001b0: f3a6 5d3e 9a03 59be efa7 0f3d a297 443e
000001c0: a683 f03d 5c8d 2d3d ece8 70be 0edb 2bbe
000001d0: cc43 39be 9d46 90bd 8d77 2cbc bbab 53be
000001e0: cef9 4b3c

bias f4 [11]
0.0046231984 0.011883118 -0.0011398424 -0.007193222 -0.008136123 -0.0097426325 0.0021450582 0.0022790036
0.009473942 -0.018224176 0.008069727
00000000: 337e 973b 69b1 423c c466 95ba 1fb5 ebbb
00000010: 604d 05bc 909f 1fbc 1b94 0c3b 565b 153b
00000020: 9838 1b3c de4a 95bc e336 043c
