PonziShield_tr_v1.pth (torch, 406178 bytes, 110 tensors)

weight f4 [108, 11]
00000000: c5c3 953f 984f 503e 9a57 8cbb 8f24 ab3d
00000010: 1254 bcbf 0e46 2cbf 9d33 123e db7e 67bf
00000020: d093 63bf 3246 28bf 6d5d a0bf 68a5 ba3f
00000030: ada9 8a3f 2784 883f 075c a73f 25ad 0140
00000040: 08ee 39bf 09bb 0c3f 1575 573f d52f 623f
00000050: 1530 25bf 78e7 a33f 5b61 0bbf d874 0540
00000060: d8ff 6ebf abe4 98bf 4526 c6be a4f0 1b40
00000070: e23b 8cbf df1b a0bf 4a20 a43f d23c 5fbf
00000080: a786 ecbe cf7d 1240 64ed 25c0 a1a5 c2be
00000090: cde5 ecbe 1b19 2640 830b 5e3f 2efd ea3f
000000a0: 3b20 753e d839 563f 53b6 f03e 61b8 25bf
000000b0: 4303 1ebf 6f82 d93e 6b0d 4dbf e812 933f
000000c0: ee91 e4be 2fa9 603f 6ec5 13c0 a652 9e3e
000000d0: 666a 433f 8079 983f 72a5 a23f 2d98 7fbe
000000e0: e0cc ccbe 1658 213e 3afa 2a40 5978 943d
000000f0: d40d 7bbf 6d0b 023f e74b 0640 692b a73f
00000100: 33b6 69bf 8974 d8be 8a1c 803f 6275 73bd
00000110: 6334 aabf 3c93 81bf a754 46bf a512 403e
00000120: 062b 6c3f 7e0e 433e e958 36bf e545 343f
00000130: a467 7dbf 5e28 103f fe96 b43e b1cb f4bd
00000140: 7359 5a3e f1d9 5b3f 9291 f6bf 0e4e fbbe
00000150: 5cfc c2be 8f00 1dbf 0c2e afbf 042d b2bf
00000160: 635f 513e 4adf cebe b9f9 2c3f 49ef 1540
00000170: a233 9bbc 3034 06be f602 903e 6391 c23f
00000180: 9cb5 a8bf cb24 a13f b9c0 65be 0d71 3d3f
00000190: d59b 883e 4271 8f3c d03a 14bf 9977 193f
000001a0: d932 653f 6ed4 37bf 39b4 c73f 24a2 8c3f
000001b0: 1098 a1be 6102 f3bf 2d8a 873f 2e72 8e3e
000001c0: e262 4cbf 5e2a eebf aea5 a4be c655 f53f
000001d0: d08f 7c3e 8c39 2e3e 5dcd 4ebf be6b 40bf
000001e0: 526b d63d 122a c53d 38ef b73e d681 8e3f
000001f0: 780e b5bd 9c90 c5be fcf3 743d 7514 97bf
00000200: e693 ae3f 0836 9e3f ff9d 893f d0d6 cc3e
00000210: b0d0 d03e 887f 803f 4770 d1bd 0aeb 33bf
00000220: 8e31 7cbe 7afc 863f fad4 9d3e 1bd3 6c3f
00000230: d79a 953f 2eea f93e 5ccf 68bf 1a8a 51bf
00000240: c951 7b3f 7ef8 18bf 611f b73f 1282 c03d
00000250: e9c0 6c3d bc62 5bbf 42ce 09c0 9bd5 cf3f
00000260: cd89 163f 3ad0 37bf 0779 2a3e 8e1c b8be
00000270: 2d09 6dbf 74a6 903d 8a02 c13f 5cb4 09bf
00000280: bd34 37bf dc2c 3ebc cce8 fd3e 0b3e bbba
00000290: 896e ffbe 38e0 ac3f 5113 c9bf 7b97 083f
000002a0: c4ac a4bf bb26 2cbe ff1d 19bf 2797 fd3f
000002b0: 213f 493f 964e 1abe 3c60 02bf 1884 d63e
000002c0: 2a10 293f d83a 193f 584a 8abe 8ffb 01bf
000002d0: 0c4d 47bf 80a2 403f 25f4 7d3f 0174 123f
000002e0: 3388 18bf cf6a bb3f 240e 2940 f069 383e
000002f0: c15e cc3e 45c6 22bf 002b 8ebe dce1 423f
00000300: ff08 693f 106b 9e3e b1c6 273f 96e2 13bf
00000310: 4ec2 e6bf 6871 aabf 9e7d 86be 5f8e b93d
00000320: 14ab 003f 99c0 1ebd bb75 803e 3101 e83c
00000330: 6da4 0abf c726 d6bf 8556 793f 8bea c5be
00000340: 1040 333f 203c 46bc 1f5e 013f 0308 15bf
00000350: 9659 6fbf 205b 8ebf 9a99 3ec0 fece ccbf
00000360: 3753 14bf ff90 8ebf 847e 523f 39f5 8fba
00000370: 88a1 84be aaf8 cebe 8024 073e 8271 0c3e
00000380: 0113 b23e a838 7dbc 99d6 98bf c753 80bf
00000390: d892 a63f 9853 b93e dc0e 92be 0cfe 0e40
000003a0: ffde 90be a79c 8e3d 6256 be3f 87fb 963e
000003b0: eabf 5c3f 54f3 b63d fc5a 153f b57d 753e
000003c0: 5c10 b4bf 910d 853f fef4 d53e 076d bfbe
000003d0: bb84 9f3e 1e15 1c3f 27dd ef3f 16f7 293f
000003e0: 2623 573f 4204 0dbf a0be bfbe e6d0 11be
000003f0: 8c37 963d f5a1 8cbf ee9f 203d 829a 6ebf
1.1700369 0.20342863 -0.004282904 0.083565824 -1.4713156 -0.67294395 0.14277501 -0.9042794
-0.8889742 -0.6573211 -1.2528511 1.4581728 1.0833031 1.066533 1.307496 2.026193
-0.7262883 0.54972893 0.8416303 0.88354236 -0.6452649 1.2805014 -0.5444543 2.0852566
-0.93359137 -1.1944784 -0.38701072 2.4365625 -1.0955775 -1.2508506 1.2822354 -0.8720218
-0.46196482 2.2889287 -2.5926142 -0.3801699 -0.46269074 2.5952823 0.86736315 1.8358514
0.23938076 0.8368201 0.47014102 -0.64734465 -0.61723727 0.42482325 -0.800986 1.1490145
-0.44642586 0.87758154 -2.3089252 0.3092243 0.76334226 1.1912079 1.270674 -0.24960394
-0.40000057 0.15756258 2.6715226 0.07249517 -0.98067975 0.50798684 2.0983827 1.3060123
-0.9129364 -0.4227641 1.000871 -0.059438117 -1.3297237 -1.0123057 -0.7747292 0.18757112
0.9225315 0.19048497 -0.71229416 0.7041915 -0.9898627 0.56311595 0.35271448 -0.119529136
0.21323185 0.8587943 -1.9263175 -0.49082989 -0.3808316 -0.6132898 -1.3685927 -1.3919988
0.20446543 -0.4040473 0.67568547 2.3427298 -0.018945519 -0.13105845 0.2812726 1.5200619
-1.3180423 1.2589353 -0.22436799 0.74000627 0.2668139 0.01751006 -0.5790224 0.59948117
0.8953071 -0.71808517 1.5601875 1.0986981 -0.31561327 -1.8985101 1.0589043 0.27821487
-0.79838383 -1.860668 -0.32157654 1.9166801 0.24664235 0.1701414 -0.8078211 -0.751644
0.104696885 0.09627165 0.35924697 1.1133373 -0.0884065 -0.3858689 0.059802994 -1.1803118
1.3638885 1.2360239 1.0751342 0.4000764 0.40784216 1.003892 -0.10226493 -0.70280516
-0.24628279 1.05458 0.3082655 0.9250962 1.1687878 0.48811477 -0.90941405 -0.8185135
0.9817167 -0.5975417 1.4306451 0.09399809 0.05780116 -0.8569753 -2.153214 1.6237062
0.5880402 -0.71802104 0.16647731 -0.35959285 -0.92592126 0.070629984 1.50789 -0.5379083
-0.7156485 -0.011607375 0.49591672 -0.0014285458 -0.4988902 1.3505926 -1.570902 0.5335614
-1.2865224 -0.1681165 -0.59811395 1.9811753 0.7861195 -0.1506904 -0.5092809 0.41897655
0.6604029 0.59855413 -0.27009845 -0.5077447 -0.7785194 0.75247955 0.9920066 0.5720826
-0.59582824 1.464197 2.641488 0.18009162 0.39916041 -0.63583785 -0.2776718 0.76125884
0.9102935 0.30941057 0.65537554 -0.5776762 -1.8028047 -1.3315859 -0.26267713 0.09060358
0.50261045 -0.038757894 0.2508982 0.02832088 -0.54157144 -1.6730584 0.97397643 -0.38655505
0.70019627 -0.012099296 0.5053424 -0.5821535 -0.9349607 -1.1121559 -2.978125 -1.6000669
-0.57939476 -1.1137999 0.822243 -0.0010983116 -0.2590449 -0.4042409 0.13197517 0.13715175
0.34780124 -0.015455402 -1.194049 -1.0025567 1.3013563 0.3619659 -0.28526962 2.2342558
-0.28295133 0.06963473 1.4870112 0.29488775 0.8623034 0.0893313 0.58341956 0.23973735
-1.4067492 1.0394765 0.41788477 -0.3738787 0.31155953 0.6096972 1.8739365 0.6639265
0.8403801 -0.5508462 -0.37450123 -0.14239845 0.073348135 -1.0986925 0.03921502 -0.9320451

in_proj_weight f4 [33, 11]
00000000: 2f34 143e b321 a83e 9a09 96be 543a acbd
00000010: 5831 b93e aef9 d43d 242f ddbd e24f 6a3d
00000020: 1fab 5b3c 5d80 aa3e 6013 5dbe 37b9 af3e
00000030: 3454 71bc e44b 043e 8afb 57be f478 ad3c
00000040: 4b5e 3d3e 0b58 c03e e572 94bc f135 293e
00000050: 7fb4 fd3d 053a 42bb fd0b 84bd e9f0 803e
00000060: 16a7 aabe 614d 33be d2a0 bd3e f663 8e3e
00000070: 3c59 7c3e ee57 303d 3133 84bc b959 c3be
00000080: fe9d 23be 592c 91bd 6fab c8bd 8fb3 bdbd
00000090: 410f 67be b9a9 6b3e f58e 353d 1a37 73be
000000a0: 684c 553e 28bc 6dbe ad70 253e c7ad c93a
000000b0: 54c4 a7be e4fd a1bd 7662 a93c dfb1 80be
000000c0: bea5 433e d68d 94be 1dac 913e 2655 71bc
000000d0: 4808 a93e da23 a33e 943e 2cbe 61ad d3be
000000e0: 8916 6a3d 1050 8fbd db19 a8be 7d1e 803e
000000f0: f85f a4bd 6c98 01be 29b4 c2be bbe4 8fbe
00000100: 0e28 87be 8d36 28be b2a1 af3d a75a 9fbd
00000110: c252 9f3e 6753 a53e ad02 903e 3e1d d8bd
00000120: 0e98 b83e 2113 9c3e 8129 423d 198d 5a3e
00000130: 46ae cd3e 9708 35be 2d4c acbe 0611 acbe
00000140: 31de babe 73e5 ba3d 853b a63e 4ee7 bdbd
00000150: 188a 6e3e fa85 82be 6992 7cbe e88d 9c3e
00000160: a93b 98be bf72 b0be 52a1 133e 6863 ddbd
00000170: ed6f d83d 2fb2 5a3e 29d8 b3bd 327c 5f3e
00000180: 4183 f8bd a5fa 193e fd21 9abe 04fa 0d3e
00000190: e94d 923e e0c1 a2be 540b 373e e234 643d
000001a0: 2d79 b83e c7a0 1dbe a0d7 853e 6a35 0fbe
000001b0: 481d 94be cb09 a63e fa23 c13e f377 a13e
000001c0: 3cb3 30bc 1a6b 373e 38a9 86bd 255c 613e
000001d0: 18c5 3ebd 7a68 afbe fd54 d23b 1d13 5f3e
000001e0: 2014 0a3e a066 5bbe dad9 573e 3bd8 31bd
000001f0: 374e 903e 6a29 a33e 9aae 8fbe 936d 383e
00000200: 4ff3 44be a720 823e 0ac6 0b3d b87d ba3e
00000210: 6ad7 863e a894 1c3e a404 113e 873e d0bc
00000220: 24c6 7dbe 7fcc 9bbe 5a48 fcbd 6510 44be
00000230: 8e00 003d 4a66 a2be f87f 65be 9c7e 8d3d
00000240: decc 953e 1ce6 823e 6d0f 75be c3c4 bd3b
00000250: 9409 2ebd 480f 38be 48cb 1b3d f5f9 083e
00000260: 04cc 30be fbd8 f93d 453b 453e a1fe 223e
00000270: 579d a6be a23f f6bd 3464 aebe 98c9 98be
00000280: f01e 9d3d 8edd fbbd d440 b83d b0da 983d
00000290: 19fa 333e 412a 723e 403b ba3e f625 643e
000002a0: 762b a5bb 022d 81bd a0b3 a73e c2fb 913e
000002b0: 0e38 653e 4001 833e 2862 93be f0db 6bbe
000002c0: 63b2 9b3e 28a4 823e a352 65be 4b8c c73e
000002d0: e922 3fbe b012 3a3e 7a11 9a3e 58df 083e
000002e0: c991 b33e bccf 583e 3216 5ebe 9c00 9bbe
000002f0: d151 bc3d 3e26 d23d c301 6b3e 9e8b 8fbe
00000300: ea5d 45be a938 c63e aa19 af3b f448 a33e
00000310: fa7d 873e 6d58 29bd a618 c1bd e8c5 afbe
00000320: f1e9 d93d 89a6 7c3e 7d17 bb3e d731 9cbc
00000330: 09e8 0b3e ae4f 373e 9f37 0e3e 27fa adbe
00000340: fb30 f63d eb39 09be 5984 873d 6acd 7abe
00000350: 85fe 9c3e 3e9b b1bd 9a7d 5b3e 52fe 063e
00000360: e8cc 42be fc8b b23e a751 e23d 0fdb 09be
00000370: 68dc aa3e 0741 953e c8ea abbe 35da aa3d
00000380: 05a6 ab3e aca1 b4be 5b2b 5a3e 1f0e 68be
00000390: d721 ea3d 4960 9a3c 5b0a 3cbe b728 b43e
000003a0: 3633 693d 9e6f 513e ae90 823d 4f40 bfbb
000003b0: f81b a8be fdc8 a4bd d304 9d3e 44e3 aa3c
000003c0: d836 05bc 5e5e a8bd 52fe cbbe d016 0bbe
000003d0: 4b78 cebc 68f0 97be f329 9bbe 981b 143c
000003e0: 7f1e 703e 3b6a 82bc 6227 a9be 02f5 473e
000003f0: 1ad8 88be e927 19bd d8af d4bc 2759 8dbe
0.14473031 0.3283821 -0.293042 -0.08409563 0.3617046 0.10399185 -0.10800007 0.05720509
0.013407498 0.33301058 -0.21589422 0.34320995 -0.014729548 0.12919575 -0.21092048 0.021175839
0.18493001 0.3756717 -0.018121192 0.16524483 0.123879425 -0.0029636633 -0.06447599 0.251838
-0.333306 -0.17509986 0.3703676 0.2781064 0.24643415 0.043052606 -0.016137691 -0.3815439
-0.15978238 -0.07088537 -0.09798323 -0.09262764 -0.22564413 0.23013963 0.044325788 -0.23751488
0.20829928 -0.23216307 0.16156264 0.0015386873 -0.32766974 -0.07909754 0.020676833 -0.25135705
0.19106194 -0.29014462 0.28451625 -0.014729774 0.3301413 0.3186329 -0.16820747 -0.41343215
0.057150397 -0.069976926 -0.32832226 0.2502326 -0.08026117 -0.126558 -0.38028076 -0.28104195
-0.26397747 -0.1642706 0.08575763 -0.077809624 0.31117827 0.32290193 0.2812704 -0.105524525
0.3605351 0.30483344 0.047402862 0.21342887 0.40172023 -0.17679058 -0.33651868 -0.33606738
-0.36497644 0.09125795 0.32467285 -0.092726335 0.23294866 -0.2549284 -0.24665226 0.30577016
-0.29733017 -0.34462544 0.14417008 -0.10809976 0.10568223 0.21357034 -0.08781464 0.2182472
-0.1213441 0.1503702 -0.30104056 0.13864905 0.28575066 -0.3178854 0.17875415 0.055714495
0.3602995 -0.15393363 0.2614107 -0.1398522 -0.2892859 0.32429346 0.3772276 0.31536826
-0.01078492 0.1791195 -0.06575245 0.22007807 -0.046574682 -0.34259397 0.006418823 0.21784635
0.1348424 -0.21425867 0.21079198 -0.043419104 0.28184673 0.31867534 -0.28062898 0.18010549
-0.1923344 0.25415537 0.03412441 0.3642404 0.26336223 0.15291083 0.14161927 -0.02542044
-0.24782616 -0.30429456 -0.123184875 -0.19146879 0.03125053 -0.31718665 -0.22412097 0.069089144
0.29257864 0.25566185 -0.23931666 0.005791278 -0.042489603 -0.1797458 0.03803566 0.13376601
-0.17265326 0.12199589 0.19260891 0.15917446 -0.32541916 -0.12023856 -0.34060824 -0.29841304
0.076719165 -0.122981176 0.0899674 0.07463586 0.17575873 0.23648931 0.3637333 0.22280106
-0.0050405813 -0.06307413 0.3275423 0.28512388 0.22384664 0.2558689 -0.28785825 -0.23033118
0.30409536 0.25515866 -0.22394805 0.38974223 -0.18665661 0.18171191 0.3009146 0.13366449
0.35072163 0.21172994 -0.21688154 -0.30273902 0.09195293 0.102612 0.22949891 -0.28036207
-0.19274107 0.38715103 0.0053436356 0.31891596 0.264633 -0.041344095 -0.094285294 -0.34330678
0.10640324 0.24672903 0.36541358 -0.019066734 0.13662733 0.17901489 0.13888405 -0.33979914
0.12021061 -0.13401 0.0661704 -0.24492422 0.30662933 -0.08672188 0.21434632 0.13182953
-0.19023478 0.34872425 0.1105073 -0.1346247 0.33371282 0.29151174 -0.3357756 0.08342401
0.335251 -0.35279596 0.21305601 -0.22661637 0.11432236 0.01884474 -0.18363325 0.35187313
0.056933604 0.20452735 0.06375252 -0.0058365236 -0.32833838 -0.08046148 0.30667743 0.020860322
-0.008130752 -0.08221124 -0.39842469 -0.13582921 -0.025203845 -0.29675603 -0.30305442 0.009039782
0.23449133 -0.015919795 -0.3303786 0.19527057 -0.26727372 -0.037391577 -0.025962755 -0.2760708

in_proj_bias f4 [33]
00000000: 8156 27bd 7ed0 42bd 50a1 063d 5523 3dbd
00000010: 4a5e 0b3b d927 ef3c 6814 3f3d e637 04bc
00000020: c527 debc b936 e1ba fd04 0fbc 1534 f2bb
00000030: fdf2 06bc d713 983a 3778 dd3b 99da 843c
00000040: 64c3 61bc a452 a1bb fdcd 7e3c 4529 ed3a
00000050: 964a f43b 98b2 bbba 1128 393c a511 77bc
00000060: b1ca 1f3d 370f 90bc 858b e9bb 0ea5 1b3d
00000070: 6748 e1bb 079c 963c 3ed0 f1ba 4086 1b3d
00000080: 4fd4 b1bb
-0.04085398 -0.047562115 0.032868683 -0.046176273 0.0021265917 0.029193806 0.04665032 -0.008069968
-0.027118573 -0.0017182446 -0.008729217 -0.0073914626 -0.008236644 0.0011602592 0.0067587155 0.016217517
-0.013779495 -0.0049231816 0.015552041 0.0018093964 0.0074551804 -0.0014320193 0.0113010565 -0.01507989
0.03901166 -0.01758538 -0.0071272277 0.037999205 -0.006875086 0.018384947 -0.0018448902 0.037969828
-0.0054269205

weight f4 [11, 11]
00000000: f372 133e e7ac 53bc bdb2 ff3d aade 3f3d
00000010: 1055 e53d 6d25 abbd 7186 2d3e 2488 7dbe
00000020: 7ebd c4bd 2faa a73e d668 b83d 49b9 edbd
00000030: 1d8e bebc a840 53bc 331b 3dbe 62c7 3ebe
00000040: 37f5 5f3b 0b33 a0be 3159 d33c 65ce 4f3e
00000050: 684f d13d 7c95 d33c 836a a7be e4e9 a2bd
00000060: a581 5ebe 98e4 efbd 9006 e2bd 240b 3bbe
00000070: 0074 1abd fbff 29be eb51 933d 6bca 603e
00000080: 144e 733e 9c5a 0a3e cb62 3f3e 3651 60be
00000090: a862 cf3c 8875 7e3e a7e3 0dbe 4e37 423e
000000a0: f991 513d 810f 123e a39a 0c3e 47cb 98be
000000b0: 5187 03be c438 93be dc9e 8b3e 6484 70be
000000c0: 188f 8dbe 3c8e 9c3e 6422 41be 7590 9c3e
000000d0: fd30 4e3b ef4b 3c3e 9b5b 1f3d ef80 5e3e
000000e0: 517c 053e 1c61 d73d 4154 13bd 7cdf 4f3e
000000f0: 3513 bf3d c66f 56be b204 9dbd d5f6 a03d
00000100: ac19 663e 88a5 59bd f72f 35bd 1ac9 9d3c
00000110: 776f 3cbe fdbd c7bd 947e 113e dacc e43d
00000120: 322f 73be 6829 80be 6e7c 613e 5b54 85be
00000130: 27f0 123e aea6 2a3e f088 04bd f694 4dbe
00000140: fb28 3cbe 219f 873e df95 03be 985d 58be
00000150: b070 3b3e 9c3e 1bbe c2de 66be 38ea 5cbd
00000160: be19 563e afb0 84be 2278 773d 2cf2 5fbe
00000170: bf77 963e 5b03 1cbe 6982 153e 0059 403d
00000180: 0681 75be 406a 4a3e 6578 f8bd 9a5f 1dbd
00000190: f913 df3d b2d8 1c3e b8d2 4abe 5af9 e5bd
000001a0: 0aa5 5c3e 3283 2ebe 0d6f 47be 06eb 33be
000001b0: 0f87 663e 5321 633e 2063 fe3d eca8 5e3e
000001c0: 95cd 6abe 6075 7ebd 1494 41bd 288b 25be
000001d0: b485 bbbd 25ed bc3d e93a 96bc 8615 07be
000001e0: 6de4 26be
0.14399318 -0.012919641 0.124852635 0.04684321 0.11197865 -0.08356748 0.16945817 -0.24758965
-0.09606455 0.32747027 0.09004371 -0.11607606 -0.023261124 -0.012893833 -0.18467407 -0.18630746
0.003417326 -0.31288943 0.025799366 0.20293577 0.10220224 0.025828116 -0.3269845 -0.07954767
-0.21729143 -0.11713523 -0.11036408 -0.18265969 -0.037708282 -0.16601555 0.07193359 0.21952216
0.23760253 0.13511127 0.1869003 -0.2190598 0.025315598 0.24849522 -0.13856374 0.1896641
0.0511646 0.14263727 0.13730864 -0.29842588 -0.12844588 -0.28754246 0.27269638 -0.23488003
-0.27648234 0.30577266 -0.18860775 0.30578962 0.0031462305 0.18388341 0.03890572 0.21728872
0.13035704 0.10516569 -0.035969023 0.20300096 0.09329835 -0.20941076 -0.07666911 0.078595795
0.2247073 -0.05313638 -0.044235196 0.019260932 -0.18401895 -0.09753034 0.14208442 0.11171885
-0.23748472 -0.2503159 0.22020122 -0.2604092 0.14349423 0.16665146 -0.032357156 -0.20076355
-0.18375008 0.26488593 -0.1285014 -0.21129453 0.18304706 -0.15160602 -0.22545913 -0.053934306
0.20908257 -0.2591605 0.060417302 -0.21869725 0.29388234 -0.15235655 0.14600529 0.046959877
-0.23975 0.19767094 -0.121323384 -0.03842125 0.10892481 0.15317038 -0.19806945 -0.11229201
0.21547332 -0.17042235 -0.19475956 -0.17570123 0.22512458 0.22180681 0.1242125 0.21744126
-0.22929986 -0.062123656 -0.04726036 -0.16166365 -0.09156361 0.09224919 -0.018338637 -0.13191804
-0.16298075

bias f4 [11]
00000000: bd14 b23c fa49 e33b 2569 cbbc 25f7 94bc
00000010: 506c b73c 3db6 003d 0fbe 383c 10e7 47bc
00000020: 8614 183b 7437 92bb 2a12 66b9
0.021738404 0.006936309 -0.02483041 -0.018184254 0.022390515 0.031423796 0.011275782 -0.012201086
0.0023205592 -0.004462177 -0.00021941276

weight f4 [8, 11]
00000000: 422c b33d d7ac 1cbe 542e 3d3e e3a6 75be
00000010: 7c66 433d 0ab1 1ebe 6cf9 e3bd 4409 91bd
00000020: 385c 7b3e 2fc7 7cbe c975 03be 426d 6fbe
00000030: cf1f 363e 9d81 41be 900a 08bd abbd 993d
00000040: fd02 76be 41b4 223e 0afa 32be 6559 803e
00000050: a48a 913e 0d2c 06be 3690 39be 3ed9 76be
00000060: 526e 54bd fb19 42bd 8c17 11be 0dd3 963e
00000070: fb59 85be da5f 973e 69ef 563e caac 6bbe
00000080: c11e 69bd 8d35 41bd 633d f83d 19f7 e03d
00000090: 685d 583d faf2 39be e8ee a2be ad3f 1ebe
000000a0: 585b 2ebd d8b5 543e fb57 87bd c092 35be
000000b0: e03e a0bd 4441 603e 6f8e c93d 70ed 453e
000000c0: ab4f 7abd 99b0 7c3c 5b89 7e3d af87 543e
000000d0: 5ceb 473e 1b5d 38be 544e 5c3e 82f8 8abe
000000e0: 45b1 8c3e ab61 47be 2e72 d13d d4ab 0d3b
000000f0: 94d7 463e 827e 413d aa0c 853e d2a9 683d
00000100: f480 053e a9ad 883e f762 483e f04e 89be
00000110: 0a0e 51bd 43ef 0c3e d74f 84bd 3c45 643e
00000120: 6efa 8b3e 35f1 e13d 7086 39be d7cd 8fbe
00000130: 720b b2bd 420e 2cbe 5535 81be e895 59be
00000140: 54b5 6a3e 30e9 2dbe 8afd 403e 9bf6 52be
00000150: fb26 f33c b3bf 2d3e 8b6b 873d 0f66 10be
0.08748676 -0.15300308 0.18474704 -0.23989443 0.04770516 -0.15497223 -0.11131558 -0.070818454
0.24546897 -0.24685358 -0.128379 -0.23381522 0.17785572 -0.188971 -0.0332132 0.075068794
-0.24024577 0.15889074 -0.17478195 0.25068203 0.28426087 -0.13102742 -0.18121418 -0.24106309
-0.051863022 -0.04738806 -0.14169139 0.29457894 -0.26045212 0.29565316 0.20989765 -0.23015133
-0.056914095 -0.04717021 0.121210836 0.1098463 0.052823454 -0.18159094 -0.31822896 -0.15453978
-0.04256758 0.20772493 -0.06608578 -0.17731762 -0.078244925 0.21899897 0.0984162 0.19328856
-0.061111134 0.015422964 0.06214271 0.20754884 0.19523376 -0.18004267 0.21514255 -0.2714272
0.27478996 -0.19470851 0.10226856 0.002161731 0.19418174 0.047239788 0.25986224 0.05680258
0.13037473 0.26694992 0.19569002 -0.26818037 -0.05103878 0.13763146 -0.06460541 0.22292036
0.273395 0.11032335 -0.1811769 -0.2808673 -0.08693589 -0.16802314 -0.25236002 -0.21248591
0.22920734 -0.16983485 0.18846717 -0.20601885 0.029681673 0.16967659 0.06612309 -0.14101432

bias f4 [8]
00000000: 34bb 173e 61fe 53be 266b 9ebd 4c21 773e
00000010: f3a2 65be 3c20 373b cfef 87be 310b 2a3e
0.14817506 -0.20702507 -0.07735281 0.24133795 -0.22425441 0.0027942797 -0.26550147 0.16605832

weight f4 [11, 8]
00000000: 200e 92be ed16 18be d5ed a43e a91a 723e
00000010: 05dd 51be 2742 82be 3a1b 2abe 2a84 b03e
00000020: cc80 553e ae67 3b3d 5067 bc3c 25a0 23bd
00000030: 731a 88be b7a7 c03e 7742 99be e62e b0bd
00000040: 2c88 4a3e a1d2 333e a78b f3bc 5405 563e
00000050: 9cf0 b23e 0243 213e 91b3 9d3e 7399 92be
00000060: 0f7b 3bbd c102 97be ed99 82be 797c 973d
00000070: ab24 9fbd 61dc 27bd 6d5f b23e 7ec4 65be
00000080: c273 89bd 40ad 94bd 7703 4a3d e009 e33c
00000090: 63ca 353e 5113 5d3e a67f 1bbe 291d f03d
000000a0: e713 93be d707 273e 90be 093e 6eab 00be
000000b0: 6ce3 b3bd 1016 8b3e b7b3 71be 5488 e2bd
000000c0: d2e7 6b3e ce0f 96be 727b 81be f32e 2c3e
000000d0: 7dda 05be c8eb b63d 533c 33be 811f 1bbe
000000e0: 70dd 19be 4718 2d3d c1bf b03c 0aef 993e
000000f0: cbc1 673e 120c babd 89c4 0cbd 7745 6f3e
00000100: b634 8ebd a15a a5bd ab79 a6be 7b97 22be
00000110: 07a0 7e3e 36aa 0bbe 103d 013e dd93 973d
00000120: faf2 80be a9de 91be 0949 ba3d e3f5 5abc
00000130: faba 4d3e a4da d1bd b367 293e fa53 e5bd
00000140: f5b5 67be c003 f9bd 55a1 38be 9485 44be
00000150: 5000 f13d 19df 0f3e f94e cabd 16c3 d6bd
-0.28526402 -0.14852495 0.322127 0.23642983 -0.20494469 -0.25441095 -0.16611949 0.34475833
0.20849913 0.045753174 0.022998482 -0.039947648 -0.2658268 0.37627956 -0.2993352 -0.08602695
0.19778508 0.17560817 -0.029729677 0.2090047 0.34949195 0.15748218 0.3080106 -0.28632697
-0.045771655 -0.2949429 -0.2550806 0.07396788 -0.07770666 -0.040981654 0.3483843 -0.22438237
-0.06711532 -0.07259607 0.04931971 0.02771467 0.17752986 0.215894 -0.15185413 0.11724312
-0.28726122 0.16311584 0.134516 -0.12565395 -0.08783612 0.2716527 -0.23603712 -0.11061159
0.23037651 -0.29308933 -0.25289494 0.16814785 -0.13071628 0.089316905 -0.1750348 -0.15148737
-0.15025878 0.04225948 0.02157581 0.30065185 0.2263252 -0.090843335 -0.034367118 0.23366342
-0.069436476 -0.08073927 -0.325147 -0.15878098 0.24865733 -0.13639149 0.1262095 0.074012496
-0.25185376 -0.2849019 0.090959616 -0.013364288 0.20090857 -0.102467805 0.16543464 -0.11197658
-0.22628005 -0.121589184 -0.18030293 -0.19191581 0.11767638 0.14049949 -0.09878344 -0.104864284

bias f4 [11]
00000000: 54a6 38be ffc8 693d b1c6 c03d 2602 67be
00000010: 3e58 f6bc b0da 533d 382b 38be 830b f03c
00000020: 588d 413e b502 dd3d 5651 353e
-0.18032199 0.05707645 0.094128974 -0.22559413 -0.030071374 0.05172223 -0.17985237 0.029302364
0.18901575 0.10791532 0.17706808

weight f4 [11]
00000000: 42b1 843f 559e 7a3f 832a 783f 50d4 7f3f
00000010: cf07 843f 967c 793f d21c 753f 75dd 843f
00000020: 3efd 843f 511c 843f 4ef2 6e3f
1.0366595 0.97897846 0.9693987 0.9993334 1.0314883 0.9745573 0.957471 1.0380083
1.0389783 1.0321141 0.9333848

bias f4 [11]
00000000: 70fd 0f3d 7f58 d9bb 716a 05bd 5dc2 ab3b
00000010: edc5 f8bb e4df 753b eace bc3b 7cd2 efbc
00000020: 651e 703b d059 673c ff64 2b39
0.035153806 -0.006632864 -0.032572214 0.005241676 -0.007591954 0.0037517482 0.0057619708 -0.029275171
0.003663921 0.014120534 0.00016345455

weight f4 [11]
00000000: 89c4 813f d04a 7f3f 20af 7e3f f07b 783f
00000010: d4c4 843f 1b6a 7d3f e6cc 743f bdf3 843f
00000020: c264 843f d99e 893f 9bd5 703f
1.0138103 0.9972353 0.9948597 0.97064114 1.0372567 0.9899003 0.9562515 1.0386883
1.0343249 1.0751601 0.94075936

bias f4 [11]
00000000: ff23 193d 4532 1239 5d0e 1abd b9b1 3a3c
00000010: 50ce 3cbc 0580 03bc ad11 eabb 4779 81bc
00000020: 480f 2e3c 1f2c c43b f12a f43b
0.037387844 0.00013942372 -0.037611354 0.011394911 -0.011523798 -0.008026128 -0.0071432204 -0.0158049
0.0106237605 0.005986705 0.007451408

in_proj_weight f4 [33, 11]
00000000: 16be 0f3e 6483 973e 8dee a8be ee2c c5bd
00000010: 174d b83e 6e57 a33d 7d25 09be e69e 9b3d
00000020: ca5b 44bd 8b5e 7d3e d4b7 7cbe 6963 b73e
00000030: 1867 3bbd 9bcf bc3d 95e0 7fbe e47c 8dbc
00000040: a8e3 2a3e 6e15 b53e 559d b23c 41c9 633e
00000050: c54f 253e c3b3 863c df9a 17be b8b0 813e
00000060: f335 b0be 1b52 3abe 9759 bf3e a6ab 843e
00000070: f920 833e 132b 713c fa38 83bd 7239 abbe
00000080: c526 33be 7015 04be b321 1abe ae24 b9bd
00000090: aa2c 7ebe b0a3 613e 8488 d73d 5edc 69be
000000a0: 7a11 843e b283 97be adeb 4e3e d40b 153d
000000b0: 874d 8dbe eb9f debd b50e 253d 3a91 b5be
000000c0: 5472 773e 1a39 b9be 9b57 913e 99bd 8dbd
000000d0: b0d8 963e fee6 b03e b963 64be 27cb b4be
000000e0: 4df5 823d be8e f3bc 7b6a b1be 2f1e 443e
000000f0: 4739 dcbd ddd8 44bd 2268 bbbe b582 90be
00000100: 8ed3 8cbe 6cf2 47be 450e de3c 27b6 03be
00000110: 0d11 893e 033f 8a3e d79d 5e3e d848 23be
00000120: 7fb8 ac3e 7a22 bc3e faa9 8d3d c3dc 4c3e
00000130: d99b a33e b7e4 65be 66c4 a5be 0b78 98be
00000140: fda6 b1be d31e 7c3d 708f 963e 0550 abbd
00000150: d75b 493e 869c 6bbe b902 6bbe d677 8b3e
00000160: 656f 6abe 435a b1be 9f18 1a3e 912e 26be
00000170: 5391 cb3d fd39 5c3e 5a7b a6bd 52dc 863e
00000180: 1356 1dbe 613c e23d c840 a8be 5f46 1d3e
00000190: 5b2b 903e 026d adbe 617d 133e 61f1 b13d
000001a0: 0df6 b93e a886 ccbd 5c51 9b3e 0e66 3abe
000001b0: 405c b1be 8d67 b43e 17e6 c33e f596 b63e
000001c0: 5f6b 433c 6006 133e eb7e 04be a0e3 6c3e
000001d0: 7bf8 29bd f9b8 d4be 8076 323d fc77 8e3e
000001e0: af84 0b3e 07e2 7abe 2bce 3a3e 6103 dbbc
000001f0: 3b50 923e d8c0 b93e 3bfa 6ebe 3d10 593e
00000200: 9483 54be 308b 5a3e 3fe8 ec3c a7bb aa3e
00000210: b3b9 753e e824 193e 96ba ec3d 2ca7 04bc
00000220: 4986 93be ceed afbe dfd2 dabd a50d 59be
00000230: fb0e 8e3c c00a abbe 6e9a 60be b151 cfbb
00000240: f942 823e 9f1e 833e 63a2 a4be 6aed 3d3d
00000250: c33f 943c 5605 51be 47e2 5a3d 5d16 463e
00000260: fd5f 69be 1d5e 7e3d 709d 8a3e f2a3 8d3e
00000270: ca84 bcbe 9466 8ebd b57e a4be ea64 8cbe
00000280: 468f bf3d 0ff5 15be 7225 1f3d c459 133e
00000290: c795 463e aa8e 833e 1edd cb3e b139 2e3e
000002a0: 015d ccbc f795 4abd 41e3 c33e 19ff 7f3e
000002b0: cb9c 833e 2d65 bd3e 2b2a abbe 978f 4dbe
000002c0: a5f0 893e 7039 513e 002d 72be c769 b43e
000002d0: 083c 28be 9428 5d3e ba2f 9d3e 87bf f43d
000002e0: a15d 903e 7669 543e 8f14 8dbe 8d74 b7be
000002f0: e507 643d 4818 173e ca77 5b3e 1bcb 52be
00000300: ff44 3fbe 51c7 c73e dfd6 833d 31b7 783e
00000310: 760f 713e 294c aabd 19fc 0abd 4f52 a3be
00000320: 6746 923d 5954 773e 519a be3e 0090 cab2
00000330: 9c69 113e e30f ef3d c59d f93d 5b6b aebe
00000340: 40e2 4ebc 806b 2dbe 72e1 4f3d a249 7abe
00000350: b551 a13e 7b60 24be 7038 643e a2bd 073e
00000360: c066 bcbd bb82 863e cbdc 203e 6564 16be
00000370: 487e d83e ee23 9f3e 9b4f cabe 0233 5e3d
00000380: 2640 c03e 635a bebe e6f0 7e3e d308 63be
00000390: 4c39 1c3d 243e 353d ad8e 6abe e6e5 da3e
000003a0: fa2b 4ebc 6e78 a03e 4130 5e3b 1127 57bc
000003b0: ec4f b8be c6c4 aebc 7003 b23e 2c3f ec3c
000003c0: aba2 af3c ee4e 0abe 276c afbe 693f e5bd
000003d0: cab7 7fbc ef1b 88be cfba 9cbe 0513 40bd
000003e0: cb03 993e e881 2bbd c1e4 9dbe a91b 663e
000003f0: 4a55 84be 039b 55bd c45b 2ebc 432d 86be
0.14037356 0.2959243 -0.329945 -0.0962771 0.35996315 0.0797566 -0.13393207 0.07598667
-0.0479391 0.24743097 -0.246795 0.3581803 -0.045752615 0.09219285 -0.24988015 -0.017271467
0.16688406 0.35367912 0.021803537 0.22244741 0.16143711 0.016443139 -0.14805172 0.25330138
-0.3441616 -0.18195383 0.3737304 0.25912207 0.25611094 0.014719742 -0.06407352 -0.33442265
-0.17495258 -0.12898803 -0.15051918 -0.09040199 -0.24821725 0.22035098 0.10524085 -0.2283797
0.25794584 -0.29592663 0.2020709 0.036388233 -0.2759821 -0.10870346 0.04029723 -0.35462362
0.24164706 -0.36176378 0.2838715 -0.069209285 0.29462194 0.34551233 -0.22303666 -0.35311243
0.06394444 -0.02973115 -0.3465155 0.19152139 -0.10753112 -0.04805838 -0.36602885 -0.28224722
-0.27505153 -0.1952607 0.027106414 -0.12862454 0.2677082 0.270012 0.21739899 -0.15945756
0.3373451 0.36745054 0.06917186 0.20006089 0.3195484 -0.22450529 -0.32376403 -0.29779086
-0.34697714 0.061552834 0.2940631 -0.08364872 0.1966394 -0.23008928 -0.22950257 0.27239865
-0.22894056 -0.34639177 0.15048455 -0.16228701 0.09939828 0.21506496 -0.08128996 0.26339966
-0.15364866 0.110466726 -0.32861924 0.15358876 0.28158078 -0.3387223 0.14403297 0.086886175
0.36320534 -0.09986621 0.3033551 -0.18202993 -0.34640694 0.35235253 0.38261482 0.35662046
0.011927455 0.143579 -0.1293904 0.23133707 -0.041496735 -0.41547373 0.04357004 0.27825916
0.13624834 -0.24500285 0.1824271 -0.02673501 0.28576836 0.3627994 -0.23337643 0.211976
-0.20753318 0.21342158 0.028919337 0.33346292 0.2399662 0.14955485 0.11559026 -0.0080964975
-0.2881339 -0.34361118 -0.10684752 -0.21196611 0.017341128 -0.3340664 -0.2193391 -0.006326877
0.2544172 0.256093 -0.3215514 0.046368994 0.01809681 -0.20412192 0.05343845 0.19344468
-0.22790523 0.062101472 0.2707324 0.27664143 -0.3682006 -0.06953159 -0.3212792 -0.2742074
0.09353499 -0.14644264 0.03885407 0.14389712 0.19393073 0.25694782 0.39817137 0.17014195
-0.024946691 -0.049459424 0.38259318 0.24999656 0.2570556 0.36991253 -0.3343061 -0.20074306
0.2694141 0.20432067 -0.23649979 0.35236952 -0.1642915 0.2159751 0.30700475 0.119505934
0.28196433 0.20743355 -0.27554747 -0.3583111 0.05567159 0.14755356 0.21432415 -0.20585291
-0.18678664 0.39019254 0.06437468 0.24288632 0.23541054 -0.08315308 -0.033931825 -0.31898734
0.071423344 0.2415327 0.3722711 -2.3581379e-08 0.14200443 0.11672952 0.12188295 -0.3406628
-0.012627184 -0.16935539 0.05075211 -0.24442151 0.3150765 -0.1605243 0.22287154 0.13255933
-0.091992855 0.26271614 0.15709226 -0.14686735 0.42283845 0.310821 -0.3951386 0.054247864
0.3754894 -0.37178335 0.24896583 -0.22171335 0.03814058 0.044248715 -0.22905989 0.42753524
-0.012583727 0.3134188 0.0033903273 -0.013131873 -0.35998476 -0.021334063 0.34768248 0.028838716
0.02143987 -0.13506672 -0.342622 -0.11193735 -0.015607784 -0.26583812 -0.30611274 -0.04689314
0.29885706 -0.041871935 -0.30838588 0.22471489 -0.2584632 -0.052149784 -0.010641996 -0.26206407

in_proj_bias f4 [33]
00000000: 29ec 5abc 0aca 913c bed0 a3bc d979 ae3b
00000010: 7916 5abb a54d 313c 601f e6bc 6900 ac3b
00000020: 706b f9bc e4a1 f2bb 6818 e23b e372 4bbb
00000030: 3146 f03a 4ad5 3d3b 3fc1 98ba 3c11 cbba
00000040: 8b0c 233a 40d6 ceb9 4c33 d73a 25d2 ae39
00000050: f747 8aba 7edb 553b 79c6 c83b 842f 253d
00000060: 97d3 bfbc d424 213c cb37 fc3b bb06 adba
00000070: ac52 bbbb 554e d6bc 6e00 f83c c70a 65bc
00000080: 7a8f 86bc
-0.013361969 0.017796535 -0.019996997 0.005324584 -0.0033277555 0.010821735 -0.028091133 0.0052490723
-0.030446738 -0.007404553 0.006899882 -0.003104382 0.0018331466 0.0028966242 -0.0011654272 -0.0015492807
0.00062198256 -0.0003945101 0.0016418486 0.00033344436 -0.0010550012 0.0032632048 0.0061271754 0.040328518
-0.023416324 0.009835441 0.0076970807 -0.0013200858 -0.0057166424 -0.026160398 0.030273642 -0.01397962
-0.016425837

weight f4 [11, 11]
00000000: 9fca c63d 9052 d73c dee6 433e 59ed 743d
00000010: 0ef2 f23d 2cf4 d3bd 5e53 0e3e 80e0 88be
00000020: 6942 07be d585 833e 5527 f53d cce2 ebbd
00000030: d50f 1cbd 39f9 6d3c fe50 50be 0b10 61be
00000040: 2fed 753c 459f 81be 5279 f33b 79a1 4f3e
00000050: 5e30 3c3e bf24 383c dc00 94be 77e5 f7bd
00000060: f8f3 6bbe cb52 41bd 18fb 18be 4599 5bbe
00000070: 1a41 12bd 9acd 38be 87bd e13b 00c1 4d3e
00000080: 13bb 853e b192 063e 9da7 453e 7066 36be
00000090: 4946 903d ab50 733e 1493 10be 0b26 0a3e
000000a0: a91d 903d b00a ce3d 88cc 683d f069 bbbe
000000b0: d2e9 e7bd 4e33 91be 9be6 613e f8f1 98be
000000c0: 1158 83be 0da2 843e 0fce 14be 21d4 983e
000000d0: 0ecb 6c3c 18cd 8f3e 0d29 bc3d 58b7 533e
000000e0: dc11 ce3d 106a 6b3d a997 46bd 456e 413e
000000f0: c7d3 c43d 96b2 8ebe 8b01 e5bc 0613 e73d
00000100: 0287 843e cb4f 9fbd 5f5c fbbd f432 743c
00000110: 16f4 52be 545e dfbd c225 b03d 88df 653e
00000120: a4ed 21be bb65 a5be 0bdd 783e 3fd4 6bbe
00000130: 1f3e bc3d 91a3 593e 88e0 34bd 3b94 47be
00000140: 8252 3bbe d630 8d3e 56c9 34be 77e6 5bbe
00000150: 5dfa 793e 0202 34bd b2fe 43be ee53 04bd
00000160: d11c 823e f8c5 67be 3b3a 953d b592 28be
00000170: 66d6 993e 1aa6 47be 24e9 953d ad5d 9a3d
00000180: 1285 75be e3f3 eb3d 88e3 15be ff20 e6bc
00000190: a79e 1c3e 4219 2c3e a46d 78be fd66 ecbd
000001a0: f192 803e 5c75 d1bd 3ee2 34be f3d0 eabd
000001b0: 64bb a23e fbe5 a83e 8798 0f3e fa2c 703e
000001c0: 1d38 62be 2b2e 71bd e869 8ebd 39ca bdbd
000001d0: 2ff3 b0bd 3c1a 0c3e 8935 69bd 410e 14be
000001e0: 6617 27be
0.09706616 0.026284486 0.19131038 0.059796665 0.118625745 -0.103493065 0.1389899 -0.2673378
-0.13208927 0.25688043 0.119703926 -0.115178674 -0.038101036 0.014524751 -0.20343396 -0.21978776
0.015010162 -0.25316826 0.007430234 0.2027644 0.18377826 0.01123923 -0.28906906 -0.12104314
-0.23042285 -0.0471981 -0.14939535 -0.21445186 -0.035706617 -0.18047181 0.0068890485 0.20093155
0.2611929 0.13141896 0.1930222 -0.17812514 0.07044656 0.23761241 -0.14118606 0.13491075
0.07036907 0.10060632 0.05683568 -0.3660426 -0.113238946 -0.28359455 0.22060625 -0.29872108
-0.25653127 0.25904885 -0.1453173 0.29849342 0.014452709 0.28086162 0.09187517 0.20675409
0.10062 0.057474196 -0.04848448 0.1888972 0.09610706 -0.27870625 -0.027954837 0.11282925
0.25884253 -0.07778891 -0.12273478 0.014904726 -0.20600924 -0.109066635 0.08600952 0.22448552
-0.15813309 -0.32304177 0.24303071 -0.23030184 0.09191536 0.21253802 -0.044159442 -0.19490139
-0.18293193 0.2757632 -0.17654929 -0.21474634 0.24411912 -0.043947227 -0.19140127 -0.032306604
0.2541261 -0.22634113 0.07286497 -0.16462214 0.30046386 -0.19496956 0.07319859 0.075373985
-0.23976544 0.11521127 -0.14637578 -0.028091906 0.15294896 0.1680651 -0.24260575 -0.11543081
0.25112107 -0.10227463 -0.1766443 -0.11465635 0.31783593 0.3298796 0.14023028 0.23454657
-0.22091718 -0.05888192 -0.06953794 -0.092670865 -0.086401336 0.13681883 -0.05693582 -0.14458562
-0.1631752

bias f4 [11]
00000000: 2e87 663b 23c2 193d 55b4 f0bb 8907 cb3c
00000010: 6e2c b5bc 2ba5 c83a 1f86 5e3d 27a0 abbb
00000020: 9e04 35bc b3cb d4bb ab01 4fbc
0.0035175788 0.03753866 -0.007345716 0.024783866 -0.022115912 0.0015308013 0.054327127 -0.0052375975
-0.011048464 -0.0064940094 -0.012634675

weight f4 [8, 11]
00000000: 2ed9 a73d 51b0 3bbe 9ad9 593e 3900 34be
00000010: fa47 c83c c8f2 0ebe a562 80bd e11c 15be
00000020: e484 6a3e 401d 9bbe 0fde 93bd 37e9 75be
00000030: dee3 2e3e 8ca2 39be 4264 d53b 7695 893d
00000040: d9ea 66be 9717 213e 973a 44be e3bc 5b3e
00000050: a9d2 973e a5dc 16be 1963 4fbe 99a3 84be
00000060: 26e4 a4bd b636 a43a 1300 04be 97ed 933e
00000070: 1498 85be 8290 903e 20bb 783e f941 4ebe
00000080: 6e0e aabd 25fc 1fbd 62ab b43d 2f9e 0f3e
00000090: af87 b93d 4e47 5abe e7f0 9cbe df53 f2bd
000000a0: 8a5e 82bd 5fba 4c3e eaae 87bd fd27 6ebe
000000b0: 3334 c4bd 4d87 8b3e cdd0 8e3d afd3 3f3e
000000c0: 19e4 1fbe 2724 1f3d a746 0a3e e572 753e
000000d0: 5950 323e b68a 36be 6989 783e 7e56 7bbe
000000e0: af4e 853e a61d 72be 3c73 463e 6880 09bd
000000f0: f981 6c3e 5bc5 993d 36c9 663e a4d2 c83b
00000100: 3b86 033e 9eaf 723e 8f1f 5a3e aca5 6abe
00000110: 50cb 89bd 6672 013e 6bb4 41bd 3b86 2f3e
00000120: 19dc 7d3e c9bf 003e a9a4 36be b8df 8dbe
00000130: c4a4 a0bd 9fd8 3cbe 4c47 6fbe 4a91 6abe
00000140: 9bc0 5e3e b774 24be 1117 5a3e b784 59be
00000150: 98d4 db38 22eb 183e c8d1 ae3d f6fb f6bd
0.081957206 -0.18328978 0.21274415 -0.1757821 0.024448384 -0.13959801 -0.06268815 -0.14561798
0.22902256 -0.30295753 -0.07220089 -0.24014746 0.17079112 -0.18128413 0.006512196 0.067179605
-0.22550525 0.15731655 -0.19162975 0.21458773 0.29652908 -0.14732607 -0.20252647 -0.25906065
-0.08051328 0.0012528512 -0.12890653 0.28892204 -0.2609259 0.2823525 0.24290133 -0.20142354
-0.083035335 -0.039058823 0.08821751 0.14025186 0.09059083 -0.21316263 -0.30652544 -0.118324034
-0.06365688 0.1999297 -0.06625159 -0.23257442 -0.09580269 0.27251664 0.06973419 0.18733095
-0.15614356 0.038852837 0.13503514 0.2396961 0.17413463 -0.17826352 0.24271168 -0.24544713
0.26036593 -0.23644122 0.19379896 -0.033569723 0.23096456 0.07508346 0.22537693 0.006128626
0.12844174 0.23699805 0.21301101 -0.22914761 -0.06728232 0.12641296 -0.0472912 0.17141049
0.24790992 0.1257316 -0.1783625 -0.27709746 -0.078439265 -0.1844201 -0.23367041 -0.22906986
0.2175316 -0.16060148 0.21297862 -0.21242033 0.000104823324 0.14933446 0.08536106 -0.120597765

bias f4 [8]
00000000: 413d 023e fee5 58be 3528 bcbd 9eb7 8f3e
00000010: 42ff 16be f8af db3c 0b89 90be 6380 1c3e
0.12718679 -0.21181485 -0.091873564 0.28069776 -0.1474581 0.026817307 -0.28229555 0.1528335

weight f4 [11, 8]
00000000: c21a a3be f9bd 11be 574a af3e 28c1 743e
00000010: 089f 64be 5493 9cbe 5208 3fbe f4cd a13e
00000020: 9881 383e 072d 6c3d c8b5 863a 8d28 41bd
00000030: abe7 92be c0b4 af3e 97a4 8cbe 627d 8cbd
00000040: e28e 503e d25b 273e 64fe 95bb eb0e 593e
00000050: ccf1 b53e 4f77 333e 51d4 a73e 891b 88be
00000060: 84e7 1bbc 6513 89be 731e 8bbe a2a7 443d
00000070: e526 d7bd 2570 a3bd afe1 ac3e 9a57 8fbe
00000080: 09b7 5ebd 36d5 ddbd dd2b 9e3c 48c4 c23c
00000090: 2d92 453e 93a5 783e ce72 1fbe 60a0 fb3d
000000a0: e300 87be 38de 103e 6c93 223e 0288 d3bd
000000b0: 0bf9 a0bd 6ad5 923e a6cd 3cbe d8ae e6bd
000000c0: 7cf2 583e 2bda a5be 3ac1 75be 8eee 503e
000000d0: 7471 f8bd 3f3d 963d 7a8e 2bbe 7b6d d0bd
000000e0: cfa3 1dbe e2ed 2f3d 4d07 9e3c 7c47 a43e
000000f0: 7d87 8b3e 510a c4bd d9bd 73bc 413a 633e
00000100: 9341 9abd 2ec2 e7bd 16be a9be 1664 41be
00000110: 1dfa 843e 5fc1 01be c04e b23d c1f6 823d
00000120: b1cf 88be 828b 85be 6292 9c3d ec4c 80bc
00000130: fe49 543e 9249 99bd e081 173e 388a e9bd
00000140: cc7f 79be 857a 16be cf2d 18be d0db 2abe
00000150: 8714 213e 1cfa 253e c14b 85bd aaf5 e0bd
-0.31856352 -0.14232625 0.34236404 0.23901808 -0.2232629 -0.30581152 -0.18655518 0.31602442
0.18018186 0.05766013 0.0010277564 -0.047157813 -0.28692374 0.3431759 -0.27469322 -0.068598524
0.20367005 0.1634362 -0.004577445 0.21197097 0.3553604 0.17525981 0.32779172 -0.26583508
-0.009515647 -0.2677261 -0.27171668 0.04801143 -0.105054654 -0.07980374 0.33765933 -0.27996522
-0.054373775 -0.108316824 0.019308025 0.023775235 0.19294043 0.24281912 -0.15571138 0.122864485
-0.26367864 0.1414727 0.1587655 -0.10328676 -0.07860001 0.28678447 -0.18437824 -0.112638175
0.2118625 -0.3239301 -0.23999491 0.20403501 -0.121310145 0.073359005 -0.16753569 -0.10177132
-0.1539452 0.042951472 0.01929059 0.32085788 0.27251807 -0.0957228 -0.014876806 0.22190191
-0.075320385 -0.11316334 -0.33152837 -0.18885836 0.2597207 -0.12671421 0.087064266 0.06394721
-0.26720956 -0.26083 0.07645108 -0.01566168 0.20731351 -0.074847355 0.14795637 -0.11403316
-0.24365157 -0.14695175 -0.14861225 -0.16685414 0.15730487 0.1620869 -0.065085895 -0.10984357

bias f4 [11]
00000000: 019f 5dbe 2d47 1b3d ae59 f23d 769a 81be
00000010: 1c8e 2abd 5f29 663d 4b1f 13be 52c6 213d
00000020: b41a 3e3e e75b dd3d ae49 403e
-0.21642686 0.037909675 0.11833511 -0.25313157 -0.041639432 0.0561918 -0.14367406 0.039495774
0.18564874 0.108085446 0.18778107

weight f4 [11]
00000000: 13aa 7f3f 15c5 7d3f aacc 7c3f f5a5 7c3f
00000010: e9b6 833f 50f6 763f 03dc 763f 8239 843f
00000020: 13eb 7f3f 7421 8a3f 36a0 713f
0.9986889 0.9912885 0.9874979 0.9869073 1.0290195 0.96469593 0.9642946 1.033005
0.9996807 1.0791459 0.9438509

bias f4 [11]
00000000: d8dc a03c ee58 9c3b ddde b1bc 4e2c 9f3c
00000010: 09bf 69bc ea4f 4d3c 368c 003d 2fee 283a
00000020: 99a1 063c 6c04 003c 8348 e93b
0.019636557 0.0047713434 -0.021712715 0.019430306 -0.014266738 0.01253126 0.031383716 0.00064441835
0.008217239 0.007813554 0.00711924

weight f4 [11]
00000000: d78f 7e3f abd1 803f 736b 7e3f 93d3 7a3f
00000010: c979 833f fb6f 783f 77f4 763f f747 833f
00000020: b565 823f 274d 8c3f 7054 743f
0.9943823 1.0063986 0.99382704 0.97979087 1.0271541 0.9704587 0.96466774 1.0256337
1.0187289 1.0961045 0.9544134

bias f4 [11]
00000000: 1deb d23c 3293 f1bb 8014 cdbc a7c0 7e3c
00000010: 16fa 88bc 21ac da3b 8ae4 0d3c fa7d c4b9
00000020: 0af4 423c 8349 8ebb f6b4 0fbc
0.025746876 -0.0073722834 -0.02503419 0.015548862 -0.016720813 0.0066733514 0.008660445 -0.00037477893
0.011899004 -0.0043422594 -0.008771172

in_proj_weight f4 [33, 11]
00000000: 3561 fc3d b7b5 8d3e 3666 abbe e595 adbd
00000010: 56ee b13e 974d 983d ffc0 01be 03a7 973d
00000020: 55ce 5cbd 85d9 8f3e 61fa 74be 6238 a33e
00000030: ae72 913a c179 133e 1c01 9abe d118 6c3b
00000040: 6b70 5f3e 9830 b33e 28b3 2cbc bd9f 583e
00000050: e706 343e 9d38 b83b 3eda 15be f201 413e
00000060: 3b51 b6be 4c35 2bbe 3820 a73e 6a59 963e
00000070: 2caf 683e b638 6c3d e611 0abd 5c63 92be
00000080: 8304 47be 7a87 fcbd ff6e dcbd cac0 e6bd
00000090: d5d2 5dbe 08b7 6f3e cf75 9c3d bdfd 8cbe
000000a0: f38b 5b3e bd97 86be d252 713e 1443 593c
000000b0: 15e7 b3be e188 dabd 1558 343d dceb 95be
000000c0: bf99 903e d667 a5be 3644 813e cd3d d0bd
000000d0: 0f02 a43e 56dc 9d3e 2c52 3dbe e4f8 b3be
000000e0: 3798 d43d 8929 b3bc 1730 b8be 5603 5f3e
000000f0: 9515 c6bd 6980 86bd 6425 b2be b8f2 9bbe
00000100: 306d a9be 8a26 72be 8629 843c 91cc 06be
00000110: cf2f 893e 4102 853e 5a6e 893e e8b5 cabd
00000120: d42d aa3e cb08 a03e ea19 033d 0690 713e
00000130: 77bb 9c3e d4af 53be 6d6d a2be 3e70 a6be
00000140: ef2d acbe 2fd8 383d c40a 8d3e 2d06 efbd
00000150: fb27 873e b839 8cbe bf18 69be 3330 a33e
00000160: 9a8c 61be 3d15 b2be 0621 ae3d cb4c c2bd
00000170: a2e5 ac3d 7950 4b3e 41a3 b6bd 364d 5d3e
00000180: 8172 40be 231b 273e 804d 83be ed50 ef3d
00000190: 1c89 953e ed53 b3be 108d 343e 0055 d03d
000001a0: 309a b83e 60ea 01be a662 853e aa2e 22be
000001b0: a01b a0be b3fd b23e 12c0 c43e f9ae a23e
000001c0: d725 a9bc 6507 333e 0c28 ccbd 677b 7e3e
000001d0: 1e1d 86bd a056 afbe a68d 3dbb f828 7a3e
000001e0: 5816 fd3d 1515 62be 4a8d 513e 5518 4dbd
000001f0: 39d4 8f3e 74e6 b33e b640 6abe b4cb 6a3e
00000200: 1d78 5dbe b7d2 3f3e b589 053d 975e a83e
00000210: 91d4 7c3e 8fd6 083e d52a e23d 713a 983a
00000220: b4fe 87be a9d3 b1be cb99 c8bd 12ab 76be
00000230: 6feb 3e3d 86cd b1be f8e1 81be 6690 da3c
00000240: 9e01 5a3e 13d1 5e3e 0ddc 9abe 155f fa3c
00000250: 69be b13c d0ac 37be ec32 ad3c 614b f63d
00000260: ccb5 62be 3432 ba3d 1f8f 783e fd1d 823e
00000270: 2628 b1be 7c7b e2bd 8479 a4be 26e5 96be
00000280: e3f9 a23d deff 12be d755 9a3d d37c 103e
00000290: 014e 443e 85c6 773e 5500 c03e dbd9 443e
000002a0: a366 dcbc 6696 31bd fb0d b33e 9505 8c3e
000002b0: 677d 893e 1e63 b43e de52 a7be bbb9 6ebe
000002c0: b056 a83e ae47 173e 533e 8ebe d504 af3e
000002d0: 218d 44be 258c 853e c1cb 9e3e 36bf ce3d
000002e0: 7360 b13e 5460 573e 24fb 7abe fa6c a7be
000002f0: 5b23 433d 48b6 173e ae36 433e 9c30 5cbe
00000300: a4ed 56be 615e d33e 5092 343d 2b67 683e
00000310: ddcf 803e a5f7 9dbc c1e7 a3bd 641b c5be
00000320: 404f e03d 19d8 9f3e 6642 a83e 296a 4abd
00000330: 9874 493e 39cf 063e e22d b03d 88b0 acbe
00000340: a34d a93d 2cd5 d4bd 6a2d 903d 3767 92be
00000350: 6245 793e f36e c6bd 48bd 513e 0f2f c83d
00000360: 9627 2ebe f359 963e 6355 5d3e 025f e5bd
00000370: 4b8b c93e 3d35 a33e 011c c4be 0ea6 413d
00000380: 1f85 c93e 2452 9abe 97ef 5f3e 6ffe 53be
00000390: 12c0 773c 14c4 173a 7a67 6ebe 3a00 bd3e
000003a0: b918 0e3d 2e8e 863e 6eff 633d a1e5 483d
000003b0: ae91 adbe 908f 8dbd 12d5 9b3e 6488 e5bc
000003c0: 28b4 69bc e66d a4bd 2ad8 bfbe 47ac dfbd
000003d0: 869b 4a3c 38b2 9abe 0550 99be 9b46 6abd
000003e0: 49b3 893e a72d 873b 8b5f acbe 1de0 693e
000003f0: cb6d 8cbe b540 09bd 3ca7 103c 431d 8abe
0.12323228 0.276777 -0.33476418 -0.08475856 0.34752148 0.07436674 -0.12671278 0.07404902
-0.05390771 0.28095642 -0.23923637 0.31878954 0.0011096799 0.14401914 -0.3007897 0.0036025534
0.21820228 0.34998012 -0.010540761 0.21154685 0.17580758 0.005621983 -0.14634034 0.18848398
-0.3560885 -0.1671955 0.32641768 0.29365093 0.22723073 0.05767127 -0.033708476 -0.2859143
-0.19435315 -0.123305276 -0.10763358 -0.1126724 -0.21662457 0.23409665 0.07639658 -0.27537337
0.21440105 -0.26287642 0.2356675 0.013260622 -0.3513724 -0.10670639 0.044029314 -0.2928151
0.282423 -0.32305783 0.25247353 -0.101680376 0.3203282 0.30832165 -0.18488377 -0.35150826
0.10380595 -0.021870391 -0.3597419 0.21778616 -0.09672085 -0.06567461 -0.34794152 -0.30458617
-0.33091116 -0.23647514 0.016133081 -0.13163973 0.26794288 0.25978282 0.26842004 -0.09897977
0.3323809 0.31256709 0.032007135 0.23590097 0.30611774 -0.20672542 -0.3172411 -0.3250751
-0.33628795 0.045128044 0.27547276 -0.116711 0.2639769 -0.27387786 -0.22763346 0.3187271
-0.22026291 -0.3478183 0.085023925 -0.09487303 0.084422365 0.19854917 -0.08917857 0.21611485
-0.1879368 0.16318946 -0.25645065 0.11685357 0.2920617 -0.35024968 0.17631936 0.101724625
0.36055136 -0.12687063 0.26051825 -0.15838113 -0.31271076 0.34959182 0.38427788 0.3177412
-0.020647926 0.1748329 -0.09968576 0.24851762 -0.065485224 -0.34245777 -0.002892354 0.24429691
0.12357777 -0.22078355 0.20464054 -0.050072033 0.280916 0.3513676 -0.22876248 0.22929269
-0.21627851 0.18732725 0.03260203 0.32884666 0.24690463 0.13363098 0.11043326 0.0011614097
-0.2656151 -0.34731796 -0.09794959 -0.24088696 0.046611246 -0.34727114 -0.25367713 0.026680183
0.2128968 0.21759443 -0.3024601 0.030562917 0.02169724 -0.17937016 0.021142446 0.12026096
-0.22139663 0.09091607 0.24273346 0.25413504 -0.34600943 -0.11058709 -0.3212396 -0.294717
0.07957818 -0.14355418 0.07535904 0.14110117 0.19170381 0.24196823 0.37500253 0.1922373
-0.02690441 -0.04335632 0.34971604 0.2734801 0.26853487 0.3523187 -0.3268041 -0.23313038
0.32878637 0.14773437 -0.27781925 0.34183374 -0.19194461 0.26083484 0.31014827 0.10095064
0.34643897 0.2103284 -0.24509865 -0.3270033 0.04764114 0.14815629 0.19063827 -0.21502918
-0.2098909 0.41282943 0.044084847 0.22695605 0.25158587 -0.019283125 -0.08003188 -0.3849746
0.10952616 0.31219557 0.32863158 -0.04941765 0.19673383 0.13164987 0.086025015 -0.33728433
0.08266761 -0.10392222 0.07039912 -0.28594372 0.24342874 -0.09689131 0.20482361 0.09774601
-0.17007288 0.293655 0.21614604 -0.11199762 0.39364085 0.31876555 -0.38302615 0.047277503
0.39359376 -0.30140793 0.2186874 -0.20702527 0.015121477 0.0005789411 -0.2328166 0.36914235
0.034691546 0.2628035 0.05566352 0.049047116 -0.33900207 -0.06912148 0.30435997 -0.028019138
-0.014264144 -0.08028774 -0.37469608 -0.10921531 0.012366181 -0.30214095 -0.29943863 -0.05719624
0.26894596 0.004125315 -0.33666644 0.22839399 -0.27427515 -0.033508975 0.008828934 -0.2697545

in_proj_bias f4 [33]
00000000: 99b3 52bd 649d dc3c 34c2 8dbb 8962 103c
00000010: 2897 ae3b d08b db3c 0ab0 a7bb d2c0 c2bb
00000020: cfef 55bd 0568 8fbc 4a29 bd3c 8d46 633b
00000030: b111 87ba ccf5 c6b9 6e38 9239 d26d f4b9
00000040: 6678 8fba 317e 003a d958 a5ba 5e49 3eba
00000050: db4a 3ab9 0390 4e3a 2c58 213d f3ad 083d
00000060: 3f1d 56bc 238b 5d3c 8b4e 2f3d 5469 d0bb
00000070: 6251 1bbb 2650 95bc c321 9d3a c1d1 25bc
00000080: c906 b7bc
-0.05144081 0.026930518 -0.0043261293 0.008812555 0.005328078 0.026800066 -0.005117421 -0.005943396
-0.052230652 -0.017505655 0.023090977 0.0034679503 -0.0010304955 -0.00037948636 0.00027889333 -0.0004662113
-0.0010945916 0.00049016165 -0.001261498 -0.00072588574 -0.00017766228 0.0007879736 0.039390728 0.033369016
-0.013068496 0.013521942 0.042799514 -0.0063602123 -0.002369963 -0.018226694 0.0011988211 -0.01012081
-0.022342103

weight f4 [11, 11]
00000000: c369 093e 981e 673c 97c4 283e 05ca ac3d
00000010: 835f ab3d 9dfb c3bd cb6e 003e c1cf 49be
00000020: 802f 23be a9c6 793e 94f4 a83d 5e0b 3fbe
00000030: 2d04 20bc 0b98 25bd 28c1 7abe cf75 25be
00000040: d3c7 7c3b 9730 76be f701 2dbd 9fed 683e
00000050: 2644 343e 1e9e e93c 975b a1be ebc8 b9bd
00000060: f17e 7dbe 82f6 4cbd 0aac 0fbe 4db6 63be
00000070: 678c dcbc 3573 51be 2554 583c 071d 1f3e
00000080: a6a5 723e 5232 0e3e dc79 4e3e 23df 30be
00000090: 930c 3c3d fca4 7d3e 845f 06be 7e4a 2a3e
000000a0: 66f8 ab3d 47af d63d c9c5 933d 4fe9 a0be
000000b0: 00a5 09be 8bbb 90be 6b5c 573e f96d 8ebe
000000c0: bd6c 83be a7ad 893e cbe0 10be af48 8d3e
000000d0: adea 8c3c 1008 8a3e e3b8 653d 3cbc 4f3e
000000e0: eabc 8f3d c74d e33d 9a5f 34bd a539 1c3e
000000f0: f728 3d3e d961 86be d483 9dbc a64d 343e
00000100: 0f48 9d3e b94b 3cbd 4806 94bd 6e68 ca3b
00000110: dc26 46be 1e7f e1bd 7514 aa3d 5b2c 5b3e
00000120: 260a 32be aa69 91be f8c6 6b3e f721 81be
00000130: bb3d ff3d f5c2 863e 8226 b1bd 97f7 25be
00000140: a353 11be b228 8e3e da2b 09be a874 7abe
00000150: 1eff 5b3e 547c 68bd a96a 56be 853b babc
00000160: f831 863e 27ab 6dbe 7747 c33d 1dd3 1bbe
00000170: dce6 913e e48e 4abe 0f06 7f3d d8a4 963d
00000180: 82c0 8abe c117 0c3e 818a 1ebe c833 a1bc
00000190: 88bd ff3d fddd 1c3e d46f 60be 0567 e5bd
000001a0: df50 583e 5f9b 11be 0c33 3abe 3bd4 ecbd
000001b0: 80d0 853e e568 aa3e 1544 013e d01f 613e
000001c0: 2b23 5bbe 609d 8cbd f16c 78bd 08fd f8bd
000001d0: bc85 8abd 79b3 c73d 4085 11bd 8943 02be
000001e0: 8907 46be
0.13419251 0.014106415 0.16481243 0.0843697 0.08367827 -0.09569476 0.12542264 -0.19708158
-0.15936089 0.24392189 0.082497746 -0.1865668 -0.009766621 -0.040428203 -0.24487746 -0.16158222
0.0038571253 -0.24041973 -0.042238202 0.22746895 0.17604122 0.028517779 -0.3151519 -0.09071525
-0.24755456 -0.050039776 -0.14030471 -0.22237511 -0.026922418 -0.20454104 0.013203655 0.15538417
0.23696002 0.13886383 0.20163673 -0.1727262 0.04591043 0.24769968 -0.13122374 0.16629979
0.083969876 0.1048265 0.07215459 -0.31428 -0.13441849 -0.28268084 0.21031348 -0.27818277
-0.25668898 0.268903 -0.14148252 0.27594516 0.017201746 0.26959276 0.056084525 0.2028665
0.070184544 0.11098819 -0.044036485 0.15256365 0.18472658 -0.26246527 -0.0192279 0.17607746
0.3071904 -0.045970652 -0.072277606 0.006177 -0.19350761 -0.11010574 0.08304683 0.21403639
-0.17386684 -0.28400928 0.2302512 -0.25221226 0.12462946 0.26320615 -0.08649923 -0.1620773
-0.14192061 0.27765423 -0.13395634 -0.24458563 0.21484038 -0.056759194 -0.20939125 -0.02273346
0.26209998 -0.2320982 0.09535115 -0.15217252 0.28496444 -0.19781071 0.062261637 0.0735566
-0.27099997 0.13680936 -0.15482523 -0.019678012 0.12487322 0.15319057 -0.21917659 -0.1120129
0.211246 -0.14219426 -0.18183535 -0.11563917 0.26135635 0.33283153 0.12623627 0.21984792
-0.21400134 -0.068659544 -0.06065077 -0.12157637 -0.06763789 0.097510286 -0.035527468 -0.12721075
-0.19338812

bias f4 [11]
00000000: 8fe8 b23c e8a6 e7bc 70bb d1bb ad39 653c
00000010: db13 9abc 7a41 0b3d bee4 003d feb5 283d
00000020: 5a1b 5a3c 0642 2ebc bd8e 1d3c
0.021839408 -0.02827783 -0.006400518 0.013990802 -0.018808296 0.03399799 0.031468146 0.041189186
0.013312185 -0.010635858 0.009616551
