PonziShield_tr_v5_gpu.pth (torch, 408246 bytes, 110 tensors)

weight f4 [108, 11]
000000 ed 64 2c 3f 7b a4 33 be 23 eb 95 3f 43 78 8d 3e
       0.673415 -0.17543213 1.1712383 0.27630815
000010 13 2d ae bf 2f 11 8d 3d dd d6 41 c0 df 9b ca be
       -1.3607506 0.06888043 -3.0287392 -0.39572045
000020 e8 b5 c1 be 56 16 3e 3f c5 6c 74 3f 70 d3 47 3f
       -0.37834096 0.7425283 0.9547847 0.78057003
000030 dd 92 e0 3e 5a 40 ae 3f 52 ad 5b 3e 30 98 96 3f
       0.43862048 1.3613389 0.21452835 1.1765194
000040 49 31 f8 bf de 82 b9 bf 2e 1b 47 bf 3c 06 70 3f
       -1.9390041 -1.4493062 -0.7777585 0.9375951
000050 af 06 c3 bf 1e 51 f4 3e 85 31 e6 3d 37 39 99 bf
       -1.5236415 0.47718138 0.11239914 -1.1970586
000060 6c c2 36 3f 42 fc 82 3f 9a c6 3b 40 5a 80 27 be
       0.71390414 1.0233233 2.9339967 -0.16357556
000070 ed c3 9b 3f 98 1e 15 3f e9 5c a5 be 9e 86 9e 3f
       1.2169167 0.5824981 -0.32297447 1.2384832
000080 0a c3 15 bf 07 81 43 3e 58 bf 79 be 01 95 88 3f
       -0.5850073 0.19092189 -0.24389398 1.0670472
000090 78 3f ca be 33 67 c6 bf a0 23 a9 bf ad 7f 3f 3f
       -0.39501548 -1.5500244 -1.3213997 0.7480419
0000a0 1c c4 8a 3f e5 9d 11 40 7f c3 00 be 96 8d af bf
       1.0841098 2.275262 -0.12574576 -1.3715084
0000b0 df 58 42 3f 61 90 0a c0 75 11 a7 bf 9f 28 7c 3e
       0.75916857 -2.1650622 -1.3052202 0.2462487
0000c0 74 f3 bc be 93 36 19 40 f2 c0 df 3e 17 f1 d9 3c
       -0.3690449 2.393956 0.43701893 0.026604218
0000d0 80 fa eb bf 14 87 08 3f 6f e6 17 3e b9 78 3b bf
       -1.8435822 0.5333111 0.14833997 -0.73231083
0000e0 95 34 10 3f d7 66 1e 3e dc b6 9d 3f 3a 6f d1 bf
       0.56330234 0.15468918 1.2321429 -1.6362069
0000f0 59 43 10 bf 18 0b 14 3f 49 eb 5f 3f c0 54 b5 be
       -0.56352764 0.5782943 0.8746839 -0.35416222
000100 4a 6f 67 3f 7f 1c cf bf be 98 07 40 44 61 ae 3e
       0.9040419 -1.6180571 2.1186976 0.34058583
000110 23 a7 b8 bf c0 20 27 40 34 d5 58 be a1 95 96 3f
       -1.4426006 2.611374 -0.2117508 1.1764413
000120 7d 93 87 bf 30 b6 b2 3e b5 dc 84 be b6 ba 6e bf
       -1.0591885 0.34904623 -0.25949636 -0.9325365
000130 e0 94 8d bf 7d 0d 30 bf a0 d5 ab be 93 a3 da bf
       -1.1061058 -0.6877058 -0.3356142 -1.7081169
000140 db 62 a7 3d f5 71 c0 bf f3 fe 81 be 3c d6 0b 40
       0.08173152 -1.5034777 -0.25389823 2.1849508
000150 b0 9a e7 3f d2 cb b0 3f c3 1c 41 3d 26 1f 33 be
       1.8094082 1.3812201 0.04714657 -0.17492351
000160 75 11 87 3f ee 4a ed be 3b b5 16 3f 4b af 2a bf
       1.0552202 -0.4634623 0.58870286 -0.66673726
000170 8a 11 0b be 8f 06 82 bd 84 15 b5 bf 2e a0 e2 be
       -0.1358091 -0.06348907 -1.4147191 -0.44262832
000180 bf b9 83 be 07 ed 77 3f 12 76 e4 3f 5b c9 0a bf
       -0.2572765 0.9684605 1.7848532 -0.54213494
000190 bd ef b3 3d 91 ba 86 3f 8a 6c 50 bf 69 b3 a4 be
       0.08785961 1.0525686 -0.8141562 -0.3216813
0001a0 86 03 0b bf cf eb 85 be 17 7f 52 3f 8a 3e 8a bf
       -0.5430225 -0.2615647 0.82225174 -1.0800335
0001b0 5a 8c db 3e bf ae f6 bf 4b 95 0d 3b e1 71 b2 3f
       0.42880517 -1.9272078 0.0021603878 1.3941003
0001c0 cc db f6 bc 41 1f 57 bf a1 74 6c be b0 f0 38 bf
       -0.030134104 -0.84032065 -0.23091365 -0.7224226
0001d0 d1 72 f4 be 20 83 75 3d d2 42 3e bf 8a 09 9b 3f
       -0.47743848 0.059939504 -0.7432071 1.2112286
0001e0 a9 52 4f bf d2 0b dd 3e ea ee 58 bf 60 8f 0a c0
       -0.80985504 0.4317308 -0.84739554 -2.165001
0001f0 59 dc 85 bf b5 90 c1 bf ea 0e 64 bf 98 80 f0 3e
       -1.045787 -1.5122286 -0.8908526 0.4697311
000200 e4 03 c4 bd 77 51 d3 bc 2d ea 86 3f 3f b2 0d bf
       -0.095710546 -0.025795681 1.0540215 -0.55350107
000210 55 eb a1 be 00 3f a9 3f 78 72 17 bf 82 d6 e6 3e
       -0.31624857 1.3222351 -0.5915904 0.4508553
000220 e9 b1 d6 bd 02 76 94 3e 2b 0a 38 3f 57 e0 57 3f
       -0.104831524 0.28996283 0.71890515 0.8432669
000230 38 35 a9 3f 21 b2 86 3e 90 5d 10 3f 56 de 9f 3f
       1.3219366 0.26307777 0.56392765 1.2489727
000240 fd 4f cb bc 24 58 d7 be 69 3d 12 bf 40 7a 37 bd
       -0.024818415 -0.42059433 -0.57124954 -0.04479432
000250 2b ca 01 3f e9 f8 82 3f 5c 89 92 3f 62 84 ee 3f
       0.5069911 1.0232211 1.1448169 1.863415
000260 71 23 b1 be 2f 4f 2d bf 7f 44 24 be b9 32 fe 3d
       -0.34597352 -0.6769895 -0.16041754 0.12412018
000270 d9 38 81 bf 92 77 ae be ac d5 eb be 67 20 9b be
       -1.0095474 -0.340756 -0.46061456 -0.3029816
000280 4a 5c b0 3e c8 19 81 3d a6 dd 61 3e 59 39 c7 bf
       0.3444541 0.063037455 0.22057208 -1.5564376
000290 b0 2a e0 be 14 05 ad bf 59 0c 45 3f 7a 89 b2 bf
       -0.43782568 -1.3517175 0.76971966 -1.3948205
0002a0 fb 4d ff 3e a8 13 1f 3e 93 40 3e bf 16 1c a5 3f
       0.49864182 0.15534842 -0.7431728 1.2899196
0002b0 6d ec 3b bf 34 69 e8 bf 17 38 8e 3e 23 ec 79 be
       -0.7340763 -1.8157105 0.27777168 -0.24406485
0002c0 1b 72 17 be 31 11 b4 3f 8b 1c 6f 3f 60 57 ee 3f
       -0.14789622 1.4067746 0.9340293 1.8620415
0002d0 77 b3 bd bf a2 b9 d7 3f 1e 33 1d be 9a fa e2 3d
       -1.4820393 1.6853526 -0.15351531 0.11082955
0002e0 bb 1f 6b bf 1c 37 be bd ea 12 f1 be 1e c9 ea 3e
       -0.9184529 -0.09287855 -0.47084743 0.45856565
0002f0 27 73 9a be bf 70 b8 be 68 b3 81 3f b1 71 3f bf
       -0.3016598 -0.36023518 1.0132875 -0.74782854
000300 ee 01 ee be 4f 36 79 bc 55 a5 7a 3e 59 7c 88 be
       -0.46485847 -0.015210702 0.24477132 -0.2665737
000310 61 35 50 bf 83 65 68 bf 65 df 0a 40 e9 7c bf bd
       -0.8133145 -0.90779895 2.169885 -0.093499966
000320 3a 10 2a bf e5 b8 cc be 11 eb 33 40 c6 66 f3 bb
       -0.6643101 -0.39984813 2.8112223 -0.007428023
000330 61 a4 c6 bd d3 aa 18 be 1e 96 7f be 21 50 6b 3e
       -0.096993215 -0.14908914 -0.24959609 0.22979786
000340 36 1f 1f bd bf d6 44 3f cf d0 b6 bf 0c 53 c3 bd
       -0.038848124 0.76890177 -1.4282473 -0.09537324
000350 4a 97 f8 3f 13 4c a9 bf 8c 75 4e bf 0e 38 43 bf
       1.942117 -1.3226341 -0.8064811 -0.7625741
000360 ed 74 40 3f 62 37 a8 bd 57 06 bb bf b7 34 3f 3f
       0.75178415 -0.082136884 -1.461131 0.7468981
000370 4b 99 8d 3e 69 db be 3f 65 c1 fe 3e 7b c0 d5 3f
       0.27656016 1.4910709 0.49756923 1.6699365
000380 4b df 38 bf 33 27 fd 3e 77 5f b9 bf 8a f8 67 3f
       -0.7221572 0.4944397 -1.4482259 0.90613616
000390 7b d5 d8 3f 54 33 90 3f d8 bb d9 3d 06 a4 24 3d
       1.6940149 1.1265664 0.106315315 0.040195487
0003a0 a7 1b 70 3f f1 08 53 bf c7 0e 62 bf 06 4c 3d bf
       0.93792194 -0.8243552 -0.883038 -0.7394413
0003b0 8d a3 01 bf 7d a5 03 3f be 74 a7 bf e9 3d cf be
       -0.50640184 0.5142439 -1.3082502 -0.4047692
0003c0 8f 83 29 be 27 50 88 bf 5a 85 fe 3d 09 62 14 bd
       -0.16554092 -1.064946 0.124277785 -0.036226306
0003d0 80 2b 0a c0 80 cf 26 3e 7b 51 46 3f 51 d4 41 3f
       -2.158905 0.16290092 0.7746808 0.75714594
0003e0 e1 9b f0 be a1 61 9b be 3a 14 35 bf dc 61 a2 3e
       -0.46993926 -0.30347922 -0.7073399 0.31715286
0003f0 bf 6f 33 3f ed 86 8a bf 82 fd 17 3e 25 e2 ef bd
       0.70092386 -1.0822426 0.148428 -0.117130555

in_proj_weight f4 [33, 11]
000000 23 8c 8f be 20 52 10 be 39 e4 8b 3e e1 88 32 be
       -0.28036603 -0.14093828 0.27322558 -0.17435028
000010 70 d0 27 bd 70 24 9a be ee 98 9d 3e 92 60 21 be
       -0.040970266 -0.30105925 0.3078074 -0.15759495
000020 79 d9 a6 3d d0 ff 73 be 4a 6c 75 3d 28 f3 18 3c
       0.08146948 -0.23828053 0.059917726 0.009335317
000030 2d 1f 55 bd 51 03 eb be 6f e2 a1 bd 9e 6b d2 bd
       -0.052031685 -0.45900968 -0.07904517 -0.102744326
000040 74 56 cd be 3c ef 8f 3e 4b 9c ee 3d 56 af 21 3e
       -0.4010502 0.2811221 0.11650904 0.15789542
000050 bc 9d 80 3e 7d a3 45 3e 92 f9 ce bd 66 42 70 bc
       0.25120342 0.19300647 -0.101061955 -0.014664268
000060 4c 23 6a 3e bc 76 ad 3e ac 48 90 bd f8 4d 77 3e
       0.22865027 0.3387965 -0.07045111 0.24150836
000070 45 a4 85 3e 8d 21 0f 3e d4 33 85 3e 31 35 84 3e
       0.2610189 0.13977642 0.26016104 0.25821832
000080 11 4d 33 bd 1b cc 83 3e 50 cc 1c 3d af 04 35 3d
       -0.043774668 0.25741658 0.038280785 0.04419392
000090 15 5b e0 bd 11 75 e1 3e 29 0c 2b be d9 42 a9 3d
       -0.109548725 0.44034627 -0.16703857 0.08264703
0000a0 6d 67 ae bd 6b ee 86 3e 0b 73 d6 3d 9d dd 80 3e
       -0.08515821 0.26353773 0.104711615 0.25169078
0000b0 4b 4c e5 bc 8d ba 84 3c 24 2b 0b be 8d 44 56 bd
       -0.02799048 0.016202236 -0.13590676 -0.05231147
0000c0 f1 e3 54 3e 6a a4 09 be 9d 31 95 bd 2f 9c 52 3e
       0.20790078 -0.13441625 -0.072848536 0.20567392
0000d0 52 09 b1 3e 7c d3 eb bd 1c 65 aa 3d bd 67 0a 3f
       0.34577423 -0.11514947 0.08320066 0.5406454
0000e0 d0 e2 a0 be 28 52 ae be 72 73 fc 3e 3a 3c a2 3e
       -0.31423044 -0.34047055 0.49306828 0.31686574
0000f0 7f c0 c5 3e c9 d0 12 be ef 57 7c 3e 43 b7 0b 3f
       0.38623425 -0.14337458 0.24642919 0.5457651
000100 41 d3 c3 bd a1 c3 bd 3d df f7 30 bd a0 ad fb bd
       -0.09561778 0.09265829 -0.04320514 -0.12288976
000110 fe 14 ad 3c 57 bf 0a be d9 39 92 3e e6 e0 a2 3e
       0.021128174 -0.13549553 0.2855976 0.3181221
000120 3e 28 77 be b4 b8 d4 3d 4f 46 8b be 6e d0 14 be
       -0.24136445 0.10386792 -0.2720208 -0.14532635
000130 7f 55 38 3d 26 6f 8a 3e 61 1f e5 be e3 7d ff be
       0.04500341 0.27037925 -0.44750503 -0.4990073
000140 50 5c 0c be 9d 87 45 3d 02 b0 5e 3d f1 e8 b8 3c
       -0.1370709 0.048225034 0.054367073 0.022572013
000150 af 89 d7 3e 70 88 92 be b8 da d4 3e 7c a5 dd 3d
       0.42097232 -0.2861972 0.4157312 0.10822579
000160 eb 0d 12 be 28 5e b4 bc 02 89 e2 3d 60 c4 8f be
       -0.14263122 -0.022017553 0.110612884 -0.2807951
000170 67 5e b5 3e 19 d8 a4 3e 80 08 46 bd 81 f5 13 bd
       0.35423586 0.3219612 -0.04834795 -0.036122803
000180 1f d5 bc be bb 39 c3 be de dd f6 3d 07 1e b8 3e
       -0.36881348 -0.38129982 0.120540366 0.3596041
000190 0b 2a 3c bd 2a 78 78 3d 13 2e 0b be d0 85 c4 be
       -0.045938533 0.060661472 -0.13591795 -0.3838334
0001a0 f6 56 8a 3d 16 e2 87 3e 62 83 97 be e4 ce 0d 3d
       0.06754868 0.26539677 -0.29592425 0.034621134
0001b0 9b 3d 9f 3e 83 aa 35 3c f5 a8 03 3e 22 4b ab be
       0.3110169 0.011088016 0.1285742 -0.3345576
0001c0 17 ed 96 be 54 04 9f 3e 31 62 03 be 27 62 19 3d
       -0.2947776 0.3105799 -0.12830426 0.03744712
0001d0 4a 3c 71 3e b2 0c 6d be 65 a6 ba 3e ba 95 95 3e
       0.23558155 -0.23149374 0.36455074 0.29215795
0001e0 2b 05 59 3e ff 1e 57 3d ae 19 78 3e fd 0e 4d be
       0.21193378 0.052519795 0.24228546 -0.20025249
0001f0 9c e8 3c 3d 17 da cc bd 87 c7 78 3e 4c c7 b7 bd
       0.04612027 -0.10002535 0.24294864 -0.0897356
000200 59 0b 56 3e 8c aa 0d bf 82 67 69 3e 67 8c da be
       0.20902766 -0.5533836 0.22793391 -0.42685243
000210 ea 25 97 3d c9 e5 90 3d f6 be 46 be 6c ad 5a be
       0.073802784 0.07075078 -0.19408783 -0.21355218
000220 2d 67 96 be 75 8d 31 be 1d 09 be be b6 c9 90 be
       -0.29375592 -0.17339118 -0.37116328 -0.28278893
000230 12 97 54 3d 1a 72 1e be 05 07 ff be 94 5e a6 3e
       0.051901884 -0.15473214 -0.49810043 0.32494032
000240 09 74 92 be 20 49 2f 3c 36 d2 88 bc 72 b1 8f 3e
       -0.28604153 0.010698587 -0.016701799 0.28065068
000250 cd 4b 30 bd 62 bd fd bd 88 67 74 3d c9 47 41 3d
       -0.04304104 -0.123896375 0.059669048 0.0471876
000260 64 46 c7 3e a0 4d 39 be ed 0e bc bd 2d ad aa 3c
       0.3892089 -0.18096018 -0.09182534 0.02083453
000270 e6 8f d8 3e 2e a4 85 3d f4 39 b2 3e 44 88 19 3e
       0.42297286 0.065254554 0.3480984 0.14993387
000280 32 43 b7 3e 82 5f 03 3f 03 22 e7 be d0 f9 d7 3c
       0.35793453 0.5131761 -0.45143136 0.026364237
000290 ff ad c5 bc d5 c9 ef bd d6 76 31 3e 46 72 fe 3e
       -0.02413082 -0.11708418 0.17330489 0.4969656
0002a0 97 62 2d bd fc 41 88 3d ea 7b 37 be 49 07 81 be
       -0.04233035 0.066532105 -0.17918363 -0.2520087
0002b0 d8 ba dc 3c a0 06 05 3e 52 d8 a5 3e a2 97 08 3d
       0.026944563 0.12990808 0.32391602 0.033347733
0002c0 62 8c 4b bd 3a 0e 8d 3d 8a 61 f8 be 31 e4 36 be
       -0.049694426 0.06887479 -0.48511916 -0.17860486
0002d0 78 58 9a be 3d d7 8d bc 82 c1 f6 3e dc 19 c8 3e
       -0.3014562 -0.017314548 0.4819451 0.3908223
0002e0 bd bc 0f 3f 63 1e 95 be 08 53 a8 be 7e 0a c1 3d
       0.56147367 -0.29124746 -0.32875848 0.09425829
0002f0 05 26 06 3d 86 cb e6 3c 87 35 95 be c4 1a 15 be
       0.032751102 0.02817322 -0.291424 -0.14560992
000300 e8 a4 73 3e 21 16 66 3e bb e0 54 be 95 0f 0d be
       0.23793375 0.22469379 -0.20788853 -0.13775475
000310 2e ef ce bc 6e 81 c7 bd 6b 59 14 bd 53 86 5d 3e
       -0.025260534 -0.09741484 -0.036218088 0.21633272
000320 f5 f0 79 3c f3 1e d5 3e 1d 50 84 3e c0 e5 57 3d
       0.015255203 0.41625175 0.25842372 0.05270934
000330 06 7c 26 3e 69 58 a0 3e 9f 41 82 be a6 2c 7a bd
       0.16258249 0.31317452 -0.2544069 -0.061077736
000340 e6 e3 27 be 91 2c a2 be 90 83 c4 3e 94 f3 9c be
       -0.1639553 -0.31674626 0.38381624 -0.30654585
000350 dc 17 a2 be 6f 00 18 be 09 ec 24 bc 1c 2c ab be
       -0.31658828 -0.14843915 -0.010066041 -0.3343209
000360 78 6e 19 3e 7c a4 8c 3e c8 45 85 be 2d 0f 14 bd
       0.14983547 0.27469242 -0.260298 -0.036147285
000370 d5 1f 45 3d cd 00 11 be 26 d3 83 bd 3a 2d 17 3d
       0.04812606 -0.14160462 -0.06436758 0.036908366
000380 53 70 9b 3e fc 3e 37 be a8 2c 17 be 4d 59 47 3c
       0.30359134 -0.1789512 -0.14763129 0.012167287
000390 7c 7d 1b 3d 17 2b d1 3d d1 96 cf 3e 58 5d b0 bd
       0.037961468 0.10213297 0.4054475 -0.08611554
0003a0 3b 74 c0 3e 6e c9 52 be 62 a4 03 3f 19 ee 30 3e
       0.37588677 -0.20584652 0.51422703 0.17278327
0003b0 4c 2a bf bd e0 5d eb bd 7b 7e 7f 3e c2 ca 1b 3d
       -0.09334239 -0.114925146 0.24950592 0.03803516
0003c0 34 44 39 be 4f 49 bc bc 67 4c 04 3e 38 ae b6 be
       -0.18092424 -0.022984175 0.1291977 -0.35679793
0003d0 3c 06 1e 3e 2f 64 d9 3d 28 3d da 3d 03 67 01 3f
       0.15432066 0.10614812 0.10656196 0.5054781
0003e0 89 9c ce bd 96 ce 3d be e0 59 9c be 05 78 9d 3e
       -0.100884505 -0.18535838 -0.3053732 0.3075563
0003f0 da bd bd bc bf f3 c3 bd 39 ee 76 3e 14 0c 52 3e
       -0.023161817 -0.09567975 0.24114312 0.2051242

in_proj_bias f4 [33]
000000 90 ee 3e be 03 d4 a9 bc 8f 5e ce bc e8 93 81 bb
       -0.18645692 -0.020730978 -0.025191573 -0.0039543994
000010 5d 02 6d bd 1b b8 15 be df 61 31 ba e1 a8 e4 3d
       -0.057863582 -0.14621012 -0.0006766598 0.111650236
000020 89 16 c7 bd 10 a5 37 bd 4b a8 c4 3d 3f 54 0c 3c
       -0.09721095 -0.04483515 0.09602412 0.008565008
000030 d7 25 d7 ba fb 1c 45 3b eb 81 6c bc b9 69 f4 bb
       -0.0016414475 0.0030077088 -0.014435272 -0.007458892
000040 b9 46 71 bc d3 27 30 3b ab b6 4b 3c eb d1 0b bc
       -0.014726334 0.0026879206 0.012433688 -0.008533935
000050 9b b8 0e bc b3 cd be 3c 57 e6 12 3d 7c 8e 11 bd
       -0.008711006 0.023291444 0.0358642 -0.035536274
000060 eb 79 81 bc b7 b0 b3 3c c3 0d af bc 09 94 e5 ba
       -0.015805205 0.02193485 -0.021368867 -0.0017515431
000070 ad 9b 9e bc 62 b9 81 bc 50 67 e8 bb a5 01 36 bc
       -0.019361341 -0.015835468 -0.007092394 -0.0111087905
000080 cd ab 2e 3d
       0.04264431

weight f4 [11, 11]
000000 48 00 f7 3e 19 88 1c 3d 3d 74 6e 3e aa 5a 9d 3e
       0.48242402 0.03821573 0.23286529 0.30733234
000010 88 90 88 be 18 d8 7a 3e 5d 22 17 bb fc 8d 52 bd
       -0.2667277 0.24496496 -0.0023061254 -0.051404938
000020 5a 50 9b be d7 c3 25 be 22 5f ff bd 4c 8b a4 be
       -0.3033474 -0.16187988 -0.12469317 -0.32137525
000030 bb e7 4e bd 77 c4 42 bd 48 df 4e 3e cc 2e 25 be
       -0.050513964 -0.047550645 0.20202363 -0.16131133
000040 a4 24 b6 be e3 03 10 be 80 f0 52 3e b2 b5 6c 3e
       -0.3557483 -0.14063983 0.20599556 0.23116186
000050 f7 74 73 3e ea fc 66 be 15 87 b3 be 7d a8 32 3e
       0.23775087 -0.22557417 -0.35063997 0.17447086
000060 53 34 9f bc da 48 28 be 5a 2b b7 3e 21 e8 71 bd
       -0.01943413 -0.1643404 0.35775262 -0.059059266
000070 14 91 54 3e 9e c8 55 3e 95 0d 9d 3e 77 58 b1 3d
       0.20758468 0.2087731 0.30674425 0.086594515
000080 ef 05 34 be f9 35 dd 3e 76 a8 90 be fa d2 4b be
       -0.17580388 0.4320524 -0.28253525 -0.199047
000090 e4 0c 81 3e 71 00 51 be 28 69 6d 3e 78 dd 65 3e
       0.25205147 -0.20410325 0.23184645 0.22447765
0000a0 74 d1 d3 bd 31 e1 37 3e ea c8 87 be e9 52 98 3e
       -0.103426844 0.17956997 -0.26520473 0.29750755
0000b0 24 24 c5 3d 3c f4 51 3d 50 d8 d9 3d e8 d5 3d be
       0.09626034 0.05125831 0.106369615 -0.1853863
0000c0 7a 98 95 3d 00 46 ac be cb 71 58 3c 2c c3 8c 3d
       0.07304473 -0.33647156 0.013210724 0.068731636
0000d0 c4 b4 96 3e d0 ed 60 3c 56 6c 70 be b4 a7 e7 3e
       0.29434788 0.013728574 -0.23478827 0.45245135
0000e0 27 0a 0f be d6 d4 4d bd 70 5a f9 3d 28 31 58 be
       -0.13968717 -0.050251804 0.12175453 -0.21112502
0000f0 a7 2a d8 3d ae db 85 be 78 d7 12 bd 03 1a c0 be
       0.1055501 -0.26144165 -0.03585002 -0.37519845
000100 b2 da 57 3d 47 56 85 3e 64 79 9d be 9e 63 82 be
       0.0526988 0.26042387 -0.30756676 -0.25466627
000110 cf f9 6c be 75 bb a7 bd 7e 33 67 3e 34 f5 37 be
       -0.2314217 -0.081900515 0.22578236 -0.17964631
000120 a6 72 ab be fc 9a 93 3d 88 70 28 3e 9d 0a 65 3e
       -0.33485907 0.07207295 0.16449177 0.2236733
000130 b4 1a 7e be 75 15 84 3e c9 12 7d 3d d4 b3 82 bb
       -0.24814874 0.2579762 0.061785493 -0.0039887223
000140 ba 4b 92 3e b1 77 74 be a1 61 9d 3e 42 e4 4f bd
       0.285734 -0.23873784 0.30738547 -0.050754793
000150 17 d1 4e bd cd 5c 5c be ae 1c c1 bc a5 13 62 3d
       -0.050492372 -0.21519776 -0.023573246 0.055194516
000160 02 b3 25 be c3 ca e6 3c 0c 40 34 be 84 55 c0 3c
       -0.16181567 0.028172856 -0.17602557 0.023478277
000170 95 dc e3 bd 9f 86 21 3e 0d 91 89 bb 67 c7 77 bd
       -0.11126057 0.1577401 -0.0041981996 -0.0604929
000180 f2 0a a6 bc 24 6a a7 be ca 74 4b be 1c f3 89 bc
       -0.020268891 -0.32698166 -0.1986877 -0.016839556
000190 0e 1e 3a be ab 1f 6b 3e 50 a0 8e 3e 56 93 58 be
       -0.18175527 0.22961299 0.27856684 -0.21149954
0001a0 4a 9b da 3e eb fb 87 3e 47 1e da 3c ea 1c 1b bc
       0.426966 0.26559386 0.026625765 -0.009467343
0001b0 1f a7 51 3d fe 35 58 bd e9 74 a9 3e 74 ec 28 bc
       0.05118477 -0.052785866 0.33097008 -0.010310281
0001c0 96 1b c5 bd cf db eb 3d e4 55 a0 bd 06 f5 05 3e
       -0.09624402 0.115165345 -0.07828882 0.1308175
0001d0 30 98 91 be d5 36 42 bd 1e 32 c3 3d a0 2a ed bd
       -0.28436422 -0.047415573 0.095310435 -0.11580396
0001e0 9e ba b1 3c
       0.021695431

bias f4 [11]
000000 47 14 3d 3c 44 0b 39 bc 11 99 9f bb f3 4e 43 3d
       0.011540479 -0.01129419 -0.004870542 0.047682714
000010 23 b5 75 bc a9 bd 04 3d cb 7a fd 3b 83 4f 02 bd
       -0.0149968 0.032407437 0.0077355853 -0.03181411
000020 bb e4 09 bd af 5b 1e bb cd 1b 08 3c
       -0.0336654 -0.0024163534 0.0083074095

weight f4 [8, 11]
000000 89 ab 3c 3c ac 4f 16 3d 62 20 8d 3e d4 2e 85 be
       0.011515507 0.036697075 0.2756377 -0.2601229
000010 e0 92 4f be a7 d4 3b be 3b 26 ba bd 8a b8 8a 3e
       -0.20270872 -0.18342839 -0.09089323 0.27093917
000020 cb 3a 28 3e 1c 9b fe 3d 87 3e 57 be b3 a0 7e bc
       0.16428678 0.124319285 -0.21019946 -0.015541243
000030 3b 25 fc 3c 03 82 b0 bc 1d b9 04 bd 6b 23 94 be
       0.030779472 -0.02154637 -0.0324031 -0.28933272
000040 59 d9 ee 3d 1b 8c 01 3e e6 57 bb 3d 4e 36 67 bd
       0.116625495 0.12651102 0.09147625 -0.056448273
000050 50 51 eb 3d d1 1f e5 3d 33 e9 69 be 44 fd 24 3e
       0.114901185 0.11187709 -0.22842865 0.16112238
000060 e9 09 40 3e 5e b6 ab 3d de 05 0e 3d 9b 80 1d be
       0.1875378 0.08384393 0.034673564 -0.1538109
000070 0e cf 93 bd 53 06 99 3e c9 49 25 3e 94 20 ec 3d
       -0.07217227 0.29887637 0.16141428 0.11529651
000080 61 d7 81 be ec da 77 be dd f1 1c 3e 60 0e 60 3d
       -0.25359634 -0.24204606 0.15326639 0.05470121
000090 65 6a 0f 3d da 06 c2 3b 71 1d 70 be 19 b7 28 bc
       0.035013575 0.005921227 -0.23448731 -0.01029756
0000a0 18 72 87 3e 67 f1 32 3e cb 07 ed bd 66 15 30 3e
       0.26454234 0.174749 -0.11573752 0.17195663
0000b0 8f f4 83 bd 71 64 c5 bd 95 f0 2d 3e 2c 46 4f bd
       -0.0644313 -0.09638298 0.16986306 -0.05060403
0000c0 78 d4 a9 be 5a 1a 69 bc 11 31 6f 3e 41 72 30 3e
       -0.33169913 -0.014227474 0.23358561 0.17231084
0000d0 13 95 b5 bd 6a 80 a3 3d 49 08 fc bd 0a b0 2b bb
       -0.08866324 0.079834774 -0.12306268 -0.0026197457
0000e0 b9 25 e2 3d c0 bc 23 3d 9e 1d a0 bc 72 a8 d9 bd
       0.11042351 0.039974928 -0.019545373 -0.106278315
0000f0 4e ad 17 3d 26 31 ad bd 47 ae 77 3e d7 80 f9 3d
       0.03703051 -0.0845664 0.24187575 0.121827774
000100 dc fe 29 bd 3d 01 c3 bc 32 38 6a 3e 79 62 84 3e
       -0.04150282 -0.023804301 0.22873 0.2585638
000110 82 f1 27 be 65 6a d7 3d 66 2f 94 bd 78 bf 74 3e
       -0.16400722 0.1051834 -0.07235603 0.23901165
000120 aa 23 75 bd 59 c6 ac 3d c5 31 5e 3e fe ab 7d 3e
       -0.059848465 0.08436269 0.21698673 0.24772641
000130 20 8f 16 be 4d 41 9f bd 9a e0 86 3d 49 ea be 3b
       -0.14703035 -0.07776127 0.06585808 0.005826269
000140 ff 0b 0a be a0 58 7d 3e 3c 32 67 be 07 f8 c5 3d
       -0.13481139 0.24740839 -0.22577757 0.09666448
000150 43 f0 15 bc 9f e3 d9 3d 10 26 c6 3c fd c5 f2 bd
       -0.009151521 0.106391184 0.024188071 -0.118541695

bias f4 [8]
000000 e4 e1 1d be 0d 8d 31 3d 4e 94 43 3e 8e 37 8d be
       -0.15418202 0.043347407 0.19099542 -0.27581447
000010 59 da ad bd eb 5c b0 3d c9 12 dd 3d f7 b4 70 be
       -0.08488912 0.08611473 0.107945986 -0.23506533

weight f4 [11, 8]
000000 f1 0a 68 be ad a2 45 3e 50 54 96 be 88 af 85 3d
       -0.22660424 0.19300337 -0.293612 0.065276206
000010 37 a6 a6 bd 5f 5b 82 be 5a 56 57 3e 70 89 12 be
       -0.08137172 -0.25460336 0.21029034 -0.14310241
000020 f5 63 e3 3c 05 6a 47 be 04 f3 6f 3e ec 81 4b 3e
       0.027757624 -0.19474037 0.23432547 0.1987378
000030 c1 8b f7 3c 78 84 85 be ae 1c 92 be e7 fd 81 bb
       0.030218007 -0.26077628 -0.28537506 -0.003967035
000040 59 fd 54 3e b9 03 c7 3d 35 37 a8 be 03 1a 06 be
       0.2079977 0.09717507 -0.3285462 -0.1309586
000050 c1 dd 8a be 0f 18 06 be 4f 9a 22 3e 3b be c2 bd
       -0.2712231 -0.13095115 0.15879177 -0.0950894
000060 29 34 23 be 9c c2 7e 3e 8e 23 8f 3e 3c 73 b5 3e
       -0.15937866 0.24878925 0.27956814 0.3543948
000070 90 fa 29 be fe c6 5f be 40 6b 33 be 91 a2 c4 bd
       -0.16599488 -0.21853253 -0.17521381 -0.096013196
000080 1c bb 3d bd 30 63 59 be 89 98 47 3e 26 15 48 3e
       -0.04632102 -0.21229243 0.19491781 0.19539317
000090 52 76 41 be 68 3a 15 be e8 32 7c be a4 c6 d9 3d
       -0.18892792 -0.14573061 -0.24628794 0.10633591
0000a0 7a 55 2b 3e 5c 17 b7 3d 9c 66 18 be 81 a4 21 3e
       0.16731825 0.08940002 -0.14882892 0.1578541
0000b0 b5 d0 6c 3e b6 36 96 be 47 e4 87 be 43 99 a6 be
       0.2312649 -0.29338616 -0.2654135 -0.32538804
0000c0 0d ce 01 3d c6 44 36 be 03 b5 a5 3e 75 20 b3 3e
       0.031690646 -0.17799672 0.32364663 0.349857
0000d0 bc 79 bd 3d 58 ab 75 3e f4 2e 8d bd 83 77 bf bd
       0.092517346 0.23991144 -0.06893721 -0.09348967
0000e0 c6 3f 5d be 62 6e 22 be 51 de 92 3c 90 9d 90 3e
       -0.21606359 -0.1586242 0.017928274 0.2824521
0000f0 3f ce a9 be 7a 9c 40 3e 98 aa 18 be 18 e7 52 3e
       -0.33165166 0.18809691 -0.14908826 0.20595968
000100 39 21 53 bd cf 76 15 be 06 2f 3f be d6 01 8d bb
       -0.051545355 -0.14596103 -0.18670282 -0.0043031974
000110 15 17 68 3e 1f 62 95 3d a3 31 6e be 91 be 84 be
       0.22665055 0.07294106 -0.23261122 -0.2592664
000120 04 ff 5e 3e e3 d7 13 be 0e 28 9c 3e ee c4 62 3e
       0.21776968 -0.14437823 0.3049931 0.22145435
000130 fb 1e 68 3e da 4a 26 bd 95 ae 45 3e 05 71 8b 3e
       0.22668068 -0.040598728 0.19304879 0.27234665
000140 96 10 51 3e 1e 86 50 3e ed 3b b7 be 24 5b 7d be
       0.20416483 0.20363662 -0.35787907 -0.24741799
000150 51 d2 59 3e 4d 11 6d bd 3e ef ad 3d ff 73 20 be
       0.21271636 -0.057877827 0.084928975 -0.15669249

bias f4 [11]
000000 9e 53 77 3e 9f 3a 2b 3e 9f cd 37 3e 32 1c 4b 3e
       0.24152991 0.16721581 0.17949532 0.19834974
000010 81 48 2b 3e bb 6c 81 be 23 d3 53 be 8b d7 20 3e
       0.16726877 -0.25278267 -0.20686011 0.15707223
000020 cd e2 10 bd f4 01 80 3e b9 86 88 3e
       -0.035372544 0.2500149 0.26665285

weight f4 [11]
000000 bf 25 82 3f 4a 68 85 3f cf de 8b 3f 2b 1f 85 3f
       1.0167769 1.0422451 1.0927371 1.0400137
000010 5c 12 90 3f 4b f0 86 3f 85 b3 64 3f c8 05 84 3f
       1.1255603 1.0542082 0.89336425 1.0314264
000020 cb f1 6b 3f cf c2 63 3f 2c 18 79 3f
       0.9216582 0.8896913 0.9730251

bias f4 [11]
000000 7e 42 0b bb 61 27 b1 bb 57 1f 1a bc c7 2b e6 3c
       -0.002124935 -0.0054063057 -0.009406886 0.028097047
000010 a6 83 f5 ba 0c 3c a6 3c e0 ad ab 3c ef 5d b3 bd
       -0.0018731251 0.020292304 0.020956933 -0.08758151
000020 8d d1 21 bd 9f e7 30 bd 94 69 d3 3b
       -0.039506484 -0.04318964 0.006451795

weight f4 [11]
000000 97 37 82 3f 66 a4 81 3f e6 23 86 3f 81 fc 84 3f
       1.0173215 1.0128295 1.0479705 1.0389558
000010 51 29 8e 3f 21 05 81 3f 70 24 70 3f 8d 46 7d 3f
       1.1106359 1.007969 0.938056 0.98935777
000020 81 50 71 3f e4 ae 69 3f 28 54 77 3f
       0.94263464 0.91282487 0.9661279

bias f4 [11]
000000 e5 f6 af 3a e6 53 b2 bb 47 ee 32 bc dd ac cd 3c
       0.0013425021 -0.0054421304 -0.010921068 0.025106842
000010 20 6e 0e bc 9e d3 a4 3c d2 13 6e 3c 2c 23 40 bd
       -0.008693248 0.020120438 0.014531093 -0.046908543
000020 09 e9 c1 bc b0 b6 ec bc 6e ad 67 39
       -0.02367069 -0.028895706 0.00022094484

in_proj_weight f4 [33, 11]
000000 67 ad 09 be bd 0b 89 bd 2b 82 70 3e 22 8e 97 be
       -0.13445054 -0.06691692 0.23487155 -0.29600626
000010 82 ed 85 3c b0 54 54 be c4 2a 5a 3c 00 df c4 bd
       0.016348604 -0.2073543 0.01331586 -0.096128464
000020 2a 90 09 3d 73 b4 8b be 1f aa ab 3d e8 df c1 3d
       0.03358475 -0.2728611 0.083820574 0.09466535
000030 25 3e 6f bd 34 2d ad be 73 b6 c6 bd 71 70 b6 bc
       -0.058408875 -0.3382355 -0.09702768 -0.022270413
000040 a6 4d aa be b1 df 9d 3e 89 4b 86 3d 66 c5 78 3d
       -0.33262366 0.30834725 0.06557376 0.06073513
000050 08 86 5c 3e 4a 84 53 3d b0 65 cd bd 1e 7f 89 bd
       0.21535504 0.051639833 -0.10029161 -0.06713699
000060 2a bf 31 3e 7d 73 87 3e cc b7 4c be 46 28 5c 3e
       0.1735808 0.26455298 -0.19991988 0.21499738
000070 c9 a7 c2 3e b6 15 b8 3d c5 06 8b 3e fa 3b 95 3e
       0.38018635 0.08988516 0.27153602 0.2914732
000080 8d 3d 7c bd ce 62 94 3e 7f 96 0a bd 34 b2 d1 3c
       -0.061582137 0.28981632 -0.03383493 0.02559767
000090 7f 5c b8 bd da ff 96 3e c7 88 5a bd 89 02 38 3e
       -0.09002017 0.29492074 -0.053353097 0.17969717
0000a0 06 b4 40 bd d2 26 90 3b cc ba 14 3b 4e 5d 37 3e
       -0.047046684 0.004399159 0.0022694347 0.17906687
0000b0 90 d9 04 be 91 5b 8a 3d b1 7d b8 bd 03 9f d6 3b
       -0.12973619 0.06755746 -0.09008349 0.0065497174
0000c0 f3 67 a7 3e 7e 0c 33 bd 8b 13 78 bd d1 36 ef 3d
       0.32696494 -0.043713085 -0.060565513 0.11680377
0000d0 5b 47 34 3e 12 33 5f be 9b 3d 11 3e ec d8 0e 3e
       0.17605345 -0.21796826 0.14183657 0.13949937
0000e0 8e 55 07 be 59 86 dc be 60 3a ba 3e f7 5b 8a 3e
       -0.1321623 -0.4307125 0.36372662 0.2702329
0000f0 ad 69 85 3e 90 6a 3e be 3e 95 2a 3e d3 4e d2 3e
       0.26057187 -0.18595338 0.16658494 0.41075763
000100 16 0c d9 bd c3 65 82 bd a8 b1 b0 bc a7 fa 07 be
       -0.10598008 -0.06367066 -0.021569088 -0.1327921
000110 ad 30 3a 3d 03 d7 b5 bc cb 9d 98 3e e8 fe 8d 3e
       0.045456577 -0.022197252 0.29807886 0.2773354
000120 5f 78 8d be ab 94 20 3e d3 e0 ca be 12 33 23 bd
       -0.27630898 0.15681712 -0.39624652 -0.039843626
000130 8e 1d b0 3d ab 1c ca 3e 67 37 b8 be 8f 20 3a be
       0.08599387 0.39474997 -0.3597977 -0.18176483
000140 85 74 80 be d9 ac d2 3d c3 75 80 bd 15 49 dd 3e
       -0.25088897 0.10286874 -0.06272461 0.4321982
000150 85 2c bf 3d ef ba 77 be b0 38 3a 3e de 79 96 3d
       0.09334663 -0.24192403 0.18185687 0.07347463
000160 fa 2a 09 be 5e 1e 61 3d 54 0a cf 3d 8f 2e 12 be
       -0.133953 0.0549606 0.10109392 -0.14275573
000170 e0 1c ab 3e f7 78 9c 3e e1 7b ac 3d f7 91 86 bd
       0.33420467 0.3056104 0.084220655 -0.06570809
000180 e8 bf 6d be bf 71 7e be 60 ea 94 3d 82 98 81 3e
       -0.23217738 -0.24848078 0.07271266 0.25311667
000190 54 0b 41 be 96 e2 c7 bd 34 7b 2e be fb f1 96 be
       -0.18851978 -0.09760015 -0.17039186 -0.2948149
0001a0 26 dc 7f bd 9f 5c a8 3d 3f 9e 96 be 44 d3 63 be
       -0.06246581 0.08220791 -0.29417607 -0.2224856
0001b0 64 ad b8 3e 88 bb 2b be 92 0a 47 3d a9 ec 51 be
       0.36069787 -0.16770756 0.048594065 -0.20500435
0001c0 6b 43 c1 be 66 fc be 3e b6 91 31 be 28 24 8e 3d
       -0.37746748 0.3730194 -0.1734074 0.0694049
0001d0 8f 4f 84 3e f4 ff 63 be 2e d9 be 3e bd 98 98 3e
       0.25841948 -0.22265607 0.3727507 0.2980403
0001e0 74 7a 8b 3e 2f c6 bf 3d 28 47 b9 3e 79 0e 26 be
       0.27241862 0.093639724 0.361871 -0.16216458
0001f0 ed a2 e3 3d 01 79 61 3d a5 6d 20 3e 86 75 17 bd
       0.1111506 0.05504704 0.15666826 -0.036977313
000200 d1 80 c7 bb 4e 4d ab be c6 12 33 3e d6 05 c1 be
       -0.006088354 -0.33457416 0.1748763 -0.37699765
000210 db ec 19 3d ba ac d2 3d 79 4a 2a be aa 4f 79 be
       0.0375794 0.10286851 -0.16629972 -0.24346796
000220 0e 29 78 be c5 c8 39 be 93 16 bd be a0 42 86 be
       -0.24234411 -0.18142994 -0.36931285 -0.26222706
000230 17 82 4b 3e 24 21 2a be 69 dd b1 be e7 76 b2 3e
       0.19873844 -0.16614205 -0.34739235 0.3485634
000240 b7 8a b3 be e2 f1 6f bd ce 07 47 bd 79 ae b3 3e
       -0.3506677 -0.058580287 -0.048591428 0.3509405
000250 ce 3b de bb 5a 9a 96 bd f6 96 c0 3c 7e 62 67 3e
       -0.0067820316 -0.07353659 0.023509484 0.22596166
000260 e7 ad 8e 3e 1e 86 b5 bd e4 2a 9f bd b1 73 03 3d
       0.27867052 -0.088634714 -0.077718526 0.032092754
000270 3e 68 57 3e fb 55 3f be 22 32 8d 3e 9a 44 e1 3d
       0.21035859 -0.18685143 0.2757731 0.10999413
000280 11 3b 49 3e c3 cb c3 3e 59 ce 89 be c4 1c 37 bd
       0.19651438 0.38241395 -0.26915243 -0.044705167
000290 e2 a1 61 be 34 ec 21 be ca d6 76 3e a1 6b e3 3d
       -0.2203441 -0.1581276 0.24105373 0.11104513
0002a0 e3 ab 9d 3d 27 04 47 bd b4 ac ed bd 67 67 e8 bd
       0.076988004 -0.048587944 -0.11605206 -0.113478474
0002b0 ca e3 98 3e 68 53 26 3d f2 f4 8f 3e 2a 9b ac 3d
       0.2986129 0.040606886 0.28116566 0.08428033
0002c0 1e 31 3e bd 43 24 c4 3d a2 ea d6 be ee 61 4b be
       -0.04643356 0.09577229 -0.41975886 -0.19861576
0002d0 f0 8e cd be b7 cc 24 be 13 88 51 3e ba 64 09 3e
       -0.40148115 -0.16093718 0.20462064 0.1341733
0002e0 09 9a e3 3e b2 fc 57 be 71 df 0c be 4c 12 bf 3d
       0.44453457 -0.2109249 -0.13757111 0.09329662
0002f0 d5 6c ab 3d 51 c0 ad 3d 1b 90 d8 be 87 1f 71 be
       0.083703674 0.08483947 -0.42297444 -0.23547183
000300 ed 8d 83 3e b4 10 89 3e 09 13 2f be 78 5a cb bd
       0.25694218 0.26770556 -0.17097105 -0.09929365
000310 c9 83 d2 3b 16 8b 68 bd de e0 24 be 34 a1 88 3d
       0.0064244014 -0.056773268 -0.16101405 0.06671372
000320 e0 da 73 bc 72 bf 7e 3e ff 07 73 3e 82 52 ac 3e
       -0.014883727 0.24877718 0.23733519 0.33656698
000330 dc bb c4 3d 56 eb 89 3e ba 36 98 3d e0 c6 94 bd
       0.09606144 0.2693736 0.07432313 -0.07264495
000340 c7 fd 0e be c3 fe b7 be 6c 3f d4 3e 2d bd 04 be
       -0.13963996 -0.35936555 0.41454637 -0.1296279
000350 fd bf 76 bd 41 d7 93 3d 0c c7 37 bd 43 68 8c be
       -0.060241688 0.07218791 -0.04486756 -0.27423295
000360 3d bf df bd 09 22 17 3e 37 68 a4 be bb 09 1d be
       -0.10925148 0.14759077 -0.3211076 -0.15335743
000370 01 8b f1 3d 9d c6 33 be ed b3 34 be 89 d8 9f bc
       0.11794091 -0.17556234 -0.17646761 -0.019512432
000380 22 1b 89 3e 3a cc 1f be 96 3c 97 bd 46 92 dc 3d
       0.26778513 -0.1560525 -0.07384603 0.10770087
000390 24 cf a6 3d e7 b5 a5 3d d1 a8 9f 3e ba 82 1f be
       0.08144978 0.08091336 0.31183484 -0.15577212
0003a0 82 ee c6 3e e2 0d e8 bd d3 f8 b3 3e e1 85 05 3e
       0.38853842 -0.11330773 0.35150775 0.13039352
0003b0 f0 7f 2f bd fa 5e 7b bd b4 a4 9c 3e 7a d1 81 bd
       -0.04284662 -0.061369874 0.3059441 -0.063387826
0003c0 d3 0c b5 bd 36 15 20 39 80 f0 35 3e 8c 93 d5 be
       -0.08840337 0.00015266691 0.17767525 -0.41714132
0003d0 83 c5 5a 3e ff 33 12 3e 79 51 96 3e 57 9e c5 3e
       0.21364407 0.14277647 0.29359034 0.38597366
0003e0 06 77 bf bd d0 ad f0 bd 2f b1 df bd a1 4a 26 3e
       -0.09348874 -0.11751902 -0.10922467 0.16239406
0003f0 f4 84 db 3d 96 5f be bd c8 c8 a0 3e 2e 67 80 3e
       0.10718718 -0.09295575 0.31403184 0.2507872

in_proj_bias f4 [33]
000000 e6 94 a4 bd 72 4a 61 bc eb 1e 13 3c cd 7a 29 bc
       -0.080362126 -0.013750659 0.008979539 -0.010344219
000010 90 ce b4 bc a6 fa a4 bd 64 5e 4e 3d 47 16 ce 3c
       -0.022071153 -0.0805562 0.050382987 0.025157107
000020 6a 48 45 bd bd 51 04 3e 52 fb 1e 3c ed 6c 26 3a
       -0.048164763 0.12921806 0.009703474 0.00063486287
000030 b5 86 0c bb 29 f4 8e 39 fc 1d 18 39 8d 6d c0 ba
       -0.0021442596 0.00027266264 0.0001450702 -0.0014681086
000040 31 75 29 bb db d6 94 3a 9f ac 43 3b 8b 4c ac 36
       -0.0025857205 0.0011355536 0.002985753 5.13491e-06
000050 1d a8 57 3b 99 b1 29 3a 0b 75 da 3b c0 24 28 bc
       0.00329066 0.00064733025 0.0066667846 -0.010262668
000060 6a 47 5d bc 4c 7a 94 bd 3d 4e 6b 3d c8 5c 84 bc
       -0.013505796 -0.07249889 0.05744766 -0.016157523
000070 51 ae 0d bc f2 2d ae bb 75 d1 00 3c ac 27 ae bb
       -0.008647517 -0.0053155357 0.007862438 -0.005314788
000080 7e 19 9c 3c
       0.019055124

weight f4 [11, 11]
000000 30 f6 86 3e 57 c2 86 bb 97 73 8b 3e 10 4d 7a 3e
       0.263597 -0.0041125226 0.27236626 0.2444346
000010 12 37 fa bd 38 f1 16 3d 4f 70 be bc 59 5e ae 3c
       -0.12217535 0.036851138 -0.023246912 0.021285223
000020 3b 66 91 be 56 14 9b be 18 41 42 be de 14 d4 bd
       -0.28398308 -0.30288953 -0.18970144 -0.103555426
000030 e0 4d 62 bd 7c 7c 49 bd 03 0f a3 3e 72 e5 98 be
       -0.05525005 -0.049190983 0.3184739 -0.29862553
000040 8b c6 4e be 1d 78 08 be 5b 8b 36 3e 07 db 79 3e
       -0.20192926 -0.1332707 0.17826597 0.24399959
000050 e9 ca ad 3e ef c6 35 be 3a 0f 12 be ca 6e 7c 3e
       0.3394387 -0.17751668 -0.14263621 0.24651638
000060 04 46 b5 bc 23 b9 85 bd a1 0c 53 3e c1 8b 1c 3e
       -0.022128113 -0.06529453 0.20610286 0.15287687
000070 ec bd 68 3e d0 c1 44 3e 00 cd 8e 3e e1 de 45 3e
       0.227287 0.19214559 0.27890778 0.19323303
000080 10 7b 04 be fb 6b 62 3e db 10 63 be f5 e2 51 be
       -0.1293757 0.22111504 -0.22174399 -0.20496733
000090 f4 62 88 3d e1 5a 1c bd 65 fc 0c 3e 0d 66 91 3e
       0.06659499 -0.038172606 0.13768156 0.2839817
0000a0 e0 49 0c be 14 98 07 3e b6 f8 ae be 9b ce 6b 3e
       -0.13700056 0.13241607 -0.34174126 0.23028032
0000b0 42 16 a2 3e 4d 07 e5 bc e1 8d 80 3c c9 d4 bc bd
       0.31657606 -0.027957583 0.015692653 -0.09220273
0000c0 13 cf c8 bd 38 91 b1 bd 85 99 ab 3c 13 c5 af 3c
       -0.09805121 -0.086702764 0.020947227 0.021456277
0000d0 05 86 91 3e 66 b6 fa 3d c6 43 6c be b9 83 8b 3e
       0.2842256 0.12241821 -0.23072729 0.27248934
0000e0 19 7b 26 be 0f 8b 8f bd 72 95 ba 3c fb 47 07 be
       -0.16257896 -0.07008945 0.02277634 -0.13211052
0000f0 4a e3 78 bd 8c 75 80 be 16 6a 7e 3d e1 3a a8 be
       -0.060763635 -0.2508968 0.06211289 -0.3285742
000100 0e 74 9f bc 7b 9b 8f 3e b1 5a 85 be 60 b4 04 be
       -0.019464519 0.2804831 -0.26045755 -0.12959433
000110 3c 57 73 be da bf 15 be b0 02 74 3e 47 a8 90 bd
       -0.23763746 -0.14623967 0.2382915 -0.07063346
000120 08 48 8d be 81 64 5e bd bd 6a 01 3e 99 bd 4b 3e
       -0.27594018 -0.054295067 0.12638374 0.19896545
000130 03 0b 9c be 12 75 1f 3e e7 7e 12 3e d2 b0 e7 3c
       -0.3047715 0.15572003 0.14306222 0.028282557
000140 30 c2 9e 3e 04 35 69 be 73 d4 16 3e b6 41 e6 bc
       0.31007528 -0.2277413 0.1472948 -0.028107505
000150 24 64 5b bc 0a 43 93 bd 88 09 ce ba e6 be 5e 3b
       -0.013390575 -0.07190521 -0.0015719393 0.0033988296
000160 06 c3 2a bd 94 42 7b bd 50 77 24 be 59 d8 48 3e
       -0.041689895 -0.06134279 -0.16061139 0.1961378
000170 c5 e4 7b be ae e2 08 bd cf cf 28 bd 3a 31 ed 3d
       -0.24598987 -0.033419304 -0.041213807 0.11581655
000180 e9 17 45 3c 6a 16 7b be ed fc 02 be f7 de 7b be
       0.012029626 -0.24520269 -0.12791796 -0.24596773
000190 7f 34 2d be 5c d5 95 3e e4 42 a4 3e 10 65 b2 bd
       -0.16914557 0.29264343 0.32082283 -0.087106824
0001a0 07 ce 8d 3e b9 d3 82 3e 11 96 85 3d da 7b 51 3d
       0.2769625 0.25552157 0.065227635 0.051143505
0001b0 ed 1f 4d bc 70 be e2 bd 14 1a 18 3e bf 2f 7e 3b
       -0.012519819 -0.11071479 0.14853698 0.0038785783
0001c0 32 5f 6b bd b3 fc c3 3c a7 4f 91 3d 29 ed 53 bd
       -0.057463832 0.023924207 0.070952706 -0.051739845
0001d0 ba b4 91 be c5 ce 01 3c 14 25 df 3d 04 69 79 be
       -0.28458196 0.007922833 0.10895744 -0.24356467
0001e0 21 5e 79 bd
       -0.060880784

bias f4 [11]
000000 42 ba f8 bb 20 5b e8 bb 4a 6d 81 bb 6a eb b5 3c
       -0.007590563 -0.007090941 -0.003949796 0.02220698
000010 d2 7e f7 3b fa 82 cb 3b 69 4e 24 3c 3d 54 f7 bc
       0.00755296 0.006210682 0.01002846 -0.030191535
000020 10 cc 66 bc a6 6c 24 bd 23 32 c0 3b
       -0.014086738 -0.040142678 0.0058653518

weight f4 [8, 11]
000000 62 ad 2e 3a fd a1 f2 bb a8 a7 61 3e d0 ec a7 be
       0.00066634093 -0.0074045644 0.22036612 -0.3279786
000010 0c 09 31 be e7 02 2f be 09 81 f3 bc e9 15 a6 3e
       -0.17288607 -0.17090951 -0.029724615 0.3243859
000020 2a 6a 36 3e b4 b9 5a 3e df 69 4a be e1 b2 90 bd
       0.17813936 0.21359903 -0.19766949 -0.070653684
000030 e5 ce 55 3c 6b dc 50 3d f9 55 3f 3c a4 f7 b2 be
       0.013049816 0.050991457 0.011678212 -0.3495456
000040 1e b7 07 3e 49 98 1c 3e 6a aa de 3d 65 6e b0 bd
       0.13253447 0.15292467 0.10872348 -0.08614806
000050 99 b1 79 3d bd de b4 3d 36 88 38 be 2b 4f 08 3e
       0.060960386 0.088315465 -0.1802071 0.1331145
000060 86 85 47 3e 9f 5a 7e 3d 2b 06 38 bd 6b 2d 03 be
       0.19484529 0.06209814 -0.044927757 -0.12810294
000070 15 21 84 bd 8a 37 a1 3e f2 9c 15 3e 6d cd 43 3e
       -0.064516224 0.31487685 0.14610651 0.19121332
000080 05 d9 9c be 64 59 b0 be d8 85 75 3d 28 51 37 bc
       -0.30634323 -0.344432 0.059942096 -0.011188783
000090 43 97 14 3d e4 1e 6d bd b8 3d 95 be 07 5d cb 3d
       0.036277067 -0.057890788 -0.2914865 0.09929853
0000a0 ea df a7 3e 76 44 2f 3e 2d f4 7a bd d2 09 42 3e
       0.3278802 0.1711596 -0.06126802 0.18949059
0000b0 bb 0e e8 bc 1b 23 fd bd e8 99 3a 3e fd 20 cb bd
       -0.028327337 -0.123602115 0.18222773 -0.099184014
0000c0 d9 7e ae be d0 7f 9a bc 03 2a 87 3e 76 e6 19 3e
       -0.34081152 -0.018859774 0.2639924 0.1502932
0000d0 88 cf b0 bd 42 69 12 3d 45 84 d8 bd 2d 89 0d 3e
       -0.086333334 0.035744913 -0.105721034 0.1382186
0000e0 00 8e f7 3d 47 cb 0e 3e d1 c7 d8 bb 37 07 0d be
       0.12087631 0.13944732 -0.006615617 -0.13772283
0000f0 b1 55 1c bd b3 8a f2 bd 47 a2 87 3e c4 1b 38 3d
       -0.03816766 -0.11842861 0.26490995 0.044948354
000100 3e 56 e9 bc e3 1b 99 bd da f8 66 3e c8 b5 5b 3e
       -0.028483506 -0.07476022 0.22555867 0.21456063
000110 bb c8 07 be 37 4e 8d 3c c0 a4 06 be 32 99 ba 3e
       -0.13260166 0.01724921 -0.13148785 0.36445004
000120 4d 40 0f bc 78 0a d6 3d 60 bb 8b 3e d2 2a 7a 3e
       -0.008743358 0.104512155 0.27291393 0.24430397
000130 f0 03 2a be c1 4c 50 bd 2b 25 bc 3d 1c 60 4c bd
       -0.16603065 -0.05085445 0.09186777 -0.049896345
000140 cc bd a8 bd 34 72 80 3e 54 38 56 be 3d 93 a9 3d
       -0.08239326 0.2508713 -0.20919925 0.082800366
000150 01 1b 0a bd 54 c1 19 3e e5 fd d7 bc d0 0d 75 be
       -0.03371716 0.15015155 -0.026366184 -0.2393105

bias f4 [8]
000000 d7 e6 12 be 78 19 5a 3d cd d2 3e 3e 98 e6 31 be
       -0.14345871 0.053246945 0.18635102 -0.17373121
000010 5f e4 97 bd d6 a9 1d 3e 40 38 eb 3d b0 52 63 be
       -0.07416605 0.15396819 0.11485338 -0.22199512

weight f4 [11, 8]
000000 c5 6e 79 be cf 3f 7f 3e 1e b3 92 be 59 e3 c4 3d
       -0.24358661 0.24926685 -0.2865228 0.096136756
000010 e4 e2 67 bd ec 31 8c be 90 b3 39 3e df 0d fd bd
       -0.056612864 -0.27381837 0.18134904 -0.12356161
000020 bf 2c 05 3d d8 16 51 be 69 0c 60 3e c9 eb 46 3e
       0.032513376 -0.2041887 0.21879734 0.19425882
000030 e0 5a cb 3c 68 f7 93 be 82 ab 88 be d6 d0 8a bd
       0.024823606 -0.28899693 -0.2669335 -0.067781135
000040 86 97 09 3e 16 25 ed 3d 35 61 bd be 59 b3 26 be
       0.13436708 0.11579339 -0.36988226 -0.16279353
000050 28 2d a8 be 37 e5 fa bd da 01 73 3e be cb ea bd
       -0.3284695 -0.122507505 0.23731175 -0.11464642
000060 66 87 1c be 57 22 aa 3e e4 42 b5 3e cd c1 bc 3e
       -0.15286025 0.33229324 0.35402596 0.36866608
000070 14 f2 d7 bd eb 95 58 be cd 82 76 be df 31 9d bd
       -0.105442196 -0.21150939 -0.24073334 -0.07675528
000080 08 e1 2b bd 69 2b 89 be 3f e4 26 3e f7 5c 2f 3e
       -0.041962653 -0.26790932 0.16298006 0.17125307
000090 d5 17 4f be 9a 18 3f be 92 76 80 be 50 11 c4 3d
       -0.20223935 -0.18661729 -0.25090462 0.095736146
0000a0 e4 20 3b 3e 3f 31 c0 3d 09 02 ef bd b3 46 6a 3e
       0.18274266 0.09384393 -0.1167031 0.22878532
0000b0 6e fa 6e 3e 23 ff 92 be 94 c8 a9 be eb e4 96 be
       0.23337719 -0.2871028 -0.3316084 -0.29471526
0000c0 21 dd eb 3c dd 02 1d be c8 9c a5 3e db 44 bc 3e
       0.028791966 -0.15333124 0.32346177 0.36771283
0000d0 a2 aa bb 3d 9d 40 81 3e 55 7a bc bd 89 78 16 be
       0.09163405 0.2524461 -0.092030205 -0.14694418
0000e0 e6 1b 5f be e4 64 dc bd fb 41 f0 3c 41 29 91 3e
       -0.21787986 -0.10761431 0.029328337 0.28351787
0000f0 60 e4 b5 be ef 65 47 3e e5 46 42 be f1 54 a0 3e
       -0.355258 0.19472478 -0.18972357 0.31314805
000100 bd 31 ca bd 11 b7 00 be 4a 77 49 be b6 64 03 bb
       -0.09872768 -0.12569834 -0.19674411 -0.0020049042
000110 6e 8d 4f 3e b1 e3 91 3d 7f c5 58 be 3e 7b 8d be
       0.20268795 0.07123507 -0.21169089 -0.2763309
000120 be 81 4c 3e 55 b1 b0 bd 43 37 8d 3e 8a 90 7d 3e
       0.19971368 -0.086275734 0.27581224 0.24762169
000130 e3 c4 5c 3e 03 28 c0 3c f2 19 82 3e 8d 9a 97 3e
       0.21559481 0.02345658 0.2541042 0.296101
000140 4d c8 5e 3e c4 7a 6e 3e 47 5b aa be 16 2a 60 be
       0.21756096 0.23289019 -0.33272764 -0.21891055
000150 1b f8 68 3e 19 70 15 bd f1 23 f1 3c b3 cd 16 be
       0.22750895 -0.036483858 0.029436084 -0.14726906

bias f4 [11]
000000 90 83 79 3e d7 06 2d 3e 9c 69 3e 3e a4 08 5f 3e
       0.24366593 0.1689714 0.18594974 0.2178064
000010 7f b8 2f 3e 68 2f 86 be 60 51 38 be 67 f3 63 3e
       0.17160223 -0.26208043 -0.17999792 0.2226082
000020 5e 5e 47 bd 97 94 82 3e 7c 9f 87 3e
       -0.04867398 0.2550399 0.26488864

weight f4 [11]
000000 3e 1c 83 3f b4 b9 87 3f 91 73 82 3f db b6 81 3f
       1.0242994 1.0603547 1.0191518 1.0133928
000010 0e 8a 8d 3f 11 dc 83 3f f6 34 78 3f 37 d6 84 3f
       1.1057756 1.0301534 0.9695581 1.0377873
000020 68 1f 77 3f ea 15 66 3f 08 91 7b 3f
       0.965323 0.8987719 0.98268175

bias f4 [11]
000000 29 82 e1 ba 49 c5 f4 bb 04 04 bd bb 96 32 d9 3c
       -0.0017204928 -0.0074698073 -0.005768301 0.026513379
000010 68 bf e5 b9 14 81 88 3c 49 52 dc 3c 91 10 16 bd
       -0.00043820892 0.016663112 0.026894705 -0.036636893
000020 f0 58 c7 bc f8 63 45 bd 42 e9 89 3b
       -0.0243344 -0.04819104 0.0042087147

weight f4 [11]
000000 7f a6 83 3f 9b ab 84 3f bc 2f 83 3f 32 60 84 3f
       1.0285186 1.036487 1.0248942 1.0341856
000010 83 db 89 3f 34 84 7d 3f 48 e4 75 3f 92 63 81 3f
       1.0770115 0.9902985 0.96051455 1.0108511
000020 79 c6 7b 3f 69 7f 6f 3f 74 c6 7a 3f
       0.9834972 0.9355379 0.97959065

bias f4 [11]
000000 da 1f 42 3a cd 2d 0e bc df 63 e6 bb 6d 34 cd 3c
       0.0007405259 -0.008677912 -0.0070309485 0.025049413
000010 fc 06 b3 bb 03 5d 95 3c 96 4a a7 3c 10 3b e1 bc
       -0.005463479 0.018232828 0.020421308 -0.027493984
000020 15 77 a5 bc ee f1 09 bd ed a1 bc 38
       -0.020198384 -0.033677988 8.9946996e-05

in_proj_weight f4 [33, 11]
000000 5f f0 3f be 6d df 15 be bb 57 5f 3e 60 53 a7 be
       -0.18744038 -0.14636011 0.2181081 -0.32680798
000010 5f 80 26 bc 7d df 80 be 07 25 43 3d ae ac 93 bc
       -0.010162442 -0.25170508 0.047642734 -0.018026676
000020 0d 77 1f 3d 8e 1d 37 be d9 cb 77 3c bc 66 cc 3c
       0.038931895 -0.17882368 0.015124285 0.024951331
000030 38 60 3e bd c0 20 a7 be ab b7 0a be 1b eb 9f bd
       -0.04647848 -0.32642174 -0.13546626 -0.07808515
000040 a1 c8 99 be 19 d7 9c 3e 62 73 f1 3d e0 f3 c7 3d
       -0.3003588 0.30632856 0.11789586 0.09763312
000050 c1 05 54 3e 1a 61 9b 3d ad 05 d0 bd 0b 36 00 be
       0.2070532 0.0758688 -0.101573326 -0.12520616
000060 9c e2 34 3e dd 7e ae 3e 86 23 25 be ce 52 49 3e
       0.1766457 0.34081164 -0.16126832 0.19660494
000070 7a 3e 8c 3e 01 4e f8 3d 16 76 6f 3e 96 43 91 3e
       0.27391416 0.12124253 0.2338489 0.28371876
000080 72 78 f8 bc ec 4e a4 3e ce a0 10 be 36 75 87 3d
       -0.03033087 0.32091463 -0.14123842 0.06614153
000090 d3 9b 08 be a4 87 9e 3e 71 72 cc bd b4 5a 1a 3e
       -0.13340692 0.3096286 -0.099827655 0.15073663
0000a0 e3 55 8e bd f5 e7 f1 3d 90 8f 7b 3d 92 69 48 3e
       -0.06949975 0.118118204 0.06141621 0.19571522
0000b0 56 40 c7 bd 32 48 f0 3c 3b 75 ab bd 06 6a 5c bd
       -0.09729068 0.0293313 -0.08371969 -0.05381205
0000c0 a2 52 c7 3e a5 f1 bb bd 98 90 b9 bd 1d 49 a0 3d
       0.3893023 -0.091769494 -0.09060782 0.07826445
0000d0 11 b0 a1 3e 26 e4 58 be 69 f6 36 3e 25 90 70 3e
       0.3157964 -0.21180782 0.17867436 0.23492487
0000e0 a3 36 55 be d7 02 c0 be 56 60 ab 3e eb 9f 87 3e
       -0.20821624 -0.37502167 0.33471936 0.26489195
0000f0 6b 36 7b 3e 5b 90 4f be 09 86 0e 3e 08 d3 c8 3e
       0.24532478 -0.20269911 0.13918318 0.39223504
000100 51 54 ee bd 03 39 07 be 44 23 8c bd 3b 4b b0 bd
       -0.11637176 -0.13205342 -0.06842664 -0.08608099
000110 15 e2 f4 3d 6b a7 d6 bc 77 59 b7 3e e2 25 9d 3e
       0.11957184 -0.026202878 0.35810444 0.30692965
000120 1f 02 93 be 28 ee af 3d 03 50 c1 be 83 77 cf bd
       -0.28712556 0.085903466 -0.37756357 -0.10130217
000130 d0 4a a6 3d 2d c8 b9 3e 01 9e b9 be e9 32 3d be
       0.08119738 0.36285535 -0.3625336 -0.18476452
000140 75 bf 45 be b8 42 cd 3d 35 d8 4c bd ee 7f b3 3e
       -0.19311316 0.10022491 -0.05001088 0.3505854
000150 93 8f 8d 3d be 5a 64 be 59 8f 59 3e fe a3 16 3e
       0.0691215 -0.2230024 0.21246089 0.14710996
000160 46 6a 14 be 0d 51 ac 3d a5 1f 00 3e ab ce 19 be
       -0.14493665 0.08413897 0.12512071 -0.15020244
000170 92 92 98 3e 6c 65 a2 3e ec d8 b1 3d b8 d9 8d bd
       0.29799324 0.31718004 0.08683953 -0.06926292
000180 f1 19 57 be d4 c3 72 be d4 6b 98 3d 9c c4 94 3e
       -0.2100599 -0.23707515 0.074424416 0.2905625
000190 95 e5 54 be c4 21 8e bd d9 4e a6 bd e5 d9 83 be
       -0.20790704 -0.06940034 -0.08120508 -0.25752178
0001a0 3d 69 82 bd 7f 81 f9 3d 59 15 a2 be 58 e6 b3 be
       -0.06367729 0.121829025 -0.31656912 -0.35136676
0001b0 b1 a8 bd 3e cb af 33 be e7 2f f2 3c 97 e9 70 be
       0.37042764 -0.17547528 0.029563857 -0.23526607
0001c0 98 ef b3 be bf 5e c9 3e be a3 2e be 5f f9 fd 3c
       -0.35143733 0.39330098 -0.1705465 0.031002698
0001d0 5c af 92 3e d9 3c 66 be 39 3b bb 3e 27 91 a2 3e
       0.28649414 -0.22484149 0.3656862 0.31751367
0001e0 fc bb 21 3e f8 68 d1 3d 63 ce ad 3e db d2 28 be
       0.15794367 0.10225099 0.33946523 -0.16486685
0001f0 2c 28 e9 3d 52 52 ce 3d 1e 84 49 3e 3f 35 54 bd
       0.11384615 0.10074295 0.19679305 -0.051808592
000200 8f 61 cf bc 9c 6a ba be 6e 7a 1a 3e 75 0a c0 be
       -0.025315074 -0.36409461 0.15085766 -0.37507978
000210 7e 68 52 3d eb 12 ae 3d 99 2c 0c be 90 49 8f be
       0.051369183 0.08499702 -0.13688888 -0.2798581
000220 60 7f 83 be eb eb 24 be cf 38 a7 be d4 68 93 be
       -0.25683117 -0.1610562 -0.3266053 -0.28790915
000230 15 5f 5e 3e b6 56 32 be e0 71 a8 be fa df a1 3e
       0.21715958 -0.1741589 -0.3289938 0.31616193
000240 3b 41 9e be b5 41 b9 bc c4 91 f2 bb 64 2d a4 3e
       -0.30909142 -0.02261434 -0.0074026305 0.3206588
000250 60 c8 7b bc 14 56 6b bd ba 68 a5 bd ba cb 26 3e
       -0.015367597 -0.057455137 -0.08076616 0.16288653
000260 e3 7b a7 3e 55 e5 0b be e1 04 f2 bd 58 12 94 bb
       0.32711706 -0.13661702 -0.11817337 -0.0045187883
000270 d3 b0 7a 3e 7b 2b 6d be 83 e3 a1 3e c0 2a 36 3e
       0.24481516 -0.23161118 0.3161889 0.17789745
000280 9c c2 34 3e d6 6e 98 3e 56 aa 79 be 9b ed 89 bd
       0.17652363 0.2977206 -0.24381384 -0.06734773
000290 79 9d 72 be bf 31 6b be 03 93 df 3d dc 47 65 3e
       -0.23692884 -0.22968195 0.10916712 0.22390693
0002a0 8e 28 5d bc 22 b4 38 ba 50 00 fd bd 19 ed 62 be
       -0.0134984385 -0.0007045885 -0.12353575 -0.22160758
0002b0 b9 49 56 3e 1a 56 48 b9 24 14 c1 3e d1 1d 95 3c
       0.2092656 -0.00019105562 0.3771068 0.018202694
0002c0 2f eb 07 3c ea 62 87 3d 06 15 e3 be ad 5c 05 be
       0.008295818 0.06610663 -0.44351977 -0.13023634
0002d0 5c 08 c0 be 13 c2 eb bd e4 0c 9f 3e b5 2e 0e 3e
       -0.37506378 -0.11511626 0.31064522 0.13885005
0002e0 9a 79 d4 3e 73 c7 74 be 5f bf 18 be 77 39 0a 3e
       0.41499025 -0.23904209 -0.14916752 0.13498484
0002f0 38 32 28 3e fa 48 59 3d 50 d3 c7 be fc 30 7f be
       0.16425407 0.05304811 -0.39028406 -0.2492103
000300 85 a7 6c 3e c7 b5 86 3e d8 d0 3d be ab d7 e0 bd
       0.23110779 0.2631056 -0.18536699 -0.109786354
000310 bf e6 0f 3d d0 95 da bd b9 f2 e6 bd ab 6f 80 3d
       0.035132166 -0.10673106 -0.112767644 0.06271299
000320 1b 9c 0d bd 63 16 07 3e e2 32 60 3e d2 ca a6 3e
       -0.034572702 0.13192134 0.2189441 0.32576615
000330 ab 19 c6 3d c4 bd 57 3e 80 48 9c 3d 3b a2 12 bc
       0.096728645 0.21068484 0.07631016 -0.008949812
000340 d8 0a f8 bd 7c 32 a3 be 19 f6 cd 3e ca 18 29 be
       -0.12111443 -0.31874454 0.4022682 -0.16513363
000350 18 bb bd bc e9 12 48 3d e6 77 8f bc 0a d5 93 be
       -0.023160502 0.04884616 -0.017513227 -0.28873473
000360 c7 ab 91 bd 03 a4 51 3d db 12 9e be 6d 38 19 be
       -0.07112842 0.051181804 -0.3087376 -0.14962931
000370 3e a4 fe 3d 4c 5a 5e be 8e 03 56 be b7 7f a5 3c
       0.124336705 -0.21714133 -0.20899794 0.0202025
000380 16 1d 83 3e 00 6e ea bd 94 f1 f1 bd e2 aa e7 3d
       0.25608128 -0.11446762 -0.118136555 0.1131189
000390 a5 3e f8 3d 9d 74 b1 3d 7b b9 bb 3e 51 64 05 be
       0.121213235 0.0866482 0.36664948 -0.13026549
0003a0 11 23 ae 3e 5a 4b 0b be b4 7d b7 3e 37 f9 39 3e
       0.3401113 -0.13602963 0.3583809 0.18161474
0003b0 8f 6a 15 be af f1 b4 bd ce 30 7e 3e 30 7f 03 bd
       -0.1459143 -0.0883516 0.24823305 -0.032103717
0003c0 25 79 9f bd 37 1a 1a 3d 2c 3d 1c 3e b6 6b bf be
       -0.07786778 0.037622657 0.1525771 -0.37386864
0003d0 89 ea 67 3e c6 cd 08 3e fb 2d a9 3e 41 b8 bd 3e
       0.22648062 0.13359746 0.33042893 0.37054637
0003e0 c7 24 c7 bd eb e1 de bd f3 57 d5 bd b8 de 14 3e
       -0.097238116 -0.10882934 -0.104171656 0.14538085
0003f0 4e 92 87 3d ff 24 ce bd 36 2e bb 3e 45 8f 56 3e
       0.06619702 -0.1006565 0.36558694 0.2095309
