PonziShield_tr_v2_gpu.pth (torch, 408246 bytes, 110 tensors)

weight f4 [108, 11]
00000000: 7c11 18c0 4e7b 77bf 59e7 933d 5187 7cbe
00000010: bc3a 5e3f 41d0 7b3f 4b9a 2f3f e25f a53e
00000020: 734a 6fbf 2eaa 86bf 1cca b5bf a82c d13e
00000030: 3049 663e a797 36c0 eafb 1a3f f9ea 4fbf
00000040: e914 093f 2c52 9abf a094 1040 f6b5 83bf
00000050: 7597 493f 86a2 58bf 85c6 4d3f 4f80 023f
00000060: 3502 54bf c621 8abe 4624 683f da57 22bf
00000070: 0367 3fbf 87a9 c3bf 2ddd 96bf 4356 4c3f
00000080: 43dc 823f bd50 ecbf 2ec1 f93e 6c19 793f
00000090: e068 9f3f 184e f03e 62f1 3bbf 88d1 e53e
000000a0: 0652 913f 153e 4b3e 836f 80bf 2e22 39be
000000b0: afa0 eabf eda1 9abf d557 5dbf b453 6abf
000000c0: d6f9 a53c 6295 0440 62b3 fdbe 885d 803f
000000d0: d3fd 573f 6697 7fbf 9b48 5f3f 98e9 193f
000000e0: ebf8 22be f7b1 97be 3df7 1abf 469b b73e
000000f0: cd40 793f f257 0840 c6a1 e43f 2dfe 92bf
00000100: c2b2 16be 6364 a63e 68df 263f c53d 343e
00000110: 7a5f 3f3f e49a 2d3f be97 27c0 6fd1 043f
00000120: a016 22bf c86e 7ebf bc8b 043e c162 db3f
00000130: 36e3 63bf 406d f2bf 60fd 9ebf 5a3e cd3f
00000140: 3324 2a3d 9f91 2a3f 943e 313e 964d c0be
00000150: 3a1c 0740 2be9 fb3f b5ef 73bf 81a7 f83d
00000160: 1b20 f9bf 061b 47bf fd5e f7be ae1a 7c3f
00000170: fd5a e13f ee37 04bf 8b0a 3fc0 3c38 c9bd
00000180: ca1a bbbf 3090 cbbe 3830 e4bf f179 0b40
00000190: 3f5e 1e3e 96e9 22bf 40ef 933e 4830 0f3f
000001a0: e120 2e40 b7bf 9fbf b4f0 36bf 777d cfbf
000001b0: 41e7 003e 6c89 673f c221 603f 56dc 05be
000001c0: 2c9c 1cc0 1313 263e cf43 9f3f 6600 a53b
000001d0: 9192 933f accd 81bf 10ff 68be 6471 e83f
000001e0: 362d 8cbe 6fed 0bbf e65b b5be 0b89 83bf
000001f0: 5ffd aabd e6fb 453f 484a 083f 40ee c1bf
00000200: ae94 0bbf 63d9 6fbf 5642 bdbf a23b 2b3e
00000210: 950c 04bf cdd7 a23f e365 603f 5315 36be
00000220: 05af a23e e28a f2be 6c74 02bf abe1 d4be
00000230: 5c8a 10be 96a8 1a3f eac3 2fbf 369c 01bf
00000240: b9c0 583f 3a7c bc3f 1568 b63f 68db 0f3f
00000250: 5789 e5bf acbd 7d3e 4758 16bf 1cc7 9c3f
00000260: 2597 5bbf 6df8 b0bf c4e4 633f 1c47 99bf
00000270: 5b4e 353f 5e64 45c0 7bad 8abe 494b b13f
00000280: 72aa 353e 029e c9be ad4b 9b3e f207 a63f
00000290: 9f9d c03f aab4 e23e 71c3 283e ea20 4e3f
000002a0: 09a8 adbe a337 acbe fef3 ccbe 31b6 88bf
000002b0: 1799 723d 64e9 053f 89a1 a23f 4c32 dcbd
000002c0: 11ee 803f 3747 4bbf da41 d93e 3ee8 243f
000002d0: 0363 853e b003 27bf e577 b13f 0cea 063e
000002e0: 15c9 91be 4dfd 30bf 326b dfbe 3875 00c0
000002f0: d9b5 053d d88c 0b3f 2717 82bf f18a e3be
00000300: 37cd 18bf 1386 c83e 8a4e e3bf 0e3c 93bf
00000310: 62c3 1fbf 2681 38be 653e 99be b3c2 f5be
00000320: 72bd cabf 57d3 1bbf efd1 493f 4aea ffbe
00000330: 4c99 f9be 5f46 17bd aa61 47be c6a8 fabe
00000340: e52f 06be 2ff5 7fbe 7516 e8bf ed76 7d3d
00000350: 5587 09be 0140 33be c885 bc3f a7c6 0ac0
00000360: ebaa e43e 8be8 83be e26e 643f 5691 4ebe
00000370: 5a5a 73bc 549b 03c0 2c99 4dbf 5609 63bf
00000380: d4bf 033f 8e52 3ebf c473 173e 571d 7ebf
00000390: 8294 c5be e93f 2ec0 3328 10be 189d 113f
000003a0: 1117 e6bf 1dca a33c ef63 b13e b545 c2bf
000003b0: 2251 763f 127c 82bf 8d36 07c0 19ad 08bf
000003c0: 4284 be3f 3349 983f 7d65 edbf e399 7fbf
000003d0: 3f41 95bf 649a 8b3d ee92 22be 1075 80be
000003e0: d1b9 6c3f e494 9bbe f4df 3c3f 5811 d73f
000003f0: 639f 47bf de0a 4f3e 1022 4bbf c1c4 dabd
-2.3760672 -0.96672523 0.072218604 -0.24660994 0.8680837 0.98364645 0.6859481 0.32299715
-0.93472975 -1.0520685 -1.4202304 0.40854383 0.22488856 -2.8530061 0.6054064 -0.81217915
0.5354753 -1.2056327 2.2590714 -1.0289905 0.7874673 -0.8462299 0.8038104 0.50977033
-0.8281587 -0.26978892 0.9068035 -0.634153 -0.7476656 -1.5286111 -1.1786247 0.79819125
1.0223469 -1.8462139 0.48780197 0.97304416 1.245388 0.4693458 -0.73415196 0.44886422
1.1353157 0.19847901 -1.0034031 -0.18079445 -1.8330287 -1.2080666 -0.86462146 -0.9153397
0.020260733 2.0716176 -0.4955092 1.0028543 0.8437168 -0.9984039 0.8722016 0.6012206
-0.15915267 -0.29627964 -0.60533506 0.35860652 0.97364503 2.1303678 1.7861869 -1.1483818
-0.14716628 0.32498464 0.6518464 0.17601688 0.7475506 0.6781447 -2.6186366 0.5188207
-0.63315773 -0.9938779 0.1294393 1.7139512 -0.8901857 -1.893959 -1.2421074 1.6034653
0.04153843 0.6662845 0.17309028 -0.37559193 2.1110978 1.9680532 -0.9528764 0.12141324
-1.9462923 -0.7777561 -0.48314658 0.9847821 1.7605892 -0.5164784 -2.9850185 -0.09825179
-1.461755 -0.39758444 -1.7827215 2.1793177 0.1546564 -0.63637674 0.2889347 0.55933046
2.7207568 -1.2480382 -0.71461034 -1.6210164 0.12588216 0.90444064 0.8755151 -0.13072333
-2.447032 0.16218214 1.2442569 0.005035448 1.1529104 -1.0140891 -0.22753549 1.8159604
-0.27378243 -0.5465917 -0.35421675 -1.0276197 -0.08349108 0.7733749 0.53238344 -1.5150833
-0.5452374 -0.9369108 -1.4785869 0.16721967 -0.515817 1.2722107 0.87655467 -0.17781572
0.31774154 -0.47371584 -0.50958896 -0.4157842 -0.1411528 0.6041349 -0.68658316 -0.50628984
0.8466907 1.4725411 1.4250513 0.5619416 -1.7932538 0.24779385 -0.5872845 1.2248263
-0.85777503 -1.3825814 0.89020944 -1.1974826 0.70822686 -3.084251 -0.2708548 1.38511
0.17740801 -0.39378363 0.30331174 1.2971175 1.5048102 0.4427846 0.16480805 0.8051897
-0.33917263 -0.33636197 -0.400299 -1.06806 0.05922803 0.5230925 1.2705547 -0.10751781
1.0072652 -0.7940554 0.42433053 0.64416873 0.26052102 -0.6524 1.3864714 0.1317522
-0.28473726 -0.69136506 -0.4363647 -2.0071545 0.032644127 0.54511786 -1.0163316 -0.4444194
-0.59688133 0.3916479 -1.7758343 -1.1502702 -0.62407506 -0.18018016 -0.29930416 -0.48000106
-1.5839064 -0.60869354 0.7883596 -0.49983436 -0.4874977 -0.036932345 -0.1947085 -0.4895689
-0.13104208 -0.24995874 -1.8131853 0.061880995 -0.13430531 -0.17504884 1.4728327 -2.1683748
0.4466165 -0.25763354 0.89231694 -0.20172629 -0.014853084 -2.0563555 -0.80311847 -0.8868612
0.5146458 -0.7434472 0.14790255 -0.9926352 -0.38589865 -2.7226508 -0.14077835 0.5688033
-1.7975789 0.019993836 0.34646556 -1.5177523 0.9621755 -1.0194113 -2.1127045 -0.53389126
1.4884112 1.1897339 -1.8546597 -0.9984419 -1.1660537 0.06816557 -0.15876362 -0.25089312
0.92471033 -0.30387032 0.73779225 1.6802168 -0.7797758 0.20218989 -0.7934885 -0.10682059

in_proj_weight f4 [33, 11]
00000000: 3ba4 36be 25f6 623e a202 91be 80c9 d13d
00000010: bb32 6cbe eb9d 9e3e de7e 333e 03a3 a0be
00000020: 5ab9 923d faca e73d 82b0 b83e 82c6 ba3d
00000030: 1e69 fa3d ba0e 0dbe c0a9 9c3d 33c1 ff3d
00000040: d772 733e ffe0 13be 66f5 ccbe ab7c 30be
00000050: 08d8 943e 65a1 2e3e 8f4e 3ebe e70d 15be
00000060: 55e7 743e 51e8 1dbe b067 fd3d 3245 a83e
00000070: 32d3 c6bd c184 10be 5586 c0bd 526a 23be
00000080: d56c 88be a284 4e3e 09ef b4be 04b9 74be
00000090: abdc c1bd 8c69 6a3e b264 6ebe 8f54 203e
000000a0: 072f 9c3c 4d10 043e 50f8 b63d 02c6 bcbe
000000b0: d15a 8b3c 8d9a c1be e8d0 3b3e 5af3 51be
000000c0: 3153 783e b1ae 923e 52ec 0abe 18c8 963d
000000d0: 5121 183d bffd d6be 18cd 883e 08f1 e0be
000000e0: bdde 14bd 2400 203e 7915 15be ae1f fbbd
000000f0: d91c c9bb ae1c 0b3e fdb0 b63e f015 223e
00000100: a369 a7be 9b3f bfbd 3df7 b73d e6d9 6c3e
00000110: 2124 44be 1731 673d a296 243e 02f3 96be
00000120: 42b8 9b3d 207b 5dbe fc03 b3bd 8401 03be
00000130: 846a 02be 5727 3ebe 838d c43b cfe2 ac3a
00000140: f0fd 10be 024a 613d f59d 7b3d 10e1 16be
00000150: 56f3 043c a966 843e aaf3 2a3e aa54 08be
00000160: d454 c3be 8ae7 acbc c0c3 513d 33ec 1dbe
00000170: 7f64 f7bd 6e60 91be 2a98 aabe b329 d7be
00000180: 93b8 113e 394d b9be 7201 b03d 9dcd 2f3e
00000190: d010 d8be c0cf f13d 434e 153e 7d5e 82be
000001a0: ec81 bd3e cbf2 3c3e 3eaa 6e3e 29e5 24be
000001b0: 0639 72be d0c3 9e3e 6305 bcbe 80fa eabd
000001c0: 8aaf bd3c ef83 a4be 3f8c 17bd 6893 b33e
000001d0: 2677 b13e 3615 c3be 41a7 c33d 243e 303c
000001e0: 75b2 123f 6b05 8dbe 2300 903e edca 813d
000001f0: 06f7 73ba 6d41 f63d f3eb d43d 2cf7 74bd
00000200: 26a9 163e 5419 d43e 92b5 82be 8dde 9ebe
00000210: 9f82 8d3e 60ed 43be 3e8e d8be bf78 923c
00000220: 3e35 33be bbd0 b7bc b759 61bd 450c 8bbe
00000230: 336c 9abe 248c 463d 12d2 2b3e 1fc4 53be
00000240: dcef 7cbe ab9f b2be 7194 ad3e 4be8 f43e
00000250: 349e fe3e 7855 ee3d f60b bdbc 8ccb aabe
00000260: 0ece 873e 2e16 dabe 101b 7b3e 47a0 99be
00000270: 76ac b0be 681a 293d 828b b2be b2c4 313d
00000280: 139e fcbd 445f 0d3e a0d9 2c3c 2eb5 b4be
00000290: 42f6 e03d 11b2 99be 86c0 203e 03a4 55be
000002a0: 8b53 25be 05f0 2c3e 5c63 42bd 1ce3 72bd
000002b0: 4fcb 2c3c 898f 78be 913c 393e 076e d73e
000002c0: 930a b63e 4227 a43e 6ef3 0bbe f3e4 69be
000002d0: a37b 223e d6e1 14bc 37cf a2be 4c46 c03e
000002e0: bd30 edbd e982 9abe 7083 193e 921d 8f3d
000002f0: cb43 e13c 03ac 403e 12ad 8cbe 0e54 2cbe
00000300: 7154 a73b 0376 84be a113 843d 6fe1 c63d
00000310: 5467 0b3e 99f3 b73e 490a 203e c351 023d
00000320: 0c39 c53d 0b0c cb3e 5763 2ebe 56b2 c6be
00000330: 348b 2b3e e975 363e 3f47 eebe b62a c4be
00000340: b5f6 d13d a1e1 a33e ccd0 c2bd 40e4 b63e
00000350: e50e 5d3d ac62 853d 459e 813c 21b4 a33d
00000360: 15c6 073e 7ea1 d93d 1fdb cdbe 5801 453e
00000370: e16c 92bd 0d27 863e 0a08 fc3d 471c 8a3e
00000380: c773 64be d136 de3d 81cd c93b 1e82 7b3e
00000390: d58b 89bd b96f 833e 95e0 8e3e f6e1 cbbe
000003a0: db70 b5be 74cf bf3d cd6d 9cbe fc96 373d
000003b0: 597d ad3e a90b 0e3e 86b2 09be e20b 083e
000003c0: 60ed 00be c70e 693e 0801 b5be e61e 7fbe
000003d0: 2630 d8bd 56dd 843e 5da8 97bd 5605 98be
000003e0: e99a 2ebe ae3f 34be 8447 cbbb f98c a0be
000003f0: e849 e9bd 7366 083e 8508 0f3e 9418 e7bd
-0.17836086 0.22164209 -0.2832232 0.10243511 -0.23066227 0.30979857 0.17528865 -0.31374368
0.07164259 0.113180116 0.36072165 0.091198936 0.12227081 -0.13775149 0.07649565 0.12488022
0.23774277 -0.14441298 -0.40030974 -0.17235057 0.2907107 0.17053755 -0.18584655 -0.14556085
0.23916371 -0.15420653 0.123732924 0.32865292 -0.09708251 -0.14113142 -0.09400622 -0.15958527
-0.26645532 0.20167783 -0.3533862 -0.23898703 -0.09465917 0.22891825 -0.232806 0.15657257
0.019065393 0.12896843 0.089340806 -0.36869818 0.017011078 -0.37813225 0.1834141 -0.20502988
0.24250485 0.28648904 -0.13566712 0.073623836 0.037141148 -0.41990468 0.26718974 -0.43933892
-0.036345232 0.15625054 -0.14558972 -0.12261902 -0.006137472 0.13585159 0.35681906 0.15828681
-0.32697782 -0.09338304 0.08982704 0.23129997 -0.19154407 0.0564433 0.16073087 -0.29482275
0.07603504 -0.21629 -0.08740994 -0.12793547 -0.12735945 -0.18569694 0.005998315 0.0013190153
-0.1415937 0.05500222 0.061429936 -0.14734292 0.008114656 0.25859573 0.16694513 -0.13313547
-0.38150656 -0.0211065 0.051212072 -0.15422134 -0.12079715 -0.28393883 -0.33319217 -0.42024
0.14230566 -0.3619173 0.08594026 0.17168279 -0.42200327 0.11807203 0.14580636 -0.25462714
0.37013185 0.18451993 0.2330713 -0.16103043 -0.23654565 0.31008768 -0.3672286 -0.1147356
0.023154993 -0.32131907 -0.036998983 0.350734 0.34661216 -0.3810212 0.095533855 0.010757003
0.57303554 -0.27543196 0.28125104 0.06337533 -0.0009306524 0.12024198 0.10396566 -0.059806034
0.14712963 0.41425574 -0.25529152 -0.31029168 0.27638718 -0.1913352 -0.42296022 0.017879842
-0.17500779 -0.022438398 -0.0550172 -0.27157798 -0.30160674 0.048473492 0.16779354 -0.20680283
-0.24700874 -0.34887442 0.33902314 0.47833475 0.49730074 0.116373956 -0.023076992 -0.3335842
0.26524395 -0.42595047 0.24522042 -0.30005094 -0.34506577 0.04128495 -0.3487206 0.043400474
-0.12334838 0.13805872 0.010549933 -0.3529448 0.1098447 -0.30018666 0.15698442 -0.20863347
-0.1614515 0.16888435 -0.047458038 -0.05929862 0.010546519 -0.24273504 0.1808951 0.42076132
0.35554942 0.320612 -0.1366708 -0.22841243 0.15867476 -0.009087047 -0.31798717 0.37553632
-0.11581562 -0.30178002 0.14991546 0.06988062 0.027498147 0.18815617 -0.27475792 -0.1682894
0.0051065017 -0.25871286 0.064490564 0.09710967 0.13613635 0.35928038 0.15628923 0.031816255
0.096300215 0.39657626 -0.17030083 -0.38807935 0.1675232 0.17818417 -0.4653873 -0.38313836
0.10252134 0.3200808 -0.09512481 0.35721016 0.053969283 0.06512961 0.01582254 0.07993341
0.13259156 0.10626505 -0.4020624 0.19238794 -0.07149673 0.26201668 0.12306221 0.269747
-0.2230979 0.10850299 0.006158531 0.24561355 -0.06716124 0.25671175 0.27905717 -0.39820832
-0.35437664 0.093657404 -0.3055252 0.044821724 0.33884695 0.13871635 -0.13447008 0.13285783
-0.12590551 0.22759543 -0.3535235 -0.2491413 -0.105560586 0.25950116 -0.074051596 -0.2969157
-0.17051281 -0.17602417 -0.0062035937 -0.31357554 -0.113910496 0.13320331 0.13968094 -0.11283985

in_proj_bias f4 [33]
00000000: 133e f0bd 612b cb3d 0251 babb 53bf e4bc
00000010: a2e3 543d 7bc0 f73d 7ae4 d8bd 7ab6 14bd
00000020: d1d2 933b cdef 6dbc 11ea 03be 5f35 423b
00000030: c339 f8bb 8f18 6abc 6745 8eba 4473 163c
00000040: a37e ec3b 4a47 c9ba ba23 ddba fe88 d8bb
00000050: 969c b03a c0df 14bb 7622 ca3c c787 8cba
00000060: 4dbf 0f3d 5b69 cb3d f0b0 273c f7a6 963d
00000070: 9960 623c 98d6 673d 561d 143d 365a 1f3d
00000080: 3390 79bc
-0.1173059 0.09920383 -0.0056859264 -0.027923262 0.0519749 0.120972596 -0.105904534 -0.036306836
0.0045112153 -0.014522505 -0.12882258 0.0029633862 -0.007575245 -0.014288082 -0.0010854424 0.009182755
0.0072172447 -0.0015356329 -0.0016871609 -0.0066081276 0.0013474401 -0.0022716373 0.024674635 -0.0010721617
0.035094548 0.09932204 0.010235056 0.07356065 0.013816976 0.056601137 0.03616079 0.03890439
-0.015232134

weight f4 [11, 11]
00000000: a010 e53c 0d54 dabd 5604 2f3c b73d f2bd
00000010: 493b 423d 7767 8bbe aa39 79be 969b 47bd
00000020: aaaa 723e 97a8 dbbc a365 0e3e e6f8 17be
00000030: 82f1 b9be 2a07 1b3d 512b 14be cba9 893e
00000040: 56b1 443e 1eac 703d 9081 2cbe df27 9bbe
00000050: 0493 903d 99c7 913e 652e b53d 2961 0abd
00000060: 4f9e 493d 7b3a 87be dff8 f3bc 8aef e4bd
00000070: 605c 32bd 5866 2cbe f1c4 a9bc b501 723e
00000080: 016e 873d 7be0 213d 44e6 7d3e 2a07 773e
00000090: c924 e13d 1691 1d3c 3475 a23e 4782 14be
000000a0: 1ead cdbd 186e a23e 5bd9 863e 4f71 b2be
000000b0: cd53 9cbb afb1 7bbe 60e5 3f3d e020 a23e
000000c0: 5fca a63e 5648 c2bd cdc3 fa3c f62a 81bd
000000d0: b8e4 713e c3f9 eb3c 037f b73e e529 a23d
000000e0: 5417 ecbd 0b25 133e 16e1 f1bc 81cc 35be
000000f0: f287 bd3e 9bd2 983d 1a60 d13e 46ec 95bd
00000100: 43f6 0b3e 9923 46be 6a44 873e 7bd7 6ebe
00000110: 9957 44bd cb52 a73d da63 a0bc 3fd4 1bbe
00000120: fad1 f33c acc1 203e 7cd8 b2bd 7b8e f2bc
00000130: bda0 993e d1d5 30be f795 55be 94b3 84be
00000140: 0e0e 4e3c f0c2 4abe ca85 76be e73c 8d3e
00000150: b7e2 febb ee3c ab3d d845 06be 564a 9fbd
00000160: 76e1 4bbe e6bb 013e 5de7 263d de09 393d
00000170: 9f78 92bd e7c0 57be 4bb1 843e 9d2c 13be
00000180: 68af fcbd 45f6 583e c7bd ac3c cbef acbe
00000190: bbb0 f9bd cc6b 923e cc31 5abe 4fd0 05be
000001a0: 917a 983d 8215 b63e dfbb 2f3e e0f5 3fbe
000001b0: 08ad 05be a5bb e73d 1086 b7be 4817 ba3e
000001c0: 10b6 13be 3985 393d 7efc 593e 01fc 60bd
000001d0: b52f 91bd cc34 1ebd 023e af3e 66af 663e
000001e0: 9844 88be
0.027962029 -0.10660563 0.010682186 -0.118281774 0.04741982 -0.27227375 -0.24338403 -0.048732363
0.23697916 -0.026813788 0.13905959 -0.14841041 -0.36317068 0.03784863 -0.14469649 0.26887354
0.19208273 0.058757894 -0.16846299 -0.30303857 0.07059291 0.28472593 0.0884674 -0.033784065
0.04922324 -0.26411805 -0.029781757 -0.11178501 -0.043545127 -0.16835916 -0.020723792 0.23633464
0.066127785 0.039520722 0.2479487 0.24123827 0.10993344 0.009617111 0.31730044 -0.14502822
-0.10042785 0.3172462 0.26337704 -0.34852073 -0.004770732 -0.245795 0.04684961 0.31665707
0.32576272 -0.09486453 0.030610943 -0.06307022 0.23622406 0.02880562 0.3583909 0.07918147
-0.11527887 0.143696 -0.029526275 -0.17753793 0.3701778 0.07462045 0.40893632 -0.07320456
0.1366816 -0.19349517 0.26419383 -0.23324387 -0.047935102 0.081700884 -0.019578863 -0.15217684
0.02976321 0.1569888 -0.08732697 -0.029608956 0.30005446 -0.17269064 -0.20857988 -0.25918257
0.012576593 -0.19800925 -0.24074474 0.27585527 -0.0077784914 0.08361231 -0.13112581 -0.0777785
-0.19910225 0.12669334 0.04074799 0.045175426 -0.07151913 -0.2106968 0.25916514 -0.14372487
-0.123381436 0.21187694 0.021086587 -0.33776698 -0.12191912 0.28597867 -0.21308059 -0.13067745
0.07445253 0.35563284 0.17161511 -0.18746138 -0.13054287 0.11315087 -0.3584447 0.36345887
-0.1442492 0.045293067 0.21287724 -0.05492783 -0.070891775 -0.03862457 0.34226996 0.22527847
-0.26614833

bias f4 [11]
00000000: c0d6 5cbd 9cce f13a 05ae 67bd a395 cd3c
00000010: 72aa d33c 7d03 5d3d 2cdb 793c 51aa 8fbb
00000020: 1cac 91bb 727f 423b 2a72 903c
-0.05391574 0.0018448415 -0.056562442 0.025095766 0.02583811 0.053958405 0.015250009 -0.004384317
-0.004445566 0.0029678014 0.017632563

weight f4 [8, 11]
00000000: a0aa f1bd 7a95 0cbe 22b5 12be 794b 5b3d
00000010: a0c1 5ebe 78c2 183d d8af 0b3e 4498 afbe
00000020: ac19 a53d 7043 02bd 9a23 883d 5155 773e
00000030: 377b 0c3e ceb1 6b3d 1eb4 ac3d 6b1f 983d
00000040: df31 3f3e db1c ba3d 3d2a 8b3e 2131 b83d
00000050: b50c 843e 40f8 1e3e ea28 36be b094 063e
00000060: 8e06 a0be a26d 4a3e b073 3abe 0e61 8a3d
00000070: 3d6d ebbc fba4 47bd 0faa 743e 4bd9 02be
00000080: 857b 803e b8cb a2be bf8c 1b3c 3298 9a3c
00000090: cd9d 7f3e 5d50 75bd 572b 7cbd c4d6 6a3e
000000a0: 642a 9cbe 89c2 043e 101b 313e 65e6 1abe
000000b0: f91a 60be eebb 4abe ed68 433d 4d97 5f3e
000000c0: ea56 5bbe 10b8 d0bd 5a00 5cbe 7eb5 61bc
000000d0: d849 26bd 5dcd 673e c9ea f03b 823a 50bd
000000e0: a501 4e3e 937e 883e 2084 7ebe 2b5f 71be
000000f0: a59f 013e f61f e03d 38c7 a2bc 5167 99be
00000100: 234d d23d f07c 323c c8c3 49bd 77e9 7e3e
00000110: c564 56bd f994 53bb 4ebe 1a3d 03b7 7f3e
00000120: 552c 5bbd 6c8c 73be 3813 903d 90ac fa3a
00000130: a9b3 ccbd 6dd7 643e 2658 7e3e 1842 85be
00000140: aabe 7dbd c4ca 0fbe cdd1 7c3e ee81 4fbe
00000150: 3341 57bd 97ab 623e 4d79 94be e34b 3dbc
-0.11800122 -0.13728896 -0.14326909 0.053538773 -0.2175355 0.037294835 0.13641298 -0.34295857
0.08061537 -0.031802595 0.066474155 0.2415364 0.13718878 0.057542615 0.08432792 0.074278675
0.18671368 0.09087535 0.27180663 0.089937456 0.25790945 0.15524387 -0.17789045 0.13142657
-0.31255 0.19768384 -0.18208194 0.06756793 -0.028738612 -0.048741322 0.23892997 -0.12778203
0.25094238 -0.3179605 0.009494006 0.0188714 0.2496254 -0.059891094 -0.06156477 0.22933489
-0.3050109 0.12964834 0.1729548 -0.15126951 -0.21885289 -0.19798252 0.047707487 0.2183506
-0.21419874 -0.10191357 -0.21484509 -0.013776181 -0.040597767 0.22636934 0.0073522073 -0.050837047
0.20117815 0.26659068 -0.24855089 -0.2357146 0.12658556 0.10943596 -0.019870386 -0.29961637
0.10268619 0.010894045 -0.049258977 0.24893747 -0.052342195 -0.003228484 0.037779145 0.24972157
-0.053509075 -0.23784035 0.07034916 0.0019124914 -0.09995205 0.22347803 0.24838313 -0.26026988
-0.06194941 -0.14042193 0.24689408 -0.20264408 -0.052552413 0.22135769 -0.28998795 -0.011553737

bias f4 [8]
00000000: 23c5 773d 0388 97be f2e6 cfbd 6e66 40bd
00000010: 4bb4 083d 1686 0fbe 7a65 9abe 656c f8bd
0.06049074 -0.29595956 -0.10151471 -0.046972685 0.033375066 -0.14015993 -0.30155545 -0.121300496

weight f4 [11, 8]
00000000: 298d 61be d35f 443e ad5f 213e 1530 d3bd
00000010: 2027 4cbe 8a98 e63d f378 673e 5662 18be
00000020: 7e5f 5e3d f952 acbe 7bc3 413e ac1d 73be
00000030: 9a0b a9be 4051 303c fa04 b1bc f034 4ebe
00000040: 09c2 883e 13b8 6fbe be25 a8be cbd4 533e
00000050: 3d29 8c3e f337 323e 93ea 463e 69f0 263e
00000060: 672d 253e 1e5b 2a3e 812a b03d c8e2 9b3e
00000070: bf4e b33d ef8c 3f3d f5c5 6ebe de18 843e
00000080: 5f58 c93d 122c 793e f21f 393e 2493 47be
00000090: fff0 83be 8972 1dbd 316f 56be 97e2 ed3d
000000a0: 079d 4c3e f2b7 dbbb a4dd bf3e f732 71be
000000b0: a669 833e ace9 37be a6e8 40be ccb2 87be
000000c0: 498e 59bd f631 243e 1486 8b3e 4c53 613e
000000d0: 7205 0c3e db97 cc3d b151 a4be 31f8 6f3e
000000e0: aa79 aabe 3270 fb3d 3b11 753c db76 13be
000000f0: d230 33be 583c 063d ff6d 8abe 4be6 af3d
00000100: 5093 bfbd f150 aabb 7acf c3be 89de 173e
00000110: 4317 c1bd b7b4 993e 9803 a6be c7fc bcbd
00000120: 4d78 7b3e 4252 89bd efac 873d 58a5 7fbe
00000130: 28d5 54be e672 a83d 21f0 84be b56f 57bd
00000140: c409 d63b 9094 b1bd f30d 883e 1928 85be
00000150: a649 023e af2e 65be 32d8 04be a612 02be
-0.22026505 0.19177179 0.15759154 -0.10311905 -0.199368 0.11259563 0.22604732 -0.14881262
0.054290287 -0.33657053 0.18922226 -0.23741788 -0.33016664 0.010761559 -0.021608818 -0.20137382
0.26710537 -0.23410062 -0.32841295 0.20686643 0.27375212 0.17404155 0.1942542 0.16302647
0.16130601 0.16636321 0.08601857 0.30446458 0.08755254 0.046765264 -0.23317702 0.25800222
0.098313086 0.24333218 0.18078592 -0.19489723 -0.25769803 -0.038439307 -0.20940854 0.11615484
0.19981776 -0.0067052776 0.37473786 -0.23554598 0.2566654 -0.17960232 -0.18838748 -0.265036
-0.05311421 0.16034684 0.2725073 0.22004431 0.13673952 0.09989902 -0.32093576 0.23434521
-0.33295947 0.12277259 0.014957721 -0.14400809 -0.17499092 0.032772392 -0.27037045 0.08588847
-0.093542695 -0.0051976372 -0.3824423 0.14830984 -0.09428265 0.30020687 -0.32424617 -0.09227901
0.2455761 -0.067051426 0.06624781 -0.24965417 -0.20784438 0.0822504 -0.25964454 -0.052596767
0.006531926 -0.08670914 0.26573142 -0.26007155 0.12723407 -0.2238109 -0.12973097 -0.12702426

bias f4 [11]
00000000: 6005 c83d 91a8 6c3e 8fb8 7f3d 70e8 0abe
00000010: 6391 98bd 062e 7a3e 98a9 c33d 41b5 813e
00000020: fc08 5d3d d4ef 893d 78a3 003e
0.0976665 0.23111178 0.06243187 -0.1356523 -0.07449605 0.24431619 0.09553832 0.25333598
0.053963646 0.06735197 0.12562358

weight f4 [11]
00000000: 6bbd 8f3f 2fe2 753f 31e8 7e3f fff6 803f
00000010: 2a2e 873f b697 663f 37a2 803f 3d45 863f
00000020: 94b2 633f 2447 873f f55f 803f
1.1229681 0.96048254 0.99573046 1.0075377 1.0560963 0.9007524 1.0049504 1.048988
0.88944364 1.0568585 1.0029284

bias f4 [11]
00000000: 4f6a 32bd fe4a 663d 79d9 dbbc a385 6f3b
00000010: b38d 513d 8838 6e3d 0c4f 163c 9f9c 243c
00000020: 10f5 0abd a86d 57bd 72f9 6d3c
-0.043558415 0.056223862 -0.026837097 0.003654816 0.051160526 0.05815938 0.00917412 0.010047107
-0.033925116 -0.05259481 0.014524804

weight f4 [11]
00000000: c277 8d3f a774 6e3f a7a9 733f 0773 823f
00000010: b9aa 823f 37f5 6f3f 5b10 813f 1df4 843f
00000020: f3d7 603f a99b 8a3f a6f1 7d3f
1.1052172 0.9314675 0.95180744 1.0191354 1.020835 0.93733543 1.0083116 1.0386997
0.8782951 1.0828754 0.9919685

bias f4 [11]
00000000: c897 59bd 583b 213d 0cf4 fdbc 5b23 1a3c
00000010: 066b 1e3d c1d9 513d b2aa 853b 16f0 0a3c
00000020: 86e9 34bd 9d53 3dbd 118b 613c
-0.053123266 0.039363235 -0.03100016 0.009407843 0.038676284 0.051233057 0.0040791864 0.0084800925
-0.044168018 -0.046222318 0.013766066

in_proj_weight f4 [33, 11]
00000000: e86f 13bd 8772 aa3e 5af4 5bbe d790 e3bd
00000010: 2f99 bdbe 795a 9d3e c47b 963e 1fac e8be
00000020: d6e7 533e 0557 353e 5084 e43e 726c 46bd
00000030: 3836 af3d 6782 0cbe a8e0 df3d f55a 873d
00000040: 83e7 883e d6bd 54be 828f c0be 7204 f8bd
00000050: 4b35 ae3e f719 1f3e 2915 e5bd 87db 5ebe
00000060: ca26 863e 837a 02bd 6527 153c be12 ba3e
00000070: e299 26be 8876 55be 9c02 8bbd 61d8 03be
00000080: 299f 44be 47e7 1f3e bc26 bcbe 374d 90be
00000090: e30e 0bbe a2e7 463e b4cc 85be bc3f 8b3e
000000a0: caf0 aebc 3f68 5f3e 76ed 97bb f307 5ebe
000000b0: db1e 8dbd 4623 88be 47bb 263e 64d2 1bbe
000000c0: 2d30 8d3e 951e 9e3e 12e8 2ebe 9213 21bc
000000d0: f100 c73d 2d93 9dbe 2175 8d3e 0e49 8cbe
000000e0: f686 2ebd 023b 423e a541 c0bd 8fbf 753d
000000f0: 8c24 65bd a3a2 ca3d f35d 623e 3860 e9bd
00000100: 5f5d afbe 4cdb 82be 386a fa3c f1f0 913e
00000110: 0f83 dbbd 3936 103e 0e8c 613e b651 85be
00000120: 9d37 2f3a 8b11 63be c1bf 31be b4f6 67be
00000130: 07bf 39be 223d 56be 0150 b63d 4d05 c8bd
00000140: ba02 b5be 3b3d 263e c6bf 04bc 9eb2 bfbc
00000150: 70f8 11be 7783 973e 4ca8 fb3c 69bf 6ebd
00000160: a819 e2be 0417 f53d 81fc 0dbe 7f66 1abe
00000170: 8c6a fcbd 503f 47bd 7073 85be 4c53 9fbe
00000180: 8e53 db3d ffb6 a4be e6b8 3e3e 379c 413e
00000190: 99d3 abbe 207a ff3c 6db3 1d3e 4706 b3be
000001a0: 5386 a73e 2e92 9e3e 0885 993e 3aaf 7fbe
000001b0: b5d7 13be b9e4 7c3e db90 abbe d15f aa3b
000001c0: 308d 243e 8773 2cbe 09c6 823b 5b45 c53e
000001d0: 281c 8e3e 2af0 82be c91c de3d 9d8d 1fbb
000001e0: d10c 993e a956 f9be 9c81 273e f162 bc3d
000001f0: 733d 773e 285b a3bd de08 a6bc 0b06 84bc
00000200: 62fe d43c 3983 d03e ead0 c4be cbc3 c3bd
00000210: b95e 2f3e 56ce 3bbe 41f3 c9be 5d6e efbd
00000220: 73fd 3abe 184b eb3d d2c4 9b3d 97b5 c0be
00000230: 0e7d e1bd aea0 cabb 6c55 b3bc 260e c1be
00000240: c323 acbe 9bb2 88be ed18 cc3e 1853 8d3e
00000250: 09e9 c83e 787c 2c3e c26e 463c 94b5 67be
00000260: 49e4 983e 73a2 bbbe e9f0 4d3e cb54 5fbe
00000270: bdd1 a5be 83f8 123e 1034 bbbe 5a35 653d
00000280: 81e0 24bd 46d3 243e 3baf babc ef6f afbe
00000290: b0e0 633d 05c0 81be 706e e53d edef 8abd
000002a0: d6de 13be 9093 933e 3f09 b53c 07fd 06be
000002b0: 7907 87bd 0532 71be d471 0c3e 1535 b53e
000002c0: 65e8 bd3e 371a 8c3e 72c0 85bd 3730 f2be
000002d0: eb4a 0f3e da30 15be 84a3 91be 6a7a 683e
000002e0: 3691 02be 80a9 74be fffb 3dbd 6103 7d3e
000002f0: ff75 003e 38a6 2e3e 75e3 2fbe 5bdc 41be
00000300: 3854 cd3d 2997 83be 0fbf c63d 076c 223e
00000310: 5a3d 483e cb98 ba3e bdc6 9a3e 01c9 363e
00000320: d896 5f3c b69a c93e 4e10 92be db04 5bbe
00000330: 8b5c b33e eb28 4c3e b369 85be 88fc 40be
00000340: bc60 7e3d cc95 773e 80d0 aabd 0265 dd3e
00000350: 0f33 2a3e 10fa 3f3d c6a1 973d 81bf 4b3d
00000360: ba90 903e 2399 cebc e4ad c5be ffa1 c13d
00000370: dc66 eabc eadf 8a3e 190a 7f3d 5516 783e
00000380: 4360 8abe d0f9 ae3d 9440 d93d f613 9c3e
00000390: c3e3 1abe f477 6d3e d44f 6a3e 1506 3dbe
000003a0: 24cd 86be 730e 333e 4005 9dbe aab3 d63d
000003b0: 39ce ab3e 70a6 103e d702 b3bd 1ce1 2f3e
000003c0: d590 873d 7772 503e 062b c9be 4a0d 67be
000003d0: d175 8cbe 3790 6c3e c711 7dbe d79f 83be
000003e0: 8d65 24be 402b 81be 7893 123d 11d5 89be
000003f0: ba05 97bd 3450 fb3c 6ec8 3d3e 7085 5abe
-0.035995394 0.33290502 -0.21479931 -0.111116104 -0.37030932 0.30733088 0.293913 -0.45443818
0.20693907 0.17708977 0.44632196 -0.048443265 0.08555263 -0.1372162 0.10931522 0.066091456
0.2673913 -0.20775542 -0.37609488 -0.12110223 0.34025034 0.15537249 -0.111856766 -0.2176343
0.2620147 -0.031855118 0.009103631 0.36342424 -0.16269639 -0.20845997 -0.06787607 -0.12875511
-0.1920134 0.15615569 -0.36748302 -0.2818391 -0.13579898 0.19424298 -0.2613274 0.27197063
-0.021355052 0.2181711 -0.004636462 -0.2168272 -0.06890651 -0.26589411 0.16282378 -0.15216976
0.27575818 0.30882707 -0.17080715 -0.009831326 0.097169764 -0.3077635 0.27628425 -0.27399486
-0.042609178 0.18967822 -0.09387521 0.059997138 -0.055943057 0.09894302 0.22106151 -0.113953054
-0.34250924 -0.25557935 0.030568227 0.28504136 -0.10718357 0.14083184 0.22026083 -0.26038903
0.0006684007 -0.22174661 -0.17358305 -0.22652704 -0.18139277 -0.20921758 0.08901978 -0.09766636
-0.35353643 0.16234295 -0.008102363 -0.023400601 -0.14254928 0.29592487 0.030719899 -0.05828801
-0.441602 0.119672805 -0.13865854 -0.15078162 -0.1232501 -0.048644364 -0.26064634 -0.31118238
0.10709296 -0.32170865 0.1862522 0.18907247 -0.33559874 0.031186163 0.15400477 -0.34965727
0.3271967 0.309709 0.29984307 -0.24969187 -0.14437754 0.24696626 -0.33508953 0.0051994105
0.16069484 -0.16840945 0.003990893 0.38529477 0.27755857 -0.25573856 0.10845334 -0.0024345883
0.2989259 -0.4869893 0.16358036 0.09198559 0.24144535 -0.07976371 -0.0202679 -0.016116163
0.026000205 0.40725115 -0.3844064 -0.09558829 0.17125978 -0.1834043 -0.394434 -0.11690972
-0.18260746 0.11488932 0.076059 -0.37638542 -0.110101804 -0.0061837053 -0.021891318 -0.37706107
-0.33621034 -0.26698765 0.39862767 0.27602458 0.39240292 0.16844356 0.012111368 -0.2262786
0.29861668 -0.36647376 0.20111431 -0.2180969 -0.3238658 0.14352612 -0.36563158 0.055959083
-0.040253166 0.1609622 -0.022788635 -0.34265086 0.0556342 -0.25341812 0.11202705 -0.067840435
-0.14440474 0.2882352 0.022099135 -0.1318246 -0.06593222 -0.23554237 0.13715297 0.3539206
0.37091365 0.2736375 -0.06530847 -0.4730241 0.13993423 -0.14569417 -0.28445065 0.22702947
-0.12750706 -0.23892784 -0.0463829 0.2470832 0.12545012 0.17055595 -0.17176612 -0.18931715
0.10025829 -0.25701264 0.0970441 0.15861522 0.19554654 0.36444697 0.3022975 0.17850114
0.013646804 0.39375848 -0.28528064 -0.21388571 0.35031542 0.19937484 -0.26057205 -0.18846333
0.06210397 0.24178237 -0.083405495 0.43241125 0.1662104 0.046869338 0.07403903 0.04974318
0.28235418 -0.025219506 -0.3860923 0.094547264 -0.0286135 0.27123958 0.06226549 0.24227269
-0.27026567 0.08543742 0.106080204 0.3048398 -0.15125947 0.2319029 0.22882015 -0.18459351
-0.26328385 0.1748598 -0.30668068 0.10483487 0.33555773 0.14125991 -0.08740776 0.17175716
0.066194214 0.20356165 -0.39290637 -0.22563663 -0.27433637 0.23101889 -0.24713813 -0.25707886
-0.16054364 -0.2522831 0.03578517 -0.2692037 -0.07374139 0.030677892 0.18533489 -0.21339965

in_proj_bias f4 [33]
00000000: 7c93 813d 794b 09bd 687e e3bc 1035 833d
00000010: f7d9 b2bd 648c cebd 8f75 97bd 33be 62bc
00000020: c09f 4cbc 2940 583b 8dfd 5ebd 84d8 023a
00000030: e8fd dc3a cb3d d0b9 ffa1 1a39 76a2 22b9
00000040: a0e8 a8b8 d608 a339 d4e1 7437 17b7 f2b7
00000050: eb2d 9138 3e9d d3b7 87ea 873d 961a 8cbc
00000060: ca13 91bb c6da 8f3d 6b21 603d 4628 ae3d
00000070: 8332 223b f650 e1bb 8036 133c 3dd6 893d
00000080: df54 34bc
0.063269585 -0.033519242 -0.027770236 0.06406605 -0.0873298 -0.10085371 -0.073954694 -0.013839292
-0.012489259 0.0032997227 -0.054441024 0.000499137 0.0016860338 -0.0003971889 0.00014746933 -0.00015510045
-8.054194e-05 0.00031096366 1.4596113e-05 -2.8933906e-05 6.922692e-05 -2.5226382e-05 0.066365294 -0.01710252
-0.004427408 0.070241496 0.05471937 0.08503775 0.0024749346 -0.0068761064 0.008985162 0.06730316
-0.011006563

weight f4 [11, 11]
00000000: 22ae 26be 29d4 29be d700 993d 3974 19be
00000010: 61fa 31bd 31a0 08be 0299 36be 2a49 7fbd
00000020: 9125 6f3e 093e 06bd 9e88 f83c d0b8 84be
00000030: 89ae c5be 13ff 1b3e 9f48 71be f8b1 8b3e
00000040: 4eea aa3e eec6 be3d ccd0 85be f256 a3be
00000050: b0fe 293e b7ac 133e 1b6d b73c 0ec0 8e3d
00000060: 4987 c23d f4f0 9abe 889a 9dbd eb10 19be
00000070: 013a b73c 93cb e0bd d674 e63b 4ea3 3f3e
00000080: ca26 ba3a cb1c fa3d 579e 8c3e aab2 523e
00000090: ce94 323e b78e 923d 0f2e 213e ca7a 40be
000000a0: 3199 28bd 75cd 9b3e 07c3 493e 9af9 48be
000000b0: a609 553c 147d 77be a499 073e d5e5 933e
000000c0: 80e2 873e c801 873d 5760 833d ea4d f0bd
000000d0: 3d3b 303e cd25 443e f88f 443e 5fca ae3e
000000e0: bada 40bd e36f 0a3e 1629 103d 584f 27be
000000f0: 3b13 c73e bbf1 c73c 5338 a53e c55b c8bd
00000100: b16f 4f3e 2aa6 b3bd 353b 323e 4653 4ebe
00000110: 2c4e 55bc ce79 f33d 984d 0abc efbf 65be
00000120: 3ebb 213e d39f 803e 2bda 903c 21ff cfbd
00000130: 8c9b 303e 38f6 f4bd 0e81 65be d0f1 91be
00000140: e372 46bd 66df 52be 0cb4 23be 2437 4c3e
00000150: d0a8 86bd 06fc 13bd 6dae 9fbc 766d acbd
00000160: 1701 9bbe b91b 8b3d b689 63bd 195c a53d
00000170: 7c5d b6bc 4599 acbe 4b93 9f3e 1a50 28be
00000180: cb60 41bd d0bb 723d 04c2 7b3d f186 a8be
00000190: 162b 16be 280d 803e b39c 68be f158 70bb
000001a0: 98a3 22bd 073b a63e 4d8f 513e 5606 bcbd
000001b0: b358 8bbe 9889 8d3e f509 a1be 2faf 8a3e
000001c0: 99d5 23be c4b5 7e3b 5742 963e 6451 b9bd
000001d0: a436 47be e3f3 f3bd c1dc 973e 4310 8e3e
000001e0: 8a26 3fbe
-0.16277364 -0.16584839 0.07470863 -0.14985742 -0.04345167 -0.13342358 -0.17831805 -0.062325634
0.23354174 -0.032774005 0.030338582 -0.2592225 -0.38609722 0.15234022 -0.23562859 0.27284217
0.33381885 0.093152866 -0.26135862 -0.31902272 0.16601062 0.14421354 0.022390893 0.06970225
0.0949846 -0.30261958 -0.0769549 -0.1494786 0.022366526 -0.10976329 0.007032971 0.1871464
0.0014202234 0.12212523 0.27464554 0.20575967 0.17439577 0.07156127 0.15740226 -0.1879684
-0.04116172 0.3043019 0.19703303 -0.19626465 0.013002789 -0.24168807 0.13242203 0.28886285
0.26539993 0.065921366 0.0641486 -0.11733611 0.17210098 0.19155045 0.19195545 0.34138772
-0.047083594 0.13519244 0.035195433 -0.16338861 0.3888186 0.024407258 0.32269534 -0.09783129
0.2025745 -0.08771928 0.17405398 -0.20148954 -0.013019126 0.11888467 -0.008441351 -0.22436498
0.15794083 0.25121936 0.017682156 -0.10156084 0.17246836 -0.11961025 -0.22412512 -0.285048
-0.04844941 -0.20593032 -0.15986651 0.1994291 -0.06575167 -0.03612902 -0.019492352 -0.084193155
-0.3027427 0.06792397 -0.055551253 0.08074207 -0.022261374 -0.33710685 0.31167063 -0.16436806
-0.04721145 0.059261143 0.061464325 -0.32915452 -0.14664873 0.25010037 -0.22716026 -0.0036674107
-0.039706796 0.3246691 0.20464821 -0.09180896 -0.2721611 0.27644038 -0.3145291 0.2708678
-0.1599945 0.0038865665 0.29347488 -0.09048727 -0.19454437 -0.11911752 0.2966061 0.27746782
-0.18667045

bias f4 [11]
00000000: 17e3 52bd 8fab bd3b b2b5 08bd ec84 08bb
00000010: 978f 6e3d 6a94 593d 8a65 4e3b 09d2 67bc
00000020: 08ab 1fbc bfa1 2dbd 32ba 043c
-0.0514861 0.0057882736 -0.033376403 -0.002083118 0.058242407 0.053120054 0.0031493627 -0.014149197
-0.009745367 -0.04239058 0.008101033

weight f4 [8, 11]
00000000: b42e 93ba ba44 fbbd cc85 f1bd 8109 543d
00000010: 0fcd 82be c358 4fbd 77e6 cf3d efc5 a6be
00000020: 2e3e d93d 5db5 eabd 6107 f13d 2ba5 b73e
00000030: 13a8 743e 3d7d 8d3d 8b29 b83d 4edd 863d
00000040: 149b a33e 8765 813c b70c 6f3e a2a3 3cbb
00000050: e86e 6b3e ad42 c93d 25b7 86be e370 103e
00000060: 6b3a 52be 7dc2 453e b05e 04be 0715 943d
00000070: 8f91 36bd bb71 383d 557a 543e ca52 7fbe
00000080: 91d8 4c3e 20ca 45be 9d29 2abd 46d5 6cbd
00000090: 0847 3a3e 7a5f 31be 11e8 5cbd 6a27 833e
000000a0: a056 66be 0754 0a3e 6bd4 a03e 15aa 55be
000000b0: 167e 37be 7bb9 48be 1f92 433c 4ba0 373e
000000c0: 2c10 22be 525d 2abe 1960 5dbe b2cb b6bc
000000d0: b368 26bd 6517 a13e 3046 a23c df2e f4bb
000000e0: 40dd 5c3e 7447 703e a2a0 6abe 2ac1 79be
000000f0: b362 b83d 81d7 2f3d 5151 a7bd fa04 a1be
00000100: 917c 443e 526d d4bc 1610 4cbd a590 1b3e
00000110: bdb4 10be 5ee5 7b3c c753 4c3d c25c 8c3e
00000120: 44cf 973c dbad 0ebe e218 c23d 0b22 293c
00000130: f7c5 0ebe 2d09 693e f200 633e af76 67be
00000140: 3078 1bbd 089a 4bbd b3db 953e 22c2 a5be
00000150: a22d 84bd 3ccf 663e 3c14 73be 0fd5 c1bd
-0.0011229129 -0.12268968 -0.11793098 0.051766876 -0.25547072 -0.05062176 0.101513796 -0.32572886
0.10607563 -0.114603736 0.117689855 0.358682 0.2389224 0.06908653 0.08992299 0.06585179
0.31954253 0.015795482 0.23344694 -0.0028784056 0.22991526 0.098271705 -0.26311603 0.14105563
-0.20530097 0.19312473 -0.12926745 0.07230573 -0.04457241 0.045030337 0.20749791 -0.24933925
0.20004489 -0.19315386 -0.04154359 -0.05782058 0.18191159 -0.17321578 -0.053932253 0.25616008
-0.22493982 0.13508616 0.31412062 -0.20865662 -0.17919192 -0.19602005 0.011936693 0.1793224
-0.15826482 -0.16637161 -0.2161869 -0.022313926 -0.040627193 0.3146316 0.019808859 -0.0074518765
0.21568775 0.23464757 -0.22912839 -0.24390092 0.090032004 0.04293013 -0.08169807 -0.3144911
0.19188143 -0.025931034 -0.04982003 0.15191896 -0.14131446 0.01537451 0.049884584 0.2741452
0.01853145 -0.13933508 0.09477402 0.010323058 -0.13942705 0.22757407 0.2216833 -0.22603868
-0.037956417 -0.049707443 0.2926918 -0.32374674 -0.06454016 0.22539991 -0.23738188 -0.09464466

bias f4 [8]
00000000: 64e7 cc3d 0aa4 6cbe 3681 e0bd 1b9d 48bd
00000010: a74e 5c3d 5619 1fbe f8e7 a5be 6c53 d6bd
0.10005072 -0.23109451 -0.10962145 -0.048977952 0.053785946 -0.15537009 -0.3240354 -0.1046513

weight f4 [11, 8]
00000000: 37b5 62be b40a 2b3e 3bc9 1f3e e213 14be
00000010: 5d92 35be b8b4 c93d 25a5 5b3e 0501 18be
00000020: 3aed 263e 2dcf a4be 2f92 a63e a0c1 81be
00000030: 17c2 96be 8690 23bd 75b1 44bd 0110 12be
00000040: a154 a13e 1e16 7dbe 1528 9bbe 9b62 593e
00000050: 7ed1 903e 9148 413e 6850 543e 9cc5 213e
00000060: c351 263e 3b18 553e 81e6 3b3d 1d4e 7f3e
00000070: 319e d23d edf5 503d 18f7 44be b453 523e
00000080: d5b2 e83d 7144 973e 97d0 333e 1316 94be
00000090: 5bdd 85be d333 1dbd e46b 60be 3392 223e
000000a0: dec1 753e a044 993c 5e4d c53e 5714 66be
000000b0: 04f4 4f3e 0323 24be 7a34 7cbe cf7b b5be
000000c0: 11f9 6fbd 3012 1f3e 1c32 883e a09c 613e
000000d0: 72bb 2d3e 8438 1e3e ff52 72be 3fe6 903e
000000e0: c2f9 a1be a6c2 c73d f364 c7bc 2fe7 28be
000000f0: d591 62be 6dc2 4fbd 42a3 83be 0d64 813d
00000100: 197c cabd b0ad 30bd fd76 b6be 0856 1a3e
00000110: 421b 08be ad8b 643e bb4f acbe 5c21 cabd
00000120: 509b 853e 8885 13be 1d51 413d 08cf 8abe
00000130: 2f36 63be 145d 063e 22c4 95be fdba c0bd
00000140: 75be 22bd f325 4ebe b33d 683e 3065 6abe
00000150: 74f5 e33d 0c0c 8dbe de15 39be d0c9 25be
-0.2213944 0.16703302 0.15604107 -0.1446071 -0.17731614 0.098489225 0.21449716 -0.14844139
0.16301432 -0.32189313 0.32533404 -0.25343037 -0.29444954 -0.03993275 -0.0480208 -0.14263918
0.3150988 -0.24715468 -0.30304018 0.21229021 0.2828483 0.18875338 0.20733798 0.15798038
0.16242127 0.20810024 0.045874123 0.24932142 0.10284079 0.051015783 -0.19234884 0.20539743
0.113622345 0.29544404 0.1756004 -0.2892309 -0.26145443 -0.0383795 -0.21916157 0.15876083
0.23999736 0.01870948 0.3853559 -0.22468697 0.20307928 -0.16028981 -0.24629393 -0.3544602
-0.058587138 0.15534282 0.2660073 0.22032404 0.16966036 0.15451247 -0.23664473 0.28300664
-0.31635863 0.09753923 -0.024340129 -0.1649444 -0.22125943 -0.05072253 -0.25710493 0.06317911
-0.09886951 -0.04313439 -0.35637656 0.15071881 -0.13291648 0.22318907 -0.3365458 -0.09869644
0.26095057 -0.14406407 0.047196496 -0.27111077 -0.22188638 0.13121444 -0.292512 -0.09410665
-0.039732415 -0.20131664 0.22679786 -0.22890162 0.11130801 -0.27548254 -0.18074748 -0.16190267

bias f4 [11]
00000000: 14c1 a43d 5cb9 7c3e 17f2 3b3d b0b9 12be
00000010: 7edd a5bd 4033 703e 917a f93d ce67 663e
00000020: 8f92 fa3c c1ef a13d 8a66 e23d
0.08044639 0.24680084 0.04588517 -0.14328647 -0.08098887 0.2345705 0.12181581 0.22500536
0.030587463 0.079070576 0.11054714

weight f4 [11]
00000000: fb87 873f 4f46 823f 1616 6a3f d438 833f
00000010: 42d8 743f 906f 813f 064e 813f 143f 833f
00000020: dd27 6d3f 87bf 8a3f 03d8 803f
1.0588373 1.0177706 0.9143995 1.0251718 0.95642483 1.0112171 1.0101936 1.0253625
0.9263895 1.08397 1.0065922

bias f4 [11]
00000000: 46ae 34bd 61db 0e3d 0c41 0fbd 4db5 033b
00000010: 048a 523d 5693 6c3d 9225 9e3b 67b3 23bc
00000020: 3ff5 f8bc 7868 26bd f3ff 343c
-0.044111513 0.034877185 -0.034974143 0.0020097077 0.051401153 0.057757698 0.004826256 -0.009991503
-0.03039038 -0.040626973 0.011047351

weight f4 [11]
00000000: e966 843f af47 853f 0af4 693f 6bb0 833f
00000010: bed7 743f ae89 823f fe82 813f ea3b 833f
00000020: 4b8d 693f 68d2 843f 1ee5 7d3f
1.0343906 1.0412501 0.91388 1.0288213 0.95641696 1.0198267 1.0118101 1.0252659
0.9123122 1.0376711 0.9917773

bias f4 [11]
00000000: f50b 52bd 7505 f73c c63a ccbc 2a1a 433b
00000010: 0cf4 2c3d 4959 783d 965e b03b 6fdd 8fbc
00000020: 3ac7 3cbd e2a4 0cbd fa08 233c
-0.051280934 0.03015397 -0.02493037 0.0029770234 0.04222493 0.060632024 0.0053823693 -0.017561642
-0.046088435 -0.034336932 0.009950871

in_proj_weight f4 [33, 11]
00000000: 45ff c9bd 98c4 863e 9670 2fbe ad0d be3d
00000010: 2aeb 82be 956d a83e 8769 b63e b29f e0be
00000020: 2c73 ec3d abc3 013e 3d8f 993e d7c2 7d3d
00000030: b0c6 a03d 7913 09be f88d e73d 4312 2d3d
00000040: 99f6 493e d557 41be 83a2 b8be b0c8 aabd
00000050: 0de5 8c3e 887d 413e 2080 62bd ecec 8bbe
00000060: a3e0 573e 5234 22bd bfcf ab3c b6c1 c93e
00000070: d0cc 17be 82ec 15be 7f01 c83b 99c7 35be
00000080: 1a61 4fbe 63d1 eb3d ff39 bfbe 51f6 3cbe
00000090: b529 bcbd 9b70 7b3e ab43 4bbe 4b9c 793e
000000a0: e7e5 da3c 7daf 073e aca4 80bc c84e a0be
000000b0: 12fd 7b3d 7266 8dbe 5a0f 2a3e 0c7e 1ebe
000000c0: bc91 9a3e 1272 993e 7950 67be c919 7f3b
000000d0: e33c f93c 8bfd aabe 24fa 923e ff76 83be
000000e0: 58cd 0cbd 0c43 1a3e 9379 c5bd 2def 9bbc
000000f0: 496f b7bd 6d3a 093e 355f 4b3e 5790 74bd
00000100: 634e a6be f47d 73be 3526 0e3d a04d 5a3e
00000110: d06c 08be 0a28 383d 5598 7f3e 8ce8 8bbe
00000120: d6d2 8e3d c130 3dbe 3cda 0cbe 48e1 88be
00000130: 6955 3abe f7fa 63be 0e76 e83d 1b27 02bd
00000140: 8733 9dbe eaf7 f73d 60c3 72bd 5a6b 85bc
00000150: 0a78 9bbd 9299 a33e 6a61 f73c 0bf2 27be
00000160: b9c9 f8be 86e1 c03d cde5 87bd 31da 28be
00000170: 5e60 1abe a1c0 b4bd f8c5 7fbe b53f a8be
00000180: e53b 2b3e 7714 8cbe 0da9 183e 8a1d 663e
00000190: e538 bfbe 4a59 823d e285 313e 08ce c5be
000001a0: 0de5 b63e a55f 993e e955 8f3e 328a 26be
000001b0: 76de 93be fd9f 993e ee71 b3be 428a 3e3d
000001c0: ae2d b73d 03df 6ebe 06d5 0f3d 72dd c23e
000001d0: 025d 823e 29cf 91be eedf e03d 71fa 843d
000001e0: 1563 b63e 4674 b4be 405d 223e 2377 363e
000001f0: 4ead 333e fd5e dbbd b8d4 ff3d a8a7 58bd
00000200: 3609 af3d 49e0 963e e52a 97be f6b8 3fbe
00000210: 52a4 283e c8f9 69be bf4f a1be 375a 8dbd
00000220: 8605 f5bd a6bd c93c f473 f63d 1247 95be
00000230: 71b0 31be d1ad a0bd 5d9d 8dbd 55e0 93be
00000240: 5b12 b4be e140 acbe db9a c03e a65a aa3e
00000250: 30a7 c53e d9a0 d03d 8154 603d 347e 90be
00000260: 8527 c23e e9cb a7be 11c5 893e 2afb 37be
00000270: df10 babe ce7f 273d 343d 91be 459e 88bd
00000280: 14d6 35bd aebe 6f3e ae5f 9e3d b0bf c4be
00000290: 9c3b 363d 924f 7dbe 854c 2f3e b4cb fabd
000002a0: 8723 fdbd 66b3 803e 519f 9b39 74d5 85be
000002b0: 5998 80bd 4d98 4dbe 3f72 ed3d c20e bf3e
000002c0: 3dba 3e3e 3cb1 173e 6bb6 71be 5a46 b3be
000002d0: 2d5e 803e a5ab 643b 3eab c7bd 0ebb 993e
000002e0: fd0a 8bbe 3878 a7be f738 ce3d 3094 193e
000002f0: c56a cb3d 6f68 763e 4fab 37be 38c5 1cbe
00000300: 2276 a13d 1ef0 83be 91db c33d de5e 2c3e
00000310: 686e a03e 2fe6 ad3e df46 b93e eb1a 283e
00000320: 3191 193d f1ae a93e d77e 2fbe 4ce8 b5be
00000330: 818f 983e d61a 7e3e ac3a 73be 9ae9 46be
00000340: a25f b53d 0590 743e 607c d2bd 5630 e63e
00000350: f938 ef3d 53ec 913d 3b99 bc3d 6b2d f03c
00000360: 118e 873e 0b58 abbd fbff b9be 9bb5 cf3d
00000370: 9cd6 a6bd c2f1 9f3e f594 bc3c 5ba4 813e
00000380: 6992 99be cb56 bf3d af15 ae3d 2200 913e
00000390: cb39 42be 49cc 793e 9536 a23e 4c64 5abe
000003a0: 6899 4cbe 1ce0 863e 2985 a8be 7c61 2a3e
000003b0: d429 a03e 1275 463e ca89 49be 04cd 4f3e
000003c0: e82f f83c 94de 1b3e a886 9fbe 6b8e 89be
000003d0: 85bd 47be 0d26 933e 70f3 37be 1c04 31be
000003e0: 500a 03be 8bbd b1be 35d7 4bbd bc31 5cbe
000003f0: 6ee5 24be 6d1a ea3d 4d09 d53d 2262 2dbe
-0.09863142 0.26321864 -0.17132792 0.09279952 -0.2557004 0.32896104 0.35627386 -0.43871838
0.11545405 0.12672298 0.29992095 0.061953392 0.07850397 -0.13386334 0.11306375 0.042253744
0.19722976 -0.18881162 -0.36061487 -0.08339059 0.27518502 0.18895543 -0.05529797 -0.27329195
0.21081786 -0.039600678 0.020973084 0.39405602 -0.14824224 -0.14641002 0.006103694 -0.17751922
-0.20251885 0.11514547 -0.37348935 -0.18453337 -0.091876425 0.24554674 -0.19850032 0.24376027
0.026720954 0.13250537 -0.015703522 -0.31310105 0.061520644 -0.27617222 0.16607419 -0.1547777
0.30189312 0.2996984 -0.22589292 0.0038925281 0.03042454 -0.33396563 0.28706467 -0.25676724
-0.03437552 0.15064639 -0.09642329 -0.019034946 -0.08956773 0.13401194 0.19860537 -0.059707966
-0.3248168 -0.23778516 0.034704406 0.21318674 -0.13322759 0.04496006 0.24960454 -0.27325857
0.069738075 -0.1847563 -0.13755125 -0.26734376 -0.18196644 -0.22263704 0.11350642 -0.031775575
-0.30703375 0.12107833 -0.059268355 -0.01628654 -0.07591255 0.31953102 0.030197818 -0.16400926
-0.48591402 0.09418015 -0.06635628 -0.16489483 -0.15075824 -0.088258035 -0.24977863 -0.32861105
0.16722067 -0.27359363 0.14908238 0.22472206 -0.37348095 0.06364687 0.17336228 -0.38633752
0.35721627 0.29955783 0.27995232 -0.16263655 -0.28880662 0.30004874 -0.3504786 0.04651857
0.089442596 -0.2332726 0.035115264 0.38059574 0.25461584 -0.28478363 0.10980211 0.064930804
0.3562247 -0.3524496 0.15855885 0.17818885 0.17546579 -0.10711477 0.12491745 -0.052894264
0.08546679 0.2946799 -0.29524913 -0.18722901 0.16468933 -0.2284919 -0.31506154 -0.06901973
-0.11963944 0.024626564 0.12033835 -0.29155785 -0.17352463 -0.07845653 -0.0691478 -0.2888209
-0.35170254 -0.3364325 0.37618145 0.33272284 0.38604116 0.10186929 0.05476809 -0.28221285
0.37920776 -0.3277276 0.26908162 -0.17966905 -0.36340997 0.04089337 -0.28367007 -0.066708125
-0.044393614 0.23412582 0.07733093 -0.38427496 0.04449044 -0.24737385 0.17119034 -0.122458845
-0.12360292 0.2513687 0.00029682604 -0.26139414 -0.06279058 -0.2007763 0.11594056 0.37315947
0.18625732 0.14813703 -0.23604743 -0.3501461 0.2507185 0.0034892347 -0.09749459 0.30025524
-0.2715682 -0.32708907 0.10069459 0.14997935 0.09932474 0.24063276 -0.17936443 -0.15309608
0.0788386 -0.25769132 0.09563363 0.16833064 0.31334233 0.3396468 0.36186883 0.16416518
0.03749198 0.33141282 -0.1713823 -0.3552879 0.29796985 0.24814925 -0.2375285 -0.1942505
0.08856131 0.23883064 -0.10277629 0.44958752 0.116807885 0.071251534 0.09208914 0.029318532
0.26475576 -0.08366402 -0.3632811 0.1014206 -0.08146402 0.31239134 0.023020247 0.25320706
-0.29994515 0.09342726 0.085002296 0.28320414 -0.18967359 0.24394335 0.31682268 -0.21327323
-0.19980395 0.26342857 -0.32914093 0.1663875 0.31281912 0.19380596 -0.19681469 0.20293051
0.030296281 0.15221626 -0.31157422 -0.2686647 -0.1950589 0.28739968 -0.17963958 -0.17286724
-0.12796903 -0.34714922 -0.049765784 -0.21503347 -0.16103145 0.114308216 0.104021646 -0.16931966

in_proj_bias f4 [33]
00000000: 104d 51bc ef93 0bbc f1b3 babd 9989 8f3d
00000010: 2b6f 45bd adc4 82bc 8bfc 48bc bd7b 3b3d
00000020: d865 47bc 26c4 033d 1357 6abd 32da b639
00000030: 1175 3cba af2d 34ba 7a33 9839 5b03 993a
00000040: 7625 c538 24a4 e839 392c bd39 8164 0a39
00000050: 05be 86ba d7fb 17bb 5a03 fb3c cd65 96bc
00000060: bdba e33c 0f1b 7a3d 1af8 6a3d 848b d53d
00000070: f4f6 773c 6c20 65bc 8ea8 563c 3382 903d
00000080: ba6a 31bc
-0.012774721 -0.008519157 -0.09116352 0.070086665 -0.04820172 -0.015962923 -0.012267242 0.045772303
-0.012170278 0.032169484 -0.057211947 0.00034876313 -0.0007189075 -0.00068732625 0.00029030052 0.0011673974
9.40067e-05 0.00044372783 0.00036081838 0.00013198146 -0.0010280019 -0.002319088 0.030641247 -0.01835909
0.027799005 0.06106096 0.057365514 0.10427001 0.015134562 -0.013984781 0.01310171 0.070560835
-0.010828668

weight f4 [11, 11]
00000000: 635a 0abe 9acf 74bd 4aa1 2a3d e019 18be
00000010: e698 ce3c b11a f9bd fbcb 4bbe 1af4 4dbd
00000020: 1866 843e d5d9 3fbd 9cac 2f3d b469 90be
00000030: 715f 95be 954a 153e 8ec1 26be b90b 9c3e
00000040: 3a62 bd3e 4f10 cc3d 81c4 37be e743 95be
00000050: 956a 1b3e 0626 e43d b51e 01bd c287 ff3d
00000060: ad51 103d 2bf2 89be d869 7fbd 1675 e0bd
00000070: 9391 a2bc 92df cabd e5e2 27bc 6b99 7c3e
00000080: 29c1 08bd 1ca3 343e f71e 363e 9142 693e
00000090: 351b 0b3e dc5b 5d3c 2f24 f33d c8a4 49be
000000a0: 314c e3bd bb8e 853e 8cd4 573e 3834 3abe
000000b0: 05e0 723b a2da 40be a9e5 553e 2e11 b83e
000000c0: 4d0e 693e 7d80 b43d 00bc f13d f9e4 b5bc
000000d0: ba8e 5c3e 6fdf 503e 163d 2d3e 1073 9b3e
000000e0: 70f8 28be e72f 753e 9661 973c 6b40 48be
000000f0: 53c5 973e c970 363d 6108 ba3e cae8 19be
00000100: 9e22 473e 72e8 19bd 0909 153e 4234 4dbe
00000110: 5806 22bd c6c0 0b3e 440f f9bc 3c04 92be
00000120: dddd 373e 35e0 393e a931 c93d ae5f 1dbe
00000130: da69 193e ed28 96bd 0de3 77be 1196 7cbe
00000140: 0658 e2bc e034 63be 6e5d 37be 6e70 643e
00000150: 85da 63bc 25c9 86bc a92f 26bd 2663 babd
00000160: 9a51 84be 150a 8c3d 20ff 9dbd 2bfd ee3d
00000170: a7eb 02bd 5286 b1be 59cb 833e 14cd 65be
00000180: 5d35 5abc 1c3b cb3d f224 9a3d 9802 a1be
00000190: d96f 0fbe 9967 1b3e bcf3 72be 9ed8 023d
000001a0: 184e 623c 2dbb 923e 7e4e d23d 4491 15be
000001b0: edca 80be a7d0 723e ee82 9cbe 59a5 8d3e
000001c0: b465 38be 3160 1ebd 121f 973e 098e abbd
000001d0: f9a9 5bbe 1d0b 11be 61c3 6d3e c053 9e3e
000001e0: 3eb9 53be
-0.13511042 -0.059768297 0.041657723 -0.1485362 0.025219392 -0.12163294 -0.19902031 -0.05028162
0.2585914 -0.0468386 0.042889223 -0.28205645 -0.2917438 0.14579232 -0.16284773 0.30477694
0.36989003 0.09964048 -0.17946054 -0.29153368 0.15177377 0.11140065 -0.031523425 0.124770656
0.035234142 -0.26942572 -0.0623568 -0.10959832 -0.019844806 -0.09905924 -0.010246967 0.246679
-0.033387337 0.17640346 0.1778525 0.227793 0.13584597 0.0135106705 0.11872136 -0.19691765
-0.11098517 0.26085457 0.21077174 -0.18183982 0.0037059796 -0.18833402 0.2088839 0.35950607
0.22759362 0.0881357 0.11803436 -0.02220391 0.21538821 0.20397733 0.16917834 0.30361223
-0.16501021 0.23944055 0.01847915 -0.19555824 0.29642734 0.044541154 0.36334518 -0.15030208
0.19446799 -0.037575193 0.14554228 -0.20039466 -0.03955683 0.13647756 -0.030402787 -0.28518856
0.17955728 0.18151934 0.09823925 -0.1536853 0.14981785 -0.07332025 -0.24207707 -0.24666621
-0.027629863 -0.22188139 -0.17906734 0.22308514 -0.01390708 -0.016453335 -0.040572796 -0.09100942
-0.25843507 0.068378605 -0.07714677 0.11669382 -0.031963017 -0.3467279 0.2574108 -0.22441512
-0.013318387 0.099233836 0.07526578 -0.3144729 -0.1400751 0.15176238 -0.2372579 0.031944863
0.013812564 0.2865843 0.102688774 -0.14606196 -0.2515482 0.23712407 -0.3056864 0.27665213
-0.18007547 -0.038665954 0.29515892 -0.083767004 -0.21451558 -0.14164396 0.23219062 0.3092327
-0.20676133

bias f4 [11]
00000000: 0291 ddbc 21d4 dd3c 94f3 8cbc 693c 143b
00000010: 6e7d 723d 7022 783d b530 bdbc 2254 afbc
00000020: 4f81 13bb e94e 1abd 7fd0 843c
-0.027046684 0.02707869 -0.01720599 0.0022619015 0.05920165 0.060579717 -0.023094514 -0.021402422
-0.0022507494 -0.03767291 0.0162127
