PonziShield_tr_v4_gpu.pth (torch, 408246 bytes, 110 tensors)

weight f4 [108, 11]
2.7528522 -1.4687665 -0.905118 -0.24318096 0.12889844 -0.9871819 -0.09466421 0.90894794
0.12761708 1.6233246 0.6264063 -0.30894148 1.6090003 2.7246587 3.0179923 1.7730503
0.4466994 -0.27811003 1.4037304 0.35663092 -1.1192971 0.67538273 -0.4812044 1.8812326
-1.6880783 1.0508968 -1.1908046 0.5085117 0.43315017 -1.4711212 -0.28461656 3.3013604
0.49623004 -0.3577953 0.11833255 -0.21357085 -2.4570718 -0.42059326 -0.9273765 0.15632728
0.65938455 -1.16911 0.41386107 0.052930437 1.2199033 -1.0993373 0.3553703 0.024973596
0.40991375 1.1419482 0.14744894 -0.9022024 0.72870666 -0.28131667 -0.7903635 0.20207228
0.7252227 1.4126737 0.40589637 -0.819349 -0.24341308 -0.7438895 -0.25489527 0.9413259
1.9495225 -0.14157614 0.16514587 1.0266398 -1.4005935 -0.53549975 -0.8290037 0.45974064
0.076706156 -0.33741438 -0.7604527 1.8966182 1.0518703 -0.4551093 1.5894458 -0.29502952
-1.0873437 0.6960719 -0.25241804 -0.93299425 -2.3531332 0.92187697 0.50175244 0.5951811
-1.1137729 2.7688823 1.1830266 -0.14154539 1.3731605 1.7726095 -0.84575325 -2.3231227
-1.3805006 1.1029488 1.7935764 1.2441986 -0.79536676 0.57096964 -1.2712919 -1.8949441
-0.08281958 0.7105624 -0.08277947 0.41749978 -0.5486362 -0.13077691 0.22744593 0.2870433
-2.2250605 0.9234377 0.5802803 0.20419131 0.4473077 -1.200184 1.726242 -0.75350183
-1.3649541 -0.16389756 0.11385262 -0.59390825 -1.16494 1.6421303 -1.0284222 0.5767211
0.6585382 1.266574 0.82712287 1.7971045 1.5419207 1.5256001 -0.8511 -2.024058
-0.51438224 0.48392197 0.70065176 0.208365 -0.4070264 0.11560236 1.0225236 1.5167176
-0.8165492 0.51414615 -0.946848 1.1855172 -0.28902882 0.7766256 0.42424503 0.21038496
1.0704141 -1.1443694 -0.5116267 -0.3936815 -0.60933375 -0.23349105 1.1782482 -0.049308002
1.0682925 -0.07118389 0.86084354 -0.4767763 -0.33752006 -1.3454003 -1.996543 -1.5232959
0.5328571 1.4864429 -0.17785318 -1.9122326 0.35962555 -1.1660763 0.3562677 1.6967531
-0.9500223 0.45697832 -1.7142942 0.7500728 -0.07989108 0.6577304 -0.96111894 -0.68359405
-0.6329322 -0.14366907 0.47955966 -0.36574322 1.5065972 1.124219 0.77353895 -0.47476542
-1.0470603 -0.8333332 -0.10411937 -1.073013 -1.3910737 -2.1530807 -0.7133146 0.1396433
0.14085242 2.1096344 1.4421861 0.13585874 -0.3452863 -1.2444122 1.4242331 1.9497126
-1.228214 -0.7881385 1.0461113 0.6565048 1.5182099 1.043778 -0.21439983 1.4996737
0.09006879 0.37705266 1.5239547 0.17283756 0.19271274 -0.91610765 -1.1419224 0.8871725
-0.090351254 1.0254484 1.7782705 -0.15892096 -0.8975335 -0.46377507 0.9260315 0.03608205
0.626656 -0.11529051 -1.0033071 0.628461 -0.2864243 0.9285837 0.017959647 -1.5522182
-0.49285725 0.7238221 -1.4927197 0.9126453 1.1257478 0.07329723 -0.9260854 0.14706062
-1.091216 1.1757362 0.5873092 1.1718317 -0.70341223 1.6950488 0.00478825 0.9482306
00000000: bb2e 3040 8a00 bcbf d0b5 67bf 6e04 79be
00000010: f4fd 033e f4b7 7cbf 4fdf c1bd d0b0 683f
00000020: 0dae 023e 1ac9 cf3f 2a5c 203f 942d 9ebe
00000030: b9f3 cd3f cf60 2e40 c926 4140 50f3 e23f
00000040: c9b5 e43e 7064 8ebe 70ad b33f 5498 b63e
00000050: 2145 8fbf e2e5 2c3f 6c60 f6be 3bcc f03f
00000060: f312 d8bf c983 863f 496c 98bf d32d 023f
00000070: dcc5 dd3e b34d bcbf 43b9 91be 7d49 5340
00000080: dd11 fe3e f230 b7be 5658 f23d 51b2 5abe
00000090: aa40 1dc0 0058 d7be 8c68 6dbf 4214 203e
000000a0: 6dcd 283f 65a5 95bf 99e5 d33e 96cd 583d
000000b0: cb25 9c3f 16b7 8cbf 19f3 b53e 6d95 cc3c
000000c0: 37e0 d13e 5c2b 923f dbfc 163e bdf6 66bf
000000d0: 858c 3a3f bd08 90be 4355 4abf 09ec 4e3e
000000e0: 32a8 393f 7ed2 b43f a6d1 cf3e dbc0 51bf
000000f0: 4741 79be 8b6f 3ebf a281 82be bcfa 703f
00000100: f489 f93f 56f9 10be 001c 293e ef68 833f
00000110: a646 b3bf 8316 09bf 9639 54bf 2063 eb3e
00000120: 1e18 9d3d 94c1 acbe 07ad 42bf 63c4 f23f
00000130: b0a3 863f 1604 e9be f672 cb3f 1c0e 97be
00000140: 142e 8bbf c531 323f f03c 81be b6d8 6ebf
00000150: bc99 16c0 2100 6c3f d972 003f ca5d 183f
00000160: 1c90 8ebf 5e35 3140 6a6d 973f 46f1 10be
00000170: b9c3 af3f dee4 e23f 4983 58bf 0bae 14c0
00000180: 3eb4 b0bf 6d2d 8d3f e993 e53f e641 9f3f
00000190: 289d 4bbf 112b 123f b1b9 a2bf 878d f2bf
000001a0: 509d a9bd 6be7 353f 4888 a9bd 88c2 d53e
000001b0: 6c73 0cbf 62ea 05be 96e7 683e 57f7 923e
000001c0: 6467 0ec0 6a66 6c3f 408d 143f 8717 513e
000001d0: 8405 e53e a19f 99bf 7ff5 dc3f 7fe5 40bf
000001e0: d1b6 aebf c3d4 27be 902b e93d 5f0a 18bf
000001f0: c11c 95bf 5331 d23f 57a3 83bf fea3 133f
00000200: f695 283f 191f a23f 53be 533f 8507 e63f
00000210: a85d c53f dd46 c33f b1e1 59bf 2b8a 01c0
00000220: 8eae 03bf 9fc4 f73e ea5d 333f a25d 553e
00000230: c465 d0be eec0 ec3d 0ee2 823f cd23 c23f
00000240: 5e09 51bf 159f 033f a164 72bf 07bf 973f
00000250: 96fb 93be efd0 463f a536 d93e 286f 573e
00000260: 5403 893f b27a 92bf f8f9 02bf 9f90 c9be
00000270: 4cfd 1bbf 4718 6fbe d6d0 963f 30f7 49bd
00000280: cfbd 883f dcc8 91bd 3e60 5c3f 061c f4be
00000290: 6ecf acbe 1436 acbf b98e ffbf 5cfb c2bf
000002a0: 5369 083f c343 be3f 251f 36be 0ac4 f4bf
000002b0: d720 b83e fd41 95bf b868 b63e 352f d93f
000002c0: a934 73bf 10f9 e93e fe6d dbbf c504 403f
000002d0: ef9d a3bd 0561 283f e40b 76bf 0500 2fbf
000002e0: d807 22bf fc1d 13be d888 f53e b242 bbbe
000002f0: 2dd8 c03f 68e6 8f3f a606 463f 7414 f3be
00000300: 1206 86bf 5355 55bf 893c d5bd 7d58 89bf
00000310: b40e b2bf 13cc 09c0 c99b 36bf a7fe 0e3e
00000320: 9e3b 103e 4004 0740 8e99 b83f 8e1e 0b3e
00000330: 5ec9 b0be e648 9fbf 454d b63f 2f90 f93f
00000340: 1e36 9dbf 72c3 49bf fae6 853f b310 283f
00000350: b454 c23f 849a 853f a18b 5bbe 4ff5 bf3f
00000360: fc75 b83d 0c0d c13e f310 c33f 54fc 303e
00000370: 7d56 453e 0886 6abf 832a 92bf bd1d 633f
00000380: 140a b9bd e541 833f 5e9e e33f 2dbc 22be
00000390: c1c4 65bf ed73 edbe 6610 6d3f c6ca 133d
000003a0: 876c 203f 6e1d ecbd 5e6c 80bf d2e2 203f
000003b0: 35a6 92be a9b7 6d3f 1c20 933c 16af c6bf
000003c0: c957 fcbe 684c 393f 7011 bfbf 1fa3 693f
000003d0: 8118 903f dc1c 963d ef13 6dbf 0f97 163e
000003e0: f7ac 8bbf 867e 963f e559 163f 95fe 953f
000003f0: d312 34bf 5cf7 d83f c1e6 9c3b 3ebf 723f

in_proj_weight f4 [33, 11]
-0.14006661 -0.5336906 0.29002598 0.26446998 -0.17260605 0.14175422 0.1490619 -0.37919584
-0.36483106 -0.22864519 0.3370351 -0.15696512 0.16767362 -0.1570494 -0.22454998 0.301471
-0.17755328 -0.1603633 -0.13249616 -0.016178675 0.15378611 -0.018637042 -0.16764803 0.15097931
0.06582726 0.28576842 -0.17231895 -0.09107279 0.09499351 0.13664825 -0.30462977 -0.01907099
0.14666793 0.25889197 0.12245846 -0.007305552 -0.22957572 0.36230937 0.14856626 0.38233966
-0.16403323 0.10501824 0.3550924 0.0605578 -0.21023898 0.1894928 0.15462154 -0.29710773
-0.06126526 0.05314376 -0.20130548 0.102043346 -0.0065110796 -0.26345742 0.13252734 0.39431903
-0.29495966 0.14924769 0.37072593 0.19696437 -0.40848777 -0.1894472 -0.20372392 0.21405298
0.2259104 -0.2608509 0.29469037 0.114495784 0.10051729 -0.16828981 -0.07978885 -0.0966576
0.37179404 0.45909485 -0.11195075 -0.05202652 -0.3271908 0.27248245 -0.01290197 -0.15501246
0.30282152 -0.2875782 -0.23078312 -0.59568065 0.057765823 -0.14632301 0.15033536 -0.46977487
-0.27824786 0.3321726 0.13594009 -0.19410166 0.1580612 0.16893013 0.017723422 0.07450154
-0.3150655 -0.12795791 -0.3442366 -0.51422364 0.27585512 -0.3005501 -0.23525411 0.08923207
-0.21485546 0.18438448 0.20527498 0.074521914 -0.22145443 -0.38535976 -0.3008692 -0.2108818
-0.18773024 -0.12831193 0.1464786 -0.22521159 0.17577007 0.14542973 -0.4820876 0.11699849
-0.36883622 -0.004415545 -0.26669043 0.25873864 0.6372941 0.29767933 0.33688006 -0.21144788
-0.09545519 0.0055938466 0.4037692 0.30343446 0.1260634 0.09817181 -0.33486974 -0.37982434
-0.32570305 0.35015252 -0.3457156 -0.20602874 0.08372121 -0.1008809 -0.24467257 0.31313384
-0.14003295 -0.2659615 -0.2298209 -0.34801048 0.20621558 0.3116951 -0.4051231 0.04074034
-0.40807334 -0.2692598 -0.072697766 0.14080498 -0.0033428576 0.026794557 0.27159172 0.08890006
-0.1141053 -0.50062466 0.1074195 -0.3439055 0.1980584 0.1205513 0.14083642 -0.012322569
0.22793287 -0.2950287 0.2651844 0.19408804 0.11789395 0.39438185 -0.39337522 0.13256001
0.11031447 -0.23685707 0.28410894 -0.2093306 0.43270263 -0.28014818 -0.19153085 -0.053404726
0.23595525 -0.3289195 -0.14182927 -0.30516973 0.29437062 0.071595706 0.31534088 0.02282788
0.1297402 0.26077396 0.3572349 0.21755734 0.20702595 0.19422276 -0.2016681 0.114731304
0.16790253 0.30021155 -0.44637057 0.2492415 0.14413019 -0.18935949 -0.43428412 0.12490182
0.19802205 0.025520021 0.080109306 0.064070724 -0.26124462 -0.3144531 -0.07108263 -0.18053187
-0.013650919 0.32324538 -0.3381311 0.21071519 -0.19167642 -0.35109502 0.0041772057 -0.25582495
-0.013141562 -0.22614244 0.23175795 -0.017020635 0.20960063 0.33962786 -0.29333436 0.21878381
-0.07317891 0.34570646 -0.37706977 -0.43008614 0.21249488 0.0014114738 -0.0457905 0.6414642
-0.15921828 -0.45126516 0.106169745 0.17869817 0.19409813 0.059297062 0.27036622 0.27098408
0.38785452 0.18839325 -0.33131364 0.30295542 -0.018423053 -0.0947809 -0.12362302 -0.16443546
00000000: 9f6d 0fbe f29f 08bf 497e 943e 9c68 873e
00000010: a4bf 30be 0528 113e afa3 183e f525 c2be
00000020: 23cb babe f721 6abe dd8f ac3e 77bb 20be
00000030: a2b2 2b3e 8fd1 20be 6ef0 65be 685a 9a3e
00000040: 87d0 35be 4736 24be 13ad 07be 2489 84bc
00000050: 1b7a 1d3e b6ac 98bc edab 2bbe 529a 1a3e
00000060: 71d0 863d 3d50 923e 6174 30be 5f84 babd
00000070: f58b c23d 85ed 0b3e 6ff8 9bbe c43a 9cbc
00000080: 1e30 163e 7d8d 843e 80cb fa3d 6963 efbb
00000090: e615 6bbe 9d80 b93e c121 183e 06c2 c33e
000000a0: 54f8 27be ce13 d73d acce b53e 750b 783d
000000b0: e348 57be 670a 423e 1c55 1e3e 811e 98be
000000c0: 48f1 7abd 45ad 593d 0623 4ebe 1afc d03d
000000d0: e55a d5bb e4e3 86be 3fb5 073e 2fe4 c93e
000000e0: f404 97be 63d4 183e cacf bd3e 07b1 493e
000000f0: 4f25 d1be 72fe 41be 019d 50be b430 5b3e
00000100: 0e55 673e 408e 85be a8e1 963e c47c ea3d
00000110: 02dc cd3d 2a54 2cbe 5668 a3bd 6bf4 c5bd
00000120: ca5b be3e 7b0e eb3e 6f46 e5bd c319 55bd
00000130: 8d85 a7be d282 8b3e c962 53bc 96bb 1ebe
00000140: 6c0b 9b3e 733d 93be 6952 6cbe 877e 18bf
00000150: db9b 6c3d b3d5 15be 83f1 193e 5586 f0be
00000160: 8176 8ebe 8712 aa3e e133 0b3e 96c2 46be
00000170: ccda 213e 05fc 2c3e b630 913c 4394 983d
00000180: 4450 a1be 6607 03be c83f b0be 29a4 03bf
00000190: e23c 8d3e b4e1 99be 74e6 70be 4ebf b63d
000001a0: 1203 5cbe 49cf 3c3e 9b33 523e f29e 983d
000001b0: f3c4 62be e04d c5be 870b 9abe 66f1 57be
000001c0: 5b3c 40be 3464 03be 7cfe 153e de9d 66be
000001d0: 12fd 333e 88eb 143e 30d4 f6be e89c ef3d
000001e0: 1ad8 bcbe 47b0 90bb a68b 88be 6479 843e
000001f0: b525 233f 6d69 983e 8b7b ac3e cb85 58be
00000200: 037e c3bd 964c b73b d6ba ce3e c35b 9b3e
00000210: c416 013e 4d0e c93d 0c74 abbe 5678 c2be
00000220: 8dc2 a6be 3147 b33e a301 b1be 33f9 52be
00000230: 0776 ab3d a59a cebd 728b 7abe 1453 a03e
00000240: cc64 0fbe 1b2c 88be 2c56 6bbe 6e2e b2be
00000250: 2d2a 533e 8096 9f3e 4c6c cfbe 58df 263d
00000260: fdee d0be 6cdc 89be 91e2 94bd 2e2f 103e
00000270: d813 5bbb 4280 db3c 120e 8b3e 3c11 b63d
00000280: 0ab0 e9bd f028 00bf c1fe db3d 6214 b0be
00000290: d2cf 4a3e 9ae3 f63d 6c37 103e 9ae4 49bc
000002a0: 3c67 693e 000e 97be 40c6 873e 04bf 463e
000002b0: 6272 f13d 6bec c93e 7a68 c9be d0bd 073e
000002c0: 8eec e13d a98a 72be ba76 913e c35a 56be
000002d0: 338b dd3e 956f 8fbe aa20 44be eabe 5abd
000002e0: 419e 713e 2368 a8be b13b 11be 353f 9cbe
000002f0: bfb7 963e c5a0 923d 5c74 a13e 8901 bb3c
00000300: 9dda 043e 2a84 853e 7ee7 b63e 5ac7 5e3e
00000310: 9cfe 533e 55e2 463e 1582 4ebe 3ff8 ea3d
00000320: a4ee 2b3e 54b5 993e af8a e4be 2a39 7f3e
00000330: dd96 133e 74e7 41be 7d5a debe 87cc ff3d
00000340: 4bc6 4a3e 5d0f d13c 5910 a43d 8337 833d
00000350: dbc1 85be ffff a0be c593 91bd 59dd 38be
00000360: 1ba8 5fbc 6b80 a53e 851f adbe b9c5 573e
00000370: d346 44be bac2 b3be f1e0 883b 7dfb 82be
00000380: b54f 57bc e291 67be f551 6d3e dc6e 8bbc
00000390: 8ca1 563e b4e3 ad3e ec2f 96be dd08 603e
000003a0: d3de 95bd 7000 b13e 4a0f c1be 4034 dcbe
000003b0: 4298 593e 3401 b93a d28e 3bbd ff36 243f
000003c0: 1e0a 23be 3a0c e7be 866f d93d a7fc 363e
000003d0: a9c1 463e 7ae1 723d 716d 8a3e 6dbe 8a3e
000003e0: de94 c63e 29ea 403e f1a1 a9be f91c 9b3e
000003f0: f1eb 96bc 7d1c c2bd 112e fdbd c561 28be

in_proj_bias f4 [33]
0.21089956 -0.06470503 0.036882002 -0.08177883 0.034899246 -0.1178403 0.027739072 -0.08941165
-0.07507613 -0.36563903 0.1839397 0.0048534498 -0.004505573 -0.0014305618 0.004161909 -0.0025662468
-0.012557786 0.0002454022 -0.006454925 -0.0022528016 -0.0084439 0.0075909495 -0.042129286 0.033341873
0.011511521 0.035735056 -0.07654836 0.042591766 -0.060186595 0.057444505 -0.0361474 0.0034646739
0.018288646
00000000: 0ef6 573e 1284 84bd 9511 173d a97b a7bd
00000010: 83f2 0e3d 4156 f1bd 0d3d e33c 751d b7bd
00000020: 84c1 99bd 0a35 bbbe b05a 3c3e b009 9f3b
00000030: 7ca3 93bb b081 bbba a060 883b 7a2e 28bb
00000040: 2cbf 4dbc 53a9 8039 d683 d3bb bda3 13bb
00000050: 4958 0abc 80bd f83b c28f 2cbd 7d91 083d
00000060: d29a 3c3c ec5e 123d 63c5 9cbd b474 2e3d
00000070: 3886 76bd ee4a 6b3d 4c0f 14bd 950f 633b
00000080: 12d2 953c

weight f4 [11, 11]
-0.27767268 -0.14477988 0.2671926 0.0044403328 0.11605166 0.031266037 0.15591991 0.14213137
0.10246069 -0.025619708 -0.02776359 -0.10458634 0.0014870875 0.14716795 0.10856254 -0.03334819
-0.23597866 -0.08706994 0.15162289 0.16029109 -0.010500676 -0.21622887 0.28582242 0.092846595
-0.15647347 0.047310196 -0.2438312 0.08898304 -0.110574074 -0.092306614 -0.14852421 0.048030507
0.14902359 -0.12260497 -0.062993005 -0.034302905 -0.22203341 -0.041114833 0.19464238 0.25378713
0.2161455 0.021117121 -0.008361122 -0.38552287 0.4225516 0.053185634 0.25156525 0.08952662
-0.0988734 -0.22146046 -0.2951094 -0.089772314 -0.13654196 0.4018227 0.019135138 0.17318517
0.19463629 -0.1442166 0.05843983 0.0036090517 -0.021441147 0.074364066 0.047653347 0.054695275
0.23269387 -0.08923937 0.077288345 0.070675135 -0.04866569 -0.03777636 0.058175955 -0.12318883
0.12857246 -0.2295032 0.021886084 -0.14131795 0.117562875 -0.057135105 0.13888024 0.08264866
0.2888091 -0.19277778 0.14726959 0.053075217 0.07884603 -0.28581184 0.24414845 0.41488275
-0.14693655 0.18756734 -0.21659906 -0.36376113 -0.023421353 -0.11551108 -0.24920991 0.31145543
-0.050201487 -0.26132894 -0.29232585 0.36221227 -0.22383142 0.014359203 0.11335858 0.06999386
-0.1890769 -0.017901527 0.12952171 0.015282556 0.1989146 0.3041855 -0.016856387 0.25602365
-0.13624223 0.18139614 -0.23961045 -0.104582936 0.23468767 0.12180804 0.025758388 0.107625835
0.02240632
00000000: 1d2b 8ebe 2d41 14be 78cd 883e 3680 913b
00000010: 7eac ed3d d110 003d 78a9 1f3e e38a 113e
00000020: e9d6 d13d 6ce0 d1bc 7870 e3bc 5d31 d6bd
00000030: 60ea c23a 32b3 163e 0956 de3d 1d98 08bd
00000040: 64a4 71be ba51 b2bd 0843 1b3e 5923 243e
00000050: 070b 2cbc 1a6b 5dbe 5157 923e 5b26 be3d
00000060: 953a 20be 56c8 413d e3ae 79be bd3c b63d
00000070: a974 e2bd 400b bdbd bb16 18be a3bb 443d
00000080: a499 183e 5118 fbbd 7a02 81bd 3481 0cbd
00000090: ba5c 63be 0768 28bd 5550 473e 63f0 813e
000000a0: 3f55 5d3e d0fd ac3c 16fd 08bc 4163 c5be
000000b0: af58 d83e 2ed9 593d 29cd 803e bc59 b73d
000000c0: 237e cabd 88c6 62be 9418 97be 8cda b7bd
000000d0: a8d1 0bbe b4bb cd3e 4bc1 9c3c 7457 313e
000000e0: bc4e 473e 84ad 13be 9a5e 6f3d d785 6c3b
000000f0: 58a5 afbc 304c 983d 2830 433d 2708 603d
00000100: 4d47 6e3e 21c3 b6bd 5a49 9e3d 20be 903d
00000110: ad55 47bd 62bb 1abd e949 6e3d 6d4a fcbd
00000120: 80a8 033e e302 6bbe 724a b33c a7b5 10be
00000130: cec4 f03d 8006 6abd 9f36 0e3e b343 a93d
00000140: c9de 933e 8a67 45be d7cd 163e 6665 593d
00000150: 077a a13d ee55 92be 0d02 7a3e 836b d43e
00000160: 8976 16be a711 403e 25cc 5dbe e63e babe
00000170: 23de bfbc 1391 ecbd e230 7fbe 1677 9f3e
00000180: 13a0 4dbd e8cc 85be bcab 95be e373 b93e
00000190: 1034 65be dd42 6b3c 8b28 e83d f158 8f3d
000001a0: 609d 41be 39a6 92bc 57a1 043e b063 7a3c
000001b0: 45b0 4b3e 34be 9b3e 6816 8abc 8815 833e
000001c0: 1583 0bbe e9bf 393e 715c 75be 942f d6bd
000001d0: f751 703e 7e76 f93d 4103 d33c ef6a dc3d
000001e0: 758d b73c

bias f4 [11]
-0.01318941 0.0081844255 -0.05967957 -0.017992098 0.028815592 -0.07398741 -0.092178054 0.04909828
0.06412917 -0.036372438 0.11122019
00000000: 6518 58bc f817 063c 9172 74bd 2a64 93bc
00000010: ad0e ec3c b686 97bd d9c7 bcbd 471b 493d
00000020: 2756 833d 44fb 14bd 69c7 e33d

weight f4 [8, 11]
-0.20820923 -0.0030851872 -0.03505274 0.061371546 -0.12831786 -0.09201221 -0.31691483 0.2569087
0.28719395 -0.024672754 0.26845193 -0.41010025 0.35506794 -0.14901045 -0.3288194 0.19655268
-0.23482859 0.23736812 -0.15428059 -0.08007669 0.09894679 -0.15566462 -0.25722256 -0.13774496
-0.2591668 -0.23660217 -0.20487662 0.11204689 0.10994686 0.10873445 0.07243208 0.21334882
0.113198824 0.03875809 0.06729915 0.070043795 -0.0813828 0.1026166 -0.041845232 -0.11877232
-0.15656558 -0.19541349 0.23136069 -0.040997196 -0.08562451 0.14364445 -0.19048844 0.33501363
-0.1764717 0.22851397 0.066071786 -0.13291869 -0.1004685 -0.009244901 -0.24207504 0.24875613
0.028401257 0.30463135 -0.21335936 -0.20051536 0.004624536 0.26403496 0.21489917 -0.26661375
0.017285941 -0.36326948 -0.24918573 -0.14463681 -0.04621275 -0.17910972 0.07461448 -0.122646384
0.30032378 0.0014958236 0.14514747 0.22608286 -0.018628968 0.15661775 -0.14101203 0.16403703
0.033582687 -0.22728667 0.044253115 0.008361459 -0.09305537 -0.09107851 0.017122407 -0.32001886
00000000: cd34 55be da30 4abb 7693 0fbd bb60 7b3d
00000010: c265 03be e670 bcbd a942 a2be 8a89 833e
00000020: 160b 933e 841e cabc 8872 893e a9f8 d1be
00000030: 77cb b53e 3296 18be 045b a8be 1b45 493e
00000040: e876 70be a110 733e bbfb 1dbe 3fff a3bd
00000050: 9da4 ca3d 8c66 1fbe adb2 83be 040d 0dbe
00000060: 83b1 84be d747 72be 2dcb 51be d778 e53d
00000070: d22b e13d 2bb0 de3d 4557 943d 1d78 5a3e
00000080: c9d4 e73d cec0 1e3d 23d4 893d 1f73 8f3d
00000090: 07ac a6bd a728 d23d e865 2bbd e73e f3bd
000000a0: ba52 20be 791a 48be d1e9 6c3e adec 27bd
000000b0: e75b afbd 8817 133e 670f 43be e886 ab3e
000000c0: ffb4 34be 91ff 693e a550 873d d61b 08be
000000d0: 6ec2 cdbd ed77 17bc 85e2 77be edb9 7e3e
000000e0: c1a9 e83c a4f8 9b3e e07a 5abe e653 4dbe
000000f0: 6b89 973b 972f 873e 870e 5c3e 9981 88be
00000100: 3f9b 8d3c 75fe b9be 8b2a 7fbe ac1b 14be
00000110: 9549 3dbd 8a68 37be 7acf 983d 072e fbbd
00000120: 0ac4 993e 830f c43a 8aa1 143e 4482 673e
00000130: c79b 98bc 6760 203e 7565 10be 53f9 273e
00000140: 008e 093d d6bd 68be c142 353d 80fe 083c
00000150: d093 bebd 5f87 babd 4a44 8c3c 83d9 a3be

bias f4 [8]
-0.20849125 -0.015048349 -0.2527318 -0.013693121 0.17713444 0.10171471 -0.11273434 -0.11706423
00000000: bb7e 55be 5a8d 76bc 1066 81be 1d59 60bc
00000010: bb62 353e cd4f d03d 43e1 e6bd 5fbf efbd

weight f4 [11, 8]
0.16789438 -0.089169554 0.2466918 -0.2367372 0.2750762 -0.012717675 -0.034216426 -0.1929953
0.028971773 -0.48704723 -0.28665885 0.20688435 -0.076436795 0.23642902 -0.06641189 0.094701625
-0.15744464 0.28749105 0.04917286 0.0043410733 0.107726544 0.33119825 0.23210405 -0.2829274
0.032344848 -0.03179152 -0.11259109 -0.124121346 -0.015082087 -0.11145613 -0.11882882 0.2728284
0.07700773 0.16044481 0.24521169 0.28242648 -0.19648363 -0.022711841 0.117306694 -0.11181943
0.33112156 0.015492676 0.37482962 0.16946463 -0.2354486 -0.35619056 0.26650655 0.004457529
-0.044188414 0.35417244 0.026799839 0.09311391 -0.27017775 0.1555934 0.069496006 -0.11343373
-0.2269982 0.034209855 0.016659629 0.21761405 -0.35019252 -0.30374557 0.14966276 -0.36058593
-0.04258995 -0.16343816 0.09273613 -0.09603702 -0.20043887 -0.18895802 -0.34039012 -0.1592853
-0.12899671 0.111334056 0.043308277 0.0017412631 -0.05718126 -0.1578068 -0.29026788 0.10764488
0.105177596 0.042145327 -0.24872561 -0.06619476 0.260698 0.2805728 0.049119577 -0.15291558
00000000: 81ec 2b3e 879e b6bd c69c 7c3e 3d6b 72be
00000010: cad6 8c3e cc5d 50bc 8626 0cbd 8fa0 45be
00000020: 3656 ed3c 415e f9be f3c4 92be 7ed9 533e
00000030: e58a 9cbd 731a 723e f502 88bd edf2 c13d
00000040: 2b39 21be 0732 933e 7b69 493d 903f 8e3b
00000050: bc9f dc3d d192 a93e afac 6d3e dcdb 90be
00000060: 087c 043d d337 02bd 2896 e6bd 5533 febd
00000070: dc1a 77bc 1d43 e4bd 865c f3bd 2ab0 8b3e
00000080: 3bb6 9d3d a54b 243e c618 7b3e 349a 903e
00000090: 0133 49be 2f0e babc 7e3e f03d 9601 e5bd
000000a0: c488 a93e fed4 7d3c abe9 bf3e 2388 2d3e
000000b0: 7019 71be 9c5e b6be 8c73 883e 7710 923b
000000c0: e9fe 34bd 1756 b53e 568b db3c 81b2 be3d
000000d0: bd54 8abe e053 1f3e ec53 8e3d f24f e8bd
000000e0: 3772 68be a21f 0c3d c679 883c 38d6 5e3e
000000f0: 6f4c b3be 8a84 9bbe 3241 193e b89e b8be
00000100: cd72 2ebd 555c 27be 71ec bd3d 0faf c4bd
00000110: d93f 4dbe 367e 41be 9d47 aebe b01b 23be
00000120: b717 04be 1c03 e43d 0564 313d 183b e43a
00000130: e636 6abd 1b98 21be fe9d 94be eb74 dc3d
00000140: 5a67 d73d 94a0 2c3d edb1 7ebe 1e91 87bd
00000150: 357a 853e 3da7 8f3e 9c31 493d e795 1cbe

bias f4 [11]
-0.26482323 0.065249555 -0.28296226 -0.23857221 0.21924132 0.14217162 -0.23905489 0.28543106
-0.073118456 0.11142875 -0.010623591
00000000: e996 87be 8fa1 853d 6ee0 90be 464c 74be
00000010: cc80 603e 7095 113e ceca 74be 0524 923e
00000020: 21bf 95bd c234 e43d 920e 2ebc

weight f4 [11]
1.0217209 0.98617405 0.98413354 1.1314465 0.9660823 0.93850493 1.1408223 0.9435357
1.0556092 1.0342462 0.8756367
00000000: c0c7 823f e775 7c3f 2df0 7b3f 3dd3 903f
00000010: 2b51 773f dc41 703f 7706 923f 8e8b 713f
00000020: 341e 873f 2e62 843f ba29 603f

bias f4 [11]
0.019873494 0.03482073 -0.01744644 0.022094043 0.0061858776 -0.012696826 -0.04434931 0.032120097
0.07067758 -0.06153904 0.056066945
00000000: bdcd a23c 2fa0 0e3d d6eb 8ebc 91fe b43c
00000010: e7b2 ca3b 5906 50bc 9fa7 35bd 5d90 033d
00000020: 68bf 903d 5c10 7cbd 74a6 653d

weight f4 [11]
1.0087684 0.9682212 0.97200745 1.1134629 0.9831258 0.8995879 1.1075015 0.9636398
1.0436779 1.0319573 0.8729554
00000000: 531f 813f 58dd 773f 7bd5 783f f485 8e3f
00000010: 22ae 7b3f 654b 663f 9cc2 8d3f 19b1 763f
00000020: 3d97 853f 2d17 843f 017a 5f3f

bias f4 [11]
0.01112655 0.010679158 -0.032229893 0.0063139345 -0.02510533 -0.022188414 -0.032483853 0.016285358
0.056094065 -0.040696185 -0.011758242
00000000: 224c 363c a3f7 2e3c 7e03 04bd 1fe5 ce3b
00000010: b1a9 cdbc 7ac4 b5bc ca0d 05bd df68 853c
00000020: e4c2 653d 0bb1 26bd a4a5 40bc

in_proj_weight f4 [33, 11]
-0.19437848 -0.37402508 0.32277432 0.07893799 0.17482567 0.07317605 0.012632968 -0.17722347
-0.38690186 -0.060272854 0.36784643 -0.19999406 0.17943098 -0.18013455 -0.29193473 0.3126237
-0.14480352 -0.20448436 -0.19526581 -0.10431524 0.15444228 -0.076914355 -0.23962222 0.086477235
0.09266485 0.0873026 0.13461988 -0.03579021 0.15445957 0.17731029 -0.40213934 -0.0056820526
0.195155 0.29754415 -0.018229421 -0.00973504 -0.10016682 0.3056827 0.065626144 0.24990037
-0.104794025 0.17225818 0.16253477 0.03469477 -0.20256683 0.083941236 0.19304164 -0.12130376
-0.20534405 -0.022418011 -0.1109942 0.23420833 0.116308145 -0.3121856 -0.030084983 0.37783957
-0.023826115 0.043323677 0.13948162 0.113672435 -0.25716192 -0.21575642 -0.2818335 0.083257206
0.24319482 -0.28135663 0.39728907 -0.087452255 -0.098370135 -0.22682919 -0.11602658 -0.07144519
0.402615 0.45230088 -0.13755734 -0.306746 -0.15523294 0.20583366 0.04821006 -0.14419994
0.24229442 -0.19070977 -0.28133583 -0.3818661 0.20228888 0.0934536 0.26391387 -0.12535176
-0.090452515 0.25108248 0.12670057 -0.15424208 0.17941624 0.045121443 0.04056396 -0.1563798
-0.23344946 -0.35728556 -0.34405172 -0.53753346 0.13531168 -0.15740663 -0.15927173 0.09565278
-0.30600306 0.29549405 0.4273094 0.17877139 -0.063051775 -0.3690153 -0.12967065 -0.23025301
-0.35902858 -0.2805394 0.115198806 -0.31599137 -0.053064603 -0.0846921 -0.29168457 0.21681194
-0.018732341 -0.03848407 -0.29093227 0.1173456 0.3449868 0.36094752 0.2965885 -0.02218316
0.11606944 -0.10799218 0.4239647 0.1718683 0.26589867 0.117167786 -0.28586364 -0.34849474
-0.30197176 0.3480428 -0.32074675 -0.16034886 -0.0007200236 0.15727083 -0.26762095 0.2454599
-0.05136596 -0.12001147 -0.41580406 -0.32726276 0.15578358 0.26976562 -0.25531667 0.028109483
-0.114783175 -0.47131753 0.17186609 -0.04979548 0.028276749 -0.016640447 0.4626903 -0.053042103
-0.08176183 -0.14685187 -0.065123804 -0.15434809 0.18986195 0.24051179 0.2914724 -0.1524804
0.23926455 -0.3848073 0.15506136 0.18106528 0.106682785 0.3748732 -0.33102512 0.11059913
0.05926275 -0.16818134 0.21986873 -0.11689799 0.083399825 -0.19207135 0.020808393 -0.22048403
0.10729337 -0.3217552 -0.2221173 -0.31037977 0.260903 0.14841862 0.2511449 -0.06170565
-0.051883075 0.5010836 0.28102264 0.00034201 0.13753666 0.0646372 -0.11173369 0.09278659
0.001992398 0.08943139 0.026256569 0.19686145 0.024479955 -0.20955868 -0.38678354 -0.04218187
0.027485322 -0.087277174 0.044900265 -0.04858265 -0.1975961 -0.24275245 -0.12316143 -0.3349147
-0.124635294 0.22600143 -0.22639875 0.18436678 -0.26001933 -0.3042374 0.21261248 0.19875132
-0.030744402 -0.10821851 0.25343028 0.008245973 -0.0047824895 0.35109633 -0.37373626 0.13704804
-0.3053023 0.048864976 -0.10256639 -0.29164615 0.36428943 -0.12750618 -0.2560961 0.5234483
0.1480433 -0.19528979 -0.0010533076 -0.09429837 -0.009262864 -0.18589698 0.30105495 0.11882144
0.34445876 0.2248408 -0.2915212 0.17800881 -0.023190815 -0.098856725 -0.13144976 -0.22068189
00000000: 270b 47be 3780 bfbe ad42 a53e 3eaa a13d
00000010: 8005 333e 53dd 953d 82fa 4e3c 127a 35be
00000020: 0018 c6be abe0 76bd 5e56 bc3e 3ecb 4cbe
00000030: c1bc 373e 3175 38be 7878 95be 3710 a03e
00000040: 6047 14be 5964 51be c3f3 47be 3ba3 d5bd
00000050: 1e26 1e3e 4685 9dbd 875f 75be fa1a b13d
00000060: 12c7 bd3d b5cb b23d cbd9 093e c198 12bd
00000070: a62a 1e3e d490 353e 35e5 cdbe 8330 babb
00000080: b6d6 473e b557 983e de55 95bc b87f 1fbc
00000090: 4324 cdbd 7182 9c3e 0067 863d e2e5 7f3e
000000a0: 409e d6bd 7364 303e 846f 263e 1a1c 0e3d
000000b0: ae6d 4fbe 62e9 ab3d b5ac 453e 1b6e f8bd
000000c0: b645 52be faa5 b7bc ed50 e3bd 4fd4 6f3e
000000d0: f732 ee3d cad6 9fbe c874 f6bc 3074 c13e
000000e0: fc2e c3bc 2b74 313d 45d4 0e3e 18cd e83d
000000f0: baaa 83be 40ef 5cbe 7b4c 90be c182 aa3d
00000100: 1008 793e fa0d 90be 7969 cb3e 2b1a b3bd
00000110: 4876 c9bd e945 68be 589f edbd db51 92bd
00000120: 8e23 ce3e fb93 e73e d5db 0cbe d00d 9dbe
00000130: 62f5 1ebe 0fc6 523e e977 453d 26a9 13be
00000140: 071c 783e 6c49 43be 400b 90be f483 c3be
00000150: d124 4f3e 9a64 bf3d b81f 873e 365c 00be
00000160: 2b3f b9bd e28d 803e cbbd 013e a3f1 1dbe
00000170: e4b8 373e 43d1 383d 6526 263d 0722 20be
00000180: 600d 6fbe 22ee b6be 8c27 b0be cb9b 09bf
00000190: 258f 0a3e 342f 21be 2118 23be 9be5 c33d
000001a0: 6fac 9cbe ff4a 973e 4cc8 da3e d90f 373e
000001b0: 4a21 81bd 93ef bcbe 62c8 04be 72c7 6bbe
000001c0: 98d2 b7be dca2 8fbe 5aed eb3d 9fc9 a1be
000001d0: 455a 59bd 0d73 adbd ae57 95be f303 5e3e
000001e0: 9174 99bc 79a1 1dbd 13f5 94be e452 f03d
000001f0: 1ca2 b03e 1dce b83e 73da 973e 75b9 b5bc
00000200: d1b5 ed3d 012b ddbd e711 d93e 3efe 2f3e
00000210: df23 883e aaf5 ef3d b85c 92be e76d b2be
00000220: 0b9c 9abe aa32 b23e eb38 a4be 7e32 24be
00000230: f7bf 3cba 9b0b 213e 9d05 89be d759 7b3e
00000240: 1d65 52bd 93c8 f5bd 45e4 d4be fc8e a7be
00000250: bb85 1f3e b81e 8a3e deb8 82be dc45 e63c
00000260: 7113 ebbd 8850 f1be aafd 2f3e 58f6 4bbd
00000270: a4a4 e73c 8c51 88bc bee5 ec3e ad42 59bd
00000280: bf72 a7bd 5660 16be a15f 85bd 6d0d 1ebe
00000290: 2c6b 423e b948 763e df3b 953e d223 1cbe
000002a0: c401 753e 7605 c5be 68c8 1e3e 2d69 393e
000002b0: 817c da3d 61ef bf3e 207c a9be cc81 e23d
000002c0: 7fbd 723d bb37 2cbe 4525 613e 3768 efbd
000002d0: 87cd aa3d 5aae 44be 5d76 aa3c 91c6 61be
000002e0: a0bc db3d 19bd a4be b872 63be 19ea 9ebe
000002f0: 1495 853e 0dfb 173e 1096 803e 10bf 7cbd
00000300: 5983 54bd 0447 003f 33e2 8f3e ce4f b339
00000310: 69d6 0c3e 8260 843d a2d4 e4bd e506 be3d
00000320: e492 023b ce27 b73d 0418 d73c 0c96 493e
00000330: 308a c83c 8d96 56be 7e08 c6be e6c6 2cbd
00000340: e628 e13c 60be b2bd 57e9 373d 9afe 46bd
00000350: a256 4abe 1994 78be 0f3c fcbd f179 abbe
00000360: ca40 ffbd eb6c 673e 13d5 67be a5ca 3c3e
00000370: 4121 85be 01c5 9bbe 16b7 593e 7785 4b3e
00000380: afdb fbbc aba1 ddbd 9dc1 813e 1e1a 073c
00000390: 6eb6 9cbb e6c2 b33e 5c5a bfbe 5256 0c3e
000003a0: 9550 9cbe a426 483d 540e d2bd a552 95be
000003b0: 2584 ba3e fb90 02be 071f 83be b500 063f
000003c0: aa98 173e 0cfa 47be 230f 8aba 811f c1bd
000003d0: 44c3 17bc c75b 3ebe e023 9a3e a858 f33d
000003e0: e65c b03e ab3c 663e 4442 95be f147 363e
000003f0: aafa bdbc 6575 cabd c49a 06be 6ffa 61be

in_proj_bias f4 [33]
-0.013544441 -0.04260205 -0.011612954 -0.043891754 -0.23423325 0.10495722 -0.044196703 0.17867687
-0.08684156 -0.11282443 0.16041441 0.0008716663 0.0012766728 0.0018594442 0.0010782037 0.00079124817
-0.0013188755 -0.0020501493 -0.00039185307 -0.001996182 -0.0017151161 -0.0012533591 -0.029206164 0.008595643
-0.0055362275 0.028792314 -0.049975935 0.056826945 -0.0067279143 -0.050913353 -0.009126364 0.0038918143
-0.011230245
00000000: 81e9 5dbc 7d7f 2ebd 4244 3ebc d7c7 33bd
00000010: d7da 6fbe d0f3 d63d 9a07 35bd 12f7 363e
00000020: fdd9 b1bd 7f10 e7bd ad43 243e 8980 643a
00000030: 0856 a73a 98b8 f33a 8352 8d3a c46b 4f3a
00000040: 1ede acba cc5b 06bb a171 cdb9 60d2 02bb
00000050: bfcd e0ba c147 a4ba c441 efbc bdd4 0c3c
00000060: 3e69 b5bb dcdd eb3c 91b3 4cbd 5fc3 683d
00000070: d675 dcbb 858a 50bd bf86 15bc cf0d 7f3b
00000080: 10ff 37bc

weight f4 [11, 11]
-0.20727307 -0.16171262 0.27068356 0.12264825 0.11316829 -0.01594333 0.09044827 0.1372721
0.0042014862 0.07800692 0.116018735 -0.021441955 -0.003591253 0.2205731 0.2503572 -0.032410033
-0.21435446 -0.10289356 0.10182262 -0.0034976562 0.1001184 -0.030983413 0.237715 0.0043869815
-0.23418604 -0.16221848 -0.3250462 0.101966806 0.031570576 -0.091867216 -0.2014251 -0.02318157
0.068007655 0.004143357 -0.011947517 0.16600074 -0.03342029 -0.09563369 0.17633566 0.19116019
0.16072872 -0.04079607 0.17138669 -0.3604013 0.29240283 -0.036183488 0.2280204 -0.07990543
-0.14893594 -0.13705078 -0.23633005 -0.11558793 -0.120069206 0.23221876 -0.13619354 0.22361341
0.26121512 -0.16624454 0.12622257 0.015100473 -0.006884013 0.09731815 0.081088215 0.04283373
0.21548234 -0.16444124 0.0200945 0.09009147 -0.076956056 -0.19162834 -0.0013363708 -0.14135061
0.17422785 -0.06747192 0.10595482 -0.11734773 -0.036545187 -0.10350063 0.126168 0.025647474
0.29600164 -0.12143969 0.15312077 0.16987129 0.08810893 -0.2227613 0.12160261 0.29572874
0.029774178 0.24735358 -0.08854883 -0.13810319 0.12044294 -0.2489043 -0.251018 0.3656571
-0.036745343 -0.16511555 -0.22019576 0.2926379 -0.24351484 -0.088864066 -0.023120914 0.13097572
-0.20987944 -0.13178526 0.3154077 0.0791146 0.09560173 0.10542133 -0.05674593 0.22875863
-0.06834197 0.20530416 -0.19848491 -0.114010304 0.19010381 0.2378642 0.061719634 -0.0016186957
-0.011024588
00000000: 643f 54be fe97 25be 0997 8a3e 012f fb3d
00000010: c7c4 e73d 969b 82bc f13c b93d 0f91 0c3e
00000020: 9fac 893b 18c2 9f3d 3b9b ed3d 0aa7 afbc
00000030: 3a5b 6bbb eadd 613e d22e 803e 62c0 04bd
00000040: bc7f 5bbe dcb9 d2bd 6188 d03d ef38 65bb
00000050: e00a cd3d edd0 fdbc 906b 733e abc0 8f3b
00000060: 77ce 6fbe 9a1c 26be 756c a6be f9d3 d03d
00000070: 2650 013d e124 bcbd 6242 4ebe 47e7 bdbc
00000080: 9947 8b3d ffc4 873b 85bf 43bc 19fc 293e
00000090: b7e3 08bd 99db c3bd 5691 343e 7fbf 433e
000000a0: 1296 243e c819 27bd fe7f 2f3e 8586 b8be
000000b0: d3b5 953e 2335 14bd 2e7e 693e 75a5 a3bd
000000c0: aa82 18be 0a57 0cbe 8100 72be 5db9 ecbd
000000d0: d8e6 f5bd c1ca 6d3e 5276 0bbe eafa 643e
000000e0: fdbd 853e 023c 2abe 7d40 013e f967 773c
000000f0: 4993 e1bb bd4e c73d 9411 a63d 6c72 2f3d
00000100: 67a7 5c3e 4963 28be 399d a43c e081 b83d
00000110: 239b 9dbd 383a 44be 2a29 afba 37be 10be
00000120: c968 323e b82e 8abd d7fe d83d 0254 f0bd
00000130: 68b0 15bd 23f8 d3bd 2f32 013e a71a d23c
00000140: 878d 973e 5fb5 f8bd b1cb 1c3e bdf2 2d3e
00000150: 7472 b43d 8a1b 64be ca0a f93d c269 973e
00000160: fae8 f33c 424a 7d3e 1759 b5bd ec6a 0dbe
00000170: caaa f63d c5e0 7ebe 6e85 80be 6837 bb3e
00000180: 4982 16bd 0d14 29be ff7a 61be a3d4 953e
00000190: f45b 79be 5dfe b5bd 1268 bdbc 801e 063e
000001a0: a3ea 56be b7f2 06be 1e7d a13e d606 a23d
000001b0: d7ca c33d 23e7 d73d 6c6e 68bd b43f 6a3e
000001c0: e0f6 8bbd 413b 523e a13f 4bbe 3c7e e9bd
000001d0: 93aa 423e ac92 733e bacd 7c3d 6a2a d4ba
000001e0: 79a0 34bc

bias f4 [11]
-0.022171443 0.033727188 0.010441478 -0.013138437 -0.011019625 -0.027920311 -0.030647801 0.032454845
-0.035836615 -0.058440965 -0.0046732207
00000000: e3a0 b5bc 8525 0a3d bc12 2b3c 9942 57bc
00000010: a88b 34bc 23b9 e4bc 1911 fbbc 5fef 043d
00000020: 6ac9 12bd cb5f 6fbd d121 99bb

weight f4 [8, 11]
-0.21798952 0.07179769 -0.13720675 0.04745511 -0.11670438 -0.0027286103 -0.33274677 0.21974091
0.35145387 -0.13803998 0.25828835 -0.3256877 0.29616776 -0.114682026 -0.3123346 0.20043877
-0.2758173 0.2707261 -0.18136472 -0.084312275 0.03789768 -0.1780902 -0.38295314 -0.1836032
-0.24584213 -0.13617544 -0.25208902 0.10177845 0.11358603 0.063329734 0.09946083 0.27608362
0.12071748 0.11020867 -0.013082164 -0.003108486 0.0060877227 0.13192098 -0.06549382 -0.2599123
-0.08988556 -0.13988298 0.29819348 -0.11483741 -0.19952255 -5.4593736e-05 -0.14290045 0.2846681
-0.27621523 0.23963048 0.17280816 -0.12693936 -0.07639664 0.10224166 -0.16477677 0.23240095
-0.02044735 0.29546687 -0.20206426 -0.23112819 -0.013391727 0.26801738 0.20185098 -0.27194512
0.1035201 -0.28308427 -0.26926696 -0.088963315 -0.07555271 -0.069478706 0.12043795 0.009843872
0.30023387 -0.042912964 0.08384134 0.08836843 -0.07838208 0.21656437 -0.0441576 0.18761055
0.13210708 -0.19568455 -0.046895847 0.017547872 -0.056543197 -0.24822296 -0.06794544 -0.33991593
00000000: a538 5fbe ab0a 933d ed7f 0cbe 4a60 423d
00000010: b502 efbd 7cd2 32bb c95d aabe c303 613e
00000020: c3f1 b33e 5a5a 0dbe 5f3e 843e 8ac0 a6be
00000030: 4da3 973e 69de eabd 52ea 9fbe d23f 4d3e
00000040: ed37 8dbe 9d9c 8a3e acb7 39be eaab acbd
00000050: 993a 1b3d 475d 36be 6f12 c4be 7a02 3cbe
00000060: 0abe 7bbe 9371 0bbe d011 81be 3871 d03d
00000070: cb9f e83d 05b3 813d 1fb2 cb3d d55a 8d3e
00000080: ba3a f73d 15b5 e13d 9356 56bc beb7 4bbb
00000090: 857b c73b 4b16 073e a021 86bd 3a13 85be
000000a0: ec15 b8bd 7c3d 0fbe d1ac 983e e02f ebbd
000000b0: a44f 4cbe 94fb 64b8 7f54 12be 04c0 913e
000000c0: 156c 8dbe b161 753e 9ff4 303e 64fc 01be
000000d0: d775 9cbd 1364 d13d 3ebb 28be 84fa 6d3e
000000e0: 3381 a7bc 6f47 973e efe9 4ebe deac 6cbe
000000f0: f968 5bbc 9339 893e 06b2 4e3e 643c 8bbe
00000100: 5902 d43d 6cf0 90be 5cdd 89be 6632 b6bd
00000110: 61bb 9abd da4a 8ebd 2ca8 f63d 3148 213c
00000120: 41b8 993e 81c5 2fbd 02b5 ab3d 82fa b43d
00000130: c986 a0bd 0dc3 5d3e 99de 34bd fb1c 403e
00000140: 1447 073e 8861 48be dc15 40bd 8ec0 8f3c
00000150: d799 67bd 292e 7ebe fb26 8bbd 7609 aebe

bias f4 [8]
-0.14876977 -0.0066771815 -0.19365907 0.011949601 0.18110128 0.111431904 -0.11442079 -0.1121231
00000000: 1a57 18be 42cc dabb 904e 46be 42c8 433c
00000010: 9d72 393e 6936 e43d 7255 eabd cca0 e5bd

weight f4 [11, 8]
0.15894982 -0.15448278 0.40213734 -0.16301972 0.38799962 -0.034521367 -0.013949795 -0.02950333
0.16041356 -0.28224078 -0.28461143 0.29463837 -0.10333643 0.24069057 0.06573761 0.12763312
-0.088702075 0.1820319 0.07662284 -0.22763366 0.10299283 0.40850285 0.31626594 -0.4291062
0.06055372 0.06275358 -0.09875137 -0.120842375 -0.09865304 -0.104838595 -0.11793407 0.24562252
0.01612269 0.219637 0.2140574 0.24909246 -0.1242078 -0.077662915 0.070548594 -0.25869462
0.32753554 0.18763578 0.35304344 0.19585857 -0.13908985 -0.3399 0.18327878 -0.02888258
-0.08326001 0.349915 -0.0047165276 0.13930562 -0.32734355 0.20604841 -0.047120094 -0.17476247
-0.25448376 0.078973405 -0.009652379 0.20245959 -0.31557152 -0.22145103 0.18428344 -0.26887774
-0.031027364 -0.21790668 0.21934831 -0.12430081 -0.13997374 -0.17728913 -0.19279012 -0.2794362
-0.15752016 0.17162158 -0.009555672 -0.13021664 -0.10300376 -0.059073616 -0.2777615 0.16982864
0.15501653 0.14705384 -0.24076971 0.010401695 0.25999162 0.2874177 0.07510443 -0.06738541
00000000: bec3 223e bc30 1ebe f2e4 cd3e a4ee 26be
00000010: e3a7 c63e 4766 0dbd ae8d 64bc f8b0 f1bc
00000020: 7443 243e dd81 90be 97b8 91be d7da 963e
00000030: 0da2 d3bd 9777 763e 71a1 863d 42b2 023e
00000040: 6fa9 b5bd 9266 3a3e 6fec 9c3d cc18 69be
00000050: e8ed d23d 4927 d13e 9ced a13e cfb3 dbbe
00000060: 2d07 783d f384 803d 293e cabd 357c f7bd
00000070: 9b0a cabd 9eb5 d6bd 6b87 f1bd 7884 7b3e
00000080: bb13 843c 86e8 603e dd31 5b3e 1812 7f3e
00000090: a960 febd bc0d 9fbd c87b 903d 9f73 84be
000000a0: bdb2 a73e 9823 403e 1cc2 b43e 268f 483e
000000b0: 926d 0ebe 5f07 aebe 6fad 3b3e 299b ecbc
000000c0: 3984 aabd 0f28 b33e 1a8d 9abb 22a6 0e3e
000000d0: 9399 a7be 5bfe 523e 0001 41bd eff4 32be
000000e0: b24b 82be cfbc a13d 0325 1ebc 9151 4f3e
000000f0: 9792 a1be 0fc4 62be ccb4 3c3e 58aa 89be
00000100: 192d febc ee22 5fbe d89c 603e 6c91 febd
00000110: 4755 0fbe 488b 35be c66a 45be 4312 8fbe
00000120: f74c 21be 91bd 2f3e 658f 1cbc 8357 05be
00000130: a3f3 d2bd 2df7 71bd c136 8ebe 8fe7 2d3e
00000140: a7bc 1e3e 4895 163e 568c 76be df6b 2a3c
00000150: 9f1d 853e 6a28 933e 5ad0 993d 5d01 8abd

bias f4 [11]
-0.27387205 0.15584458 -0.3347414 -0.25327516 0.20345192 0.14752606 -0.24734588 0.28494945
-0.14639647 0.103513144 -0.03790573
00000000: f538 8cbe b995 1f3e 3a63 abbe 48ad 81be
00000010: b355 503e 1211 173e 3d48 7dbe e5e4 913e
00000020: f5e8 15be b3fe d33d 0a43 1bbd

weight f4 [11]
0.99603784 0.9702679 0.9942757 1.0915577 0.98684347 0.9548282 1.1118444 0.9819201
1.091681 1.0395235 0.8888202
00000000: 56fc 7e3f 7a63 783f da88 7e3f 2ab8 8b3f
00000010: c6a1 7c3f 9f6f 743f eb50 8e3f 1e5f 7b3f
00000020: 34bc 8b3f 1b0f 853f b889 633f

bias f4 [11]
0.01672855 0.03102095 -0.020948738 0.03294169 -0.013207691 -0.01866001 -0.021180937 0.03174215
0.05795969 -0.05129168 0.04913232
00000000: 500a 893c a61f fe3c b09c abbc deed 063d
00000010: 1265 58bc e1dc 98bc a583 adbc 0f04 023d
00000020: 2467 6d3d 3a17 52bd f93e 493d

weight f4 [11]
1.0156614 0.996962 1.0242933 1.0788338 0.9628588 0.9113983 1.0730486 0.99828255
1.0244688 1.0167992 0.9086931
00000000: 3101 823f e738 7f3f 0b1c 833f 3a17 8a3f
00000010: ea7d 763f 6651 693f a859 893f 728f 7f3f
00000020: cb21 833f 7a26 823f 1ca0 683f

bias f4 [11]
0.027071225 0.016015515 -0.026714398 0.042888794 -0.031441882 -0.025346845 -0.018784625 0.01475659
0.01630154 -0.035832193 -0.012447517
00000000: 79c4 dd3c f832 833c 27d8 dabc 29ac 2f3d
00000010: 34c9 00bd 30a4 cfbc 37e2 99bc a0c5 713c
00000020: cf8a 853c c7c4 12bd acf0 4bbc

in_proj_weight f4 [33, 11]
-0.2330262 -0.32928392 0.43543762 -0.07259303 0.13709018 0.051625535 0.20686677 -0.1440646
-0.42054188 -0.05751729 0.2625885 -0.2512542 0.17860961 -0.18035567 -0.25123462 0.32434094
-0.16690248 -0.19199991 -0.22700927 -0.042772915 0.08891897 -0.09553531 -0.12377585 0.081390716
0.104016066 0.21578382 0.09539815 -0.08967165 0.18562412 0.059572548 -0.40042242 -0.03385775
0.19710866 0.18537803 0.07107941 -0.049480453 -0.1423603 0.34802884 0.10642792 0.1680893
-0.05079994 0.11283534 0.21031067 0.12562178 -0.090623006 0.066156544 0.18768066 -0.10085185
-0.19635138 -0.11507753 -0.15038185 0.01944891 0.21686268 -0.3387969 0.11726013 0.31730667
-0.13602129 0.016536979 0.08640457 0.15909779 -0.2848898 -0.2948803 -0.18660815 0.23756193
0.3415798 -0.37262747 0.2925957 -0.06981516 0.044713076 -0.29672822 -0.08658283 -0.10895046
0.4710761 0.3844648 -0.18537867 -0.28744274 -0.10992549 0.1047308 0.18310876 -0.16843665
0.2917119 -0.12813307 -0.14668863 -0.42845616 0.12807718 0.06275602 0.17223647 -0.111872174
-0.18130617 0.269001 0.09964989 -0.15732679 0.17821993 0.111195885 -0.028168233 -0.14468175
-0.19637737 -0.20103654 -0.43387514 -0.4136131 0.21391456 -0.16737945 -0.3174246 0.065305024
-0.27198094 0.26686835 0.22002606 0.23155677 -0.05854638 -0.3004895 -0.1786554 -0.2001474
-0.3409345 -0.33220372 0.057739127 -0.28262496 -0.085464135 0.013613891 -0.27357545 0.092240505
-0.0067538735 0.063852206 -0.28578496 0.013813424 0.23650509 0.45826808 0.18777697 0.15244785
0.19366522 -0.2276661 0.53332186 0.012150024 0.3293877 0.34368566 -0.28424802 -0.35103974
-0.33116746 0.29755655 -0.2805375 -0.19753402 0.027816273 0.039126154 -0.21915087 0.35306823
-0.04558191 -0.14709362 -0.3745346 -0.42924425 0.108380534 0.369392 -0.27946708 -0.00075063243
-0.14744768 -0.3516664 -0.06932757 -0.08199781 0.010939409 0.15729302 0.4207284 -0.056613915
-0.10897372 -0.08737181 -0.03003818 -0.15172786 0.32560077 0.24604633 0.21114916 -0.11155471
0.23004083 -0.36850655 0.19308609 0.22053586 0.06272798 0.33669308 -0.2988318 0.23294833
0.05353238 -0.24454843 0.26184955 -0.14826085 0.26958674 -0.11491051 0.001973433 -0.2682961
0.1781206 -0.4144487 -0.20034434 -0.3292204 0.25353482 0.09957121 0.23036893 0.02483297
0.01820134 0.4830402 0.28295353 0.047655154 0.11337236 0.089984834 -0.18867733 0.14645998
-0.023299756 0.11898942 -0.07655122 0.15369023 0.07253853 -0.22986038 -0.3152676 -0.03831897
0.09593372 -0.09826714 0.014128604 -0.032697324 -0.19340336 -0.23792711 -0.106974036 -0.32508582
-0.10216198 0.18789893 -0.22731078 0.2259125 -0.23482066 -0.1775769 0.31033838 0.061732683
0.05426907 -0.22691436 0.22724304 -0.020283146 -0.079359725 0.19748448 -0.39187407 0.22927119
-0.2339465 0.11391337 -0.05515083 -0.32119337 0.28104025 -0.16950643 -0.290441 0.43835267
0.21732911 -0.17158118 0.01470089 -0.09409079 -0.013396739 -0.10141463 0.31725943 0.16547264
0.3537822 0.1871677 -0.35850096 0.20265763 -0.04534998 -0.10154406 -0.13395458 -0.2221837
00000000: 6c9e 6ebe e797 a8be aef1 de3e a8ab 94bd
00000010: 5e61 0c3e 4c75 533d e2d4 533e ac85 13be
00000020: 4451 d7be 4097 6bbd 0072 863e 64a4 80be
00000030: 70e5 363e 28af 38be d3a1 80be 0410 a63e
00000040: 7ce8 2abe a09b 44be 1e75 68be a732 2fbd
00000050: 261b b63d 04a8 c3bd 317e fdbd 2db0 a63d
00000060: 6006 d53d 6ff6 5c3e 1b60 c33d c5a5 b7bd
00000070: 4014 3e3e 5802 743d 2b04 cdbe 6dae 0abd
00000080: dad6 493e bdd3 3d3e 1592 913d 04ac 4abd
00000090: e6c6 11be d630 b23e e2f6 d93d 9a1f 2c3e
000000a0: 9913 50bd 3716 e73d ae5b 573e ffa2 003e
000000b0: 8e98 b9bd 157d 873d 5c2f 403e 6a8b cebd
000000c0: 5610 49be c5ad ebbd b3fd 19be 5253 9f3c
000000d0: 4011 5e3e ca76 adbe 1426 f03d 0576 a23e
000000e0: 2a49 0bbe 8f78 873c e1f4 b03d 88ea 223e
000000f0: 13dd 91be 8dfa 96be 3516 3fbe 6f43 733e
00000100: 8ce3 ae3e 07c9 bebe 1bcf 953e 40fb 8ebd
00000110: 0f25 373d c3ec 97be 5752 b1bd 6b21 dfbd
00000120: e330 f13e 92d8 c43e e8d3 3dbe b22b 93be
00000130: 9e20 e1bd 1a7d d63d dd80 3b3e a87a 2cbe
00000140: 435b 953e 5135 03be 8b35 16be 9b5e dbbe
00000150: aa26 033e 3a86 803d c25e 303e 3d1d e5bd
00000160: 53a8 39be 80ba 893e 3e15 cc3d 461a 21be
00000170: 497f 363e abba e33d 11c1 e6bc 7427 14be
00000180: 2617 49be 86dc 4dbe e224 debe 19c5 d3be
00000190: 6b0c 5b3e 8565 2bbe 7a85 a2be a4be 853d
000001a0: 1641 8bbe f8a2 883e 834e 613e 381d 6d3e
000001b0: 54ce 6fbd c2d9 99be 71f1 36be 71f3 4cbe
000001c0: f78e aebe 9b16 aabe dd7f 6c3d 38b4 90be
000001d0: d207 afbd cc0c 5f3c 1512 8cbe 97e8 bc3d
000001e0: 994f ddbb f2c4 823d 6852 92be b351 623c
000001f0: 642e 723e 1da2 ea3e 9b48 403e 4a1b 1c3e
00000200: 2d50 463e 4d21 69be c887 083f e510 473c
00000210: 81a5 a83e 91f7 af3e f588 91be 7bbb b3be
00000220: c88e a9be 5559 983e 9ca2 8fbe 5c46 4abe
00000230: f4de e33c bf42 203d 1669 60be 5cc5 b43e
00000240: 19b4 3abd b69f 16be 00c3 bfbe e7c5 dbbe
00000250: 9df6 dd3d f320 bd3e 4f16 8fbe 17c6 44ba
00000260: 86fc 16be 9e0d b4be 9dfb 8dbd 78ee a7bd
00000270: 353b 333c 6c11 213e b669 d73e fee3 67bd
00000280: 9d2d dfbd feef b2bd a112 f6bc 8c5e 1bbe
00000290: 25b5 a63e 92f3 7b3e 7c37 583e cc76 e4bd
000002a0: d38f 6b3e e4ac bcbe 5cb8 453e 27d4 613e
000002b0: 8777 803d 0963 ac3e 7b00 99be 028a 6e3e
000002c0: c544 5b3d e76a 7abe 2511 863e b1d1 17be
000002d0: 4607 8a3e 3456 ebbd b654 013b 1b5e 89be
000002e0: 3f65 363e 9f32 d4be 1127 4dbe 948f a8be
000002f0: 51cf 813e feeb cb3d d5e5 6b3e 836e cb3c
00000300: fa1a 953c 0c51 f73e 49df 903e 0d32 433d
00000310: c52f e83d f849 b83d a134 41be 9bf9 153e
00000320: 21df bebc bab0 f33d e3c6 9cbd f960 1d3e
00000330: 158f 943d 8560 6bbe c16a a1be 5af4 1cbd
00000340: e678 c43d 4840 c9bd a97b 673c a1ed 05bd
00000350: 880b 46be 2aa3 73be 3415 dbbd a671 a6be
00000360: 4d3a d1bd 9468 403e 28c4 68be 9b55 673e
00000370: d474 70be b8d6 35be ace4 9e3e 69db 7c3d
00000380: 3f49 5e3d 3d5c 68be 66b2 683e d728 a6bc
00000390: 5a87 a2bd 5f39 4a3e b8a3 c8be 11c6 6a3e
000003a0: ac8f 6fbe 6a4b e93d d6e5 61bd 7573 a4be
000003b0: 82e4 8f3e 1893 2dbe afb4 94be c36f e03e
000003c0: 868b 5e3e fab2 2fbe 00dc 703c acb2 c0bd
000003d0: ff7d 5bbc 79b2 cfbd d46f a23e a971 293e
000003e0: f122 b53e e4a8 3f3e 708d b7be 7b85 4f3e
000003f0: e7c0 39bd 55f6 cfbd 642b 09be 2084 63be

in_proj_bias f4 [33]
-0.18577239 -0.034645874 -0.038157344 0.08564304 -0.119614005 0.019423703 -0.069497764 0.18548074
-0.070382714 -0.11025264 0.119588025 -0.00033634555 -0.003241961 -0.0013790224 0.00020168017 -6.88776e-05
0.0018733053 0.0008913457 0.00256167 0.0012713053 -0.0010834726 0.00020224114 -0.04500544 0.059591684
-0.009654333 0.021209925 -0.031493817 0.0153013095 0.034861535 0.036382236 -0.043282174 -0.025476057
-0.010420215
00000000: 1e3b 3ebe d5e8 0dbd e04a 1cbd 9e65 af3d
00000010: 30f8 f4bd 751e 9f3c d854 8ebd aaee 3d3e
00000020: d024 90bd 23cc e1bd 91ea f43d 8957 b0b9
00000030: 1477 54bb 50c0 b4ba 1c7a 5339 6172 90b8
00000040: b289 f53a 33a9 693a b1e1 273b eda1 a63a
00000050: 4f03 8eba b110 5439 a057 38bd 6916 743d
00000060: 352d 1ebc 70c0 ad3c a9ff 00bd 58b2 7a3c
00000070: f8ca 0e3d 8a05 153d a648 31bd 2ab3 d0bc
00000080: 8db9 2abc

weight f4 [11, 11]
-0.25589782 -0.1581163 0.3002227 0.08568524 0.14660326 0.0018246783 0.12007851 0.11487973
-0.018302176 0.06984688 0.10803669 -0.0004208752 0.0060764905 0.19683468 0.18865915 -0.05554153
-0.24138181 -0.11162783 0.09804857 -0.030740932 0.08893762 0.009971321 0.29462704 0.03623098
-0.18336421 -0.24084897 -0.28937858 0.079069324 0.059566166 -0.05888459 -0.1630969 0.0012071179
0.08911508 -0.09444206 -0.07192589 0.18786928 -0.090370625 -0.15609415 0.23778942 0.23555753
0.14357369 -0.10603497 0.100271426 -0.3123525 0.2694209 0.013215161 0.21511295 -0.08021312
-0.1281233 -0.19977102 -0.2788768 -0.08218961 -0.06916106 0.27743265 -0.19391306 0.22045606
0.26317623 -0.033306632 0.20160866 0.06520808 -0.03877418 0.047913067 0.035460245 0.08318889
0.20839266 -0.17257947 0.02592205 0.08804801 -0.11903721 -0.21161343 0.026595924 -0.14502507
0.1520426 -0.03921974 0.10582883 -0.110351615 -0.036703866 -0.099622235 0.13430151 -0.059342023
0.24742945 -0.15568604 0.17764957 0.16354692 0.097226955 -0.19507025 0.1339954 0.30732393
0.049162902 0.19816934 -0.104409195 -0.09562524 0.08599393 -0.22934642 -0.20473304 0.27892256
-0.07115603 -0.17932051 -0.08629807 0.28311002 -0.23249489 0.00891076 0.022703629 0.20207392
-0.2515781 -0.11007475 0.28703484 0.1395642 0.11057423 0.12676238 -0.023031933 0.23807928
-0.09701457 0.22014543 -0.23774163 -0.16019697 0.21634722 0.185183 0.06609783 -0.0051986645
0.04282481
00000000: 0a05 83be 3de9 21be cab6 993e be7b af3d
00000010: 2a1f 163e 0b2a ef3a b9eb f53d 1046 eb3d
00000020: 72ee 95bc e20b 8f3d 5742 dd3d eaa8 dcb9
00000030: 4c1d c73b 088f 493e dd2f 413e 847f 63bd
00000040: cb2c 77be 229d e4bd b0cd c83d 68d4 fbbc
00000050: ed24 b63d c05e 233c 5bd9 963e f066 143d
00000060: d4c3 3bbe 1da1 76be 6e29 94be 19ef a13d
00000070: a7fb 733d f830 71bd e002 27be 2838 9e3a
00000080: f881 b63d d76a c1bd e24d 93bd ce60 403e
00000090: 3c14 b9bd 25d7 1fbe 127f 733e fe35 713e
000000a0: fb04 133e dd28 d9bd 1b5b cd3d abec 9fbe
000000b0: 89f1 893e 6784 583c 9246 5c3e c746 a4bd
000000c0: c132 03be c690 4cbe f1c8 8ebe 0753 a8bd
000000d0: 50a4 8dbd a70b 8e3e 2591 46be 3cbf 613e
000000e0: 09bf 863e 896c 08bd 8072 4e3e d08b 853d
000000f0: add1 1ebd 7e40 443d c33e 113d f05e aa3d
00000100: e364 553e acb8 30be 7b5a d43c 8452 b43d
00000110: c8c9 f3bd 31b1 58be b2df d93c 7481 14be
00000120: 0eb1 1b3e e1a4 20bd c9bc d83d 0700 e2bd
00000130: cb56 16bd be06 ccbd 5686 093e 9f10 73bd
00000140: 255e 7d3e 296c 1fbe c5e9 353e d878 273e
00000150: ed1e c73d 7fc0 47be 1736 093e 9059 9d3e
00000160: 0a5f 493d e7ec 4a3e 7dd4 d5bd 2ad7 c3bd
00000170: 961d b03d cad9 6abe 8aa5 51be f0ce 8e3e
00000180: 41ba 91bd cc9f 37be 0bbd b0bd ccf3 903e
00000190: 2413 6ebe 70fe 113c f6fc b93c 77ec 4e3e
000001a0: d8ce 80be df6e e1bd 3bf6 923e ebe9 0e3e
000001b0: be74 e23d ffcd 013e 77ad bcbc 0ecb 733e
000001c0: 93af c6bd ce6d 613e 8b72 73be ad0a 24be
000001d0: 208a 5d3e 9da0 3d3e 4d5e 873d 8f59 aabb
000001e0: 1169 2f3d

bias f4 [11]
-0.0064989156 0.012383113 0.018174708 0.029073631 -0.029661367 -0.029929884 -0.019390427 0.045372974
0.03225224 -0.04409222 0.06422563
00000000: dbf4 d4bb 8ae2 4a3c 20e3 943c d32b ee3c
00000010: 65fc f2bc 842f f5bc acd8 9ebc 03d9 393d
00000020: ed1a 043d 0b9a 34bd ba88 833d
