PonziShield_tr_v3.pth (torch, 406178 bytes, 110 tensors)

weight f4 [108, 11]
-0.28090551 -1.0042856 -0.7712933 1.634341 0.43270427 1.2426033 2.1460145 1.1514108
-1.3187797 0.37228554 1.8681309 -0.63049644 0.7475418 -0.6786253 1.0395677 0.8151271
-1.070193 1.3064153 -1.7289047 2.0307918 1.4953018 -1.2552725 -1.0026182 -1.8937656
-0.1526092 -0.23548555 1.3045484 0.03859173 0.6421711 0.02476953 -0.074955486 1.2858081
0.2669842 -0.06400678 0.65846896 -0.138776 -1.8240569 -0.7874417 -0.871075 -1.2950565
-2.1090267 -0.0334528 0.17606975 -0.7760174 -0.98527664 -2.043959 0.445507 -1.3020167
-0.9930556 0.0076465392 0.93500423 0.3222569 -0.012703844 0.12875931 1.7708739 0.31535032
1.8822885 0.41033652 1.0215782 -0.5757531 0.36606675 0.20606576 -0.610868 0.10437201
1.5871919 0.3934416 1.1187946 1.4051601 -0.62486076 -0.15035278 0.7745838 -1.1035738
-0.22330686 -0.25218347 -1.0308875 -0.7891918 1.7347102 -0.3470135 0.07885437 0.7075887
0.7880475 -0.24062 -0.499708 0.14350893 1.4804996 -0.21527004 -0.8720486 -0.22800766
-1.1767472 1.4550219 0.19931139 1.0624416 0.27636662 -0.06853967 -0.68629324 -0.17751765
-0.24863777 -1.5241641 -1.1233462 -1.6381792 0.8322109 -1.5037748 0.09544917 -0.24466123
1.9516666 -0.73833746 0.44768384 -0.2983464 -0.5113822 -1.602776 0.16309988 -1.2445309
-0.51110625 0.21671566 -1.0328771 -0.46387476 1.390037 1.8119417 -0.7795992 -0.08701155
1.3284786 0.050616067 -0.1584381 0.085842565 -1.1867787 1.1731577 -1.0879835 -0.24062316
-0.64692307 -0.53881514 -0.13694502 -0.3013655 0.10239352 -0.034232527 -0.4322074 0.14624391
0.054731715 -0.9929354 0.0593515 0.47889847 0.68112266 -1.1603315 -0.2583248 0.34642863
-0.20607553 -0.93355495 -0.50223774 -0.57709193 0.23735636 0.45880055 -1.1154138 0.10134801
-0.9769647 -1.0974082 -0.7745933 1.7826021 0.94755673 1.5140849 -0.7619358 0.09548537
-0.37604982 0.42045206 -0.37087846 -1.3819798 0.4486362 -0.8529393 -0.66053665 2.1819582
-0.22562486 -0.80955684 -0.634061 -0.81912804 -0.2862969 -1.853702 0.03091803 -0.8417796
-0.5286329 -1.1551446 0.8674464 -0.9341342 -2.0873842 -0.39652693 0.013104087 1.2118622
-0.8697766 -0.34290764 -0.34370646 0.420265 -0.0646533 0.5945548 -1.9439061 1.8418884
0.59776044 1.2705334 -2.2962136 -0.5228868 0.07195982 0.82418895 -0.32262832 0.13643725
1.3801733 -0.017713813 -0.7954813 -0.20267364 1.020306 -0.76671404 2.9198856 -0.53445727
0.3243741 1.4106394 0.7295722 -0.7958938 -1.1605078 -0.54408324 -0.41617167 0.20713606
0.48442242 -0.8113556 0.9446845 -0.30854023 1.0041848 -1.6507455 -0.9946473 0.43304512
-0.7930353 0.15530911 -0.06344012 -1.5003176 0.62566864 0.45827007 0.24434088 0.1568807
-1.2432858 -1.21314 -0.4648044 0.7834714 -2.9914587 0.95667094 0.4357017 -0.010215791
0.29093584 0.5514481 0.46216652 0.32043153 -0.036733475 0.6835285 2.1361203 -1.3570503
0.75386816 -0.13233426 -0.22843961 1.4527775 1.1039306 0.019888086 -0.23661865 0.5518342
00000000: d9d2 8fbe 6e8c 80bf 7a73 45bf 1632 d13f
00000010: 6a8b dd3e a00d 9f3f 4d58 0940 6e61 933f
00000020: c6cd a8bf 369c be3e ea1e ef3f 3768 21bf
00000030: e65e 3f3f 63ba 2dbf 8e10 853f 2bac 503f
00000040: 16fc 88bf 9e38 a73f c04c ddbf 7ef8 0140
00000050: 0d66 bf3f c5ac a0bf cb55 80bf e966 f2bf
00000060: 9645 1cbe 2023 71be 71fb a63f 5d12 1e3d
00000070: 5365 243f 78e9 ca3c 4382 99bd 5c95 a43f
00000080: 27b2 883e fd15 83bd 6c91 283f 4c1b 0ebe
00000090: b27a e9bf c795 49bf c5fe 5ebf 69c4 a5bf
000000a0: 4bfa 06c0 ce05 09bd a14b 343e 14a9 46bf
000000b0: 173b 7cbf 39d0 02c0 7e19 e43e 7ca8 a6bf
000000c0: e438 7ebf d28f fa3b 705c 6f3f dbfe a43e
000000d0: c923 50bc 7bd9 033e ffab e23f 9975 a13e
000000e0: d4ee f03f a117 d23e 13c3 823f 8e64 13bf
000000f0: 1a6d bb3e e702 533e d861 1cbf fec0 d53d
00000100: 1b29 cb3f 2d71 c93e a934 8f3f 49dc b33f
00000110: e0f6 1fbf 14f6 19be 204b 463f e841 8dbf
00000120: 8eaa 64be 311e 81be 1ff4 83bf 7908 4abf
00000130: fc0a de3f c1ab b1be 667e a13d 8824 353f
00000140: 7bbd 493f 1765 76be bad9 ffbe 01f4 123e
00000150: 0381 bd3f c06f 5cbe 943e 5fbf d77a 69be
00000160: a79f 96bf 283e ba3f 4918 4c3e 16fe 873f
00000170: ed7f 8d3e 875e 8cbd eab0 2fbf 30c7 35be
00000180: e69a 7ebe cf17 c3bf cfc9 8fbf dbaf d1bf
00000190: c60b 553f b17b c0bf db7a c33d 7988 7abe
000001a0: 36d0 f93f af03 3dbf d136 e53e dcc0 98be
000001b0: f2e9 02bf c427 cdbf a803 273e ca4c 9fbf
000001c0: dcd7 02bf b6ea 5d3e 5135 84bf fe80 edbe
000001d0: bbec b13f b5ed e73f d093 47bf 1d33 b2bd
000001e0: 960b aa3f cb52 4f3d 993d 22be 3ace af3d
000001f0: 5de8 97bf 082a 963f 0b43 8bbf eb65 76be
00000200: c09c 25bf caef 09bf 513b 0cbe 944c 9abe
00000210: b2b3 d13d 6837 0cbd 4a4a ddbe f7c0 153e
00000220: 5d2e 603d 0431 7ebf 8f1a 733d 2e32 f53e
00000230: 0e5e 2e3f be85 94bf 2643 84be 185f b13e
00000240: 7705 53be 75fd 6ebf a792 00bf 4cbc 13bf
00000250: 8c0d 733e e8e7 ea3e e1c5 8ebf 8c8f cf3d
00000260: 5c1a 7abf df77 8cbf bf4b 46bf 4e2c e43f
00000270: 1493 723f 89cd c13f 390e 43bf d58d c33d
00000280: 9a89 c0be 7e45 d73e c8e3 bdbe b7e4 b0bf
00000290: a5b3 e53e 3b5a 5abf ee18 29bf 34a5 0b40
000002a0: 340a 67be 1e3f 4fbf d251 22bf 60b2 51bf
000002b0: 8295 92be 1b46 edbf cf47 fd3c de7e 57bf
000002c0: 7c54 07bf c7db 93bf f810 5e3f 6b23 6fbf
000002d0: b497 05c0 9405 cbbe 86b2 563c 4d1e 9b3f
000002e0: aea9 5ebf 9791 afbe 4bfa afbe f92c d73e
000002f0: f368 84bd be34 183f ead1 f8bf 00c3 eb3f
00000300: d406 193f d7a0 a23f 2af5 12c0 e9db 05bf
00000310: ac5f 933d 0cfe 523f 8a2f a5be 35b6 0b3e
00000320: 85a9 b03f 8f1c 91bc aaa4 4bbf ae89 4fbe
00000330: 6399 823f 5f47 44bf 68df 3a40 31d2 08bf
00000340: 5d14 a63e d58f b43f 3ec5 3a3f b2bf 4bbf
00000350: 858b 94bf 0a49 0bbf 7414 d5be 7a1b 543e
00000360: 3706 f83e 00b5 4fbf d8d6 713f fcf8 9dbe
00000370: 2189 803f a14b d3bf 35a1 7ebf 17b8 dd3e
00000380: 5d04 4bbf 5a09 1f3e e5ec 81bd 680a c0bf
00000390: d22b 203f 60a2 ea3e 7f34 7a3e 56a5 203e
000003a0: fd23 9fbf 2c48 9bbf d8fa edbe 9591 483f
000003b0: 0f74 3fc0 63e8 743f 4b14 df3e 2260 27bc
000003c0: 8bf5 943e b42b 0d3f 17a1 ec3e 9a0f a43e
000003d0: d775 16bd b9fb 2e3f 32b6 0840 d3b3 adbf
000003e0: 81fd 403f a282 07be 13ec 69be 9df4 b93f
000003f0: 994d 8d3f 57ec a23c 294c 72be 0245 0d3f

in_proj_weight f4 [33, 11]
-0.21477757 -0.26465195 -0.36953926 -0.15029858 0.21692201 0.14876531 -0.46668166 -0.37197596
0.06756992 -0.5691251 -0.19623066 0.06673568 0.074496605 0.2524486 -0.12394616 -0.5139178
-0.33685124 0.11588298 -0.13833037 0.22947855 -0.16352756 0.1892339 0.0638711 0.1313571
0.39658585 0.045172486 -0.15638904 -0.42337132 -0.041625667 -0.08784597 0.30711806 0.31075263
-0.1413899 -0.08618154 0.0105586285 0.3951112 0.25985578 -0.3047013 -0.35515642 0.29870293
0.26989642 0.095169455 0.16065216 -0.07597588 0.23536146 0.08245536 -0.35384962 0.031915743
-0.07251663 -0.16765851 0.28518343 -0.2088717 -0.006825786 -0.12557426 0.14855221 0.36917916
-0.16995504 0.35794893 -0.21266145 -0.1917944 -0.2209828 -0.13003689 0.37068564 0.013174807
0.12924026 0.32078162 0.0033472097 -0.2495611 -0.2226213 -0.31081495 0.10969607 -0.25536275
-0.022519626 -0.51406354 -0.061323155 0.17085108 -0.21930768 -0.18259104 0.20254734 0.2682322
0.1884648 0.078681685 0.2738488 -0.17409454 -0.074038185 -0.041074656 0.108063385 -0.35745564
-0.067287944 0.30957943 0.14915073 -0.37718475 0.068478644 0.14577252 -0.13986176 0.28534833
0.3485138 0.08591544 0.38981485 -0.17782791 -0.27818626 -0.3223423 0.09741619 -0.024390588
-0.3259527 -0.143544 0.27517226 -0.28457186 -0.08612681 0.21450157 -0.09230436 -0.24314575
-0.18281533 -0.11788007 -0.29875422 0.18205237 -0.09540514 0.21843892 0.30838364 -0.21087179
0.032322228 0.28958634 -0.25116527 -0.28751415 0.3423312 0.2593524 -0.14876893 0.4613946
0.11358015 0.22246522 -0.19106807 0.3241805 0.09103549 0.11218863 0.33638263 -0.06590345
0.31182095 0.18155639 -0.05542924 0.23561509 0.38004664 0.26615083 -0.23472169 0.32055998
-0.25425595 0.38973135 -0.24636316 -0.22693999 0.082398385 0.25610203 0.08812861 -0.344843
-0.06350429 -0.43188393 -0.092486605 0.42665875 -0.28069595 0.109440975 0.182657 -0.023589918
-0.25847018 -0.35080573 0.1401167 0.35390738 -0.060867734 0.29422954 -0.19471052 0.05226597
0.13797127 0.26346824 -0.14154121 -0.22685061 0.015499434 -0.1060113 -0.16895781 -0.17321207
-0.28751847 -0.33349943 0.16125976 0.22810385 0.0318534 0.34489793 -0.18895529 -0.22103985
0.16101123 -0.27620047 -0.3030448 0.03637564 -0.07235893 -0.23779342 -0.09853325 -0.12514727
-0.21229383 -0.0352571 -0.35322547 -0.28822458 0.02051059 0.31680596 -0.004640833 -0.187323
-0.24888319 0.1756899 0.03798372 -0.035999507 -0.14898832 0.33466634 0.08984641 0.41966814
0.04406746 -0.17523713 -0.08665684 -0.37510598 -0.1340829 -0.44539383 -0.32202512 0.25617158
0.2435673 -0.45843235 -0.3367085 -0.36745834 0.37318352 0.08104721 0.38552594 0.27814785
0.022692852 -0.09551487 -0.008583112 -0.14063945 -0.021984687 -0.0626319 -0.2506945 -0.11138756
0.16571113 -0.15304087 -0.3056872 -0.010016479 0.023799326 -0.16853878 0.05104745 -0.16133022
0.21089333 -0.06729589 0.3669032 -0.115435004 -0.29922795 -0.12954845 0.28325355 -0.12316354
0.36308312 0.24191698 0.31548405 -0.16461837 0.26606452 0.18647476 0.20868175 -0.3760337
00000000: a7ee 5bbe 7680 87be 4034 bdbe dfe7 19be
00000010: ce20 5e3e ef55 183e e6f0 eebe a273 bebe
00000020: 1962 8a3d 2fb2 11bf b1f0 48be b7ac 883d
00000030: ad91 983d f140 813e 7cd7 fdbd 1e90 03bf
00000040: c477 acbe 0e54 ed3d 7aa6 0dbe 6dfc 6a3e
00000050: c573 27be 88c6 413e dace 823d 7a82 063e
00000060: 4d0d cb3e c906 393d 7324 20be 20c4 d8be
00000070: ad7f 2abd 97e8 b3bd 943e 9d3e f81a 9f3e
00000080: 84c8 10be f27f b0bd 19fe 2c3c 044c ca3e
00000090: d10b 853e cf01 9cbe 10d7 b5be 97ef 983e
000000a0: dd2f 8a3e 34e8 c23d 0082 243e 3e99 9bbd
000000b0: 9802 713e 5bde a83d c72b b5be 15ba 023d
000000c0: 9983 94bd acae 2bbe 9003 923e 77e2 55be
000000d0: d8aa dfbb 8a96 00be 121e 183e 0d05 bd3e
000000e0: b208 2ebe 1545 b73e ecc3 59be c065 44be
000000f0: 5149 62be 6428 05be 82ca bd3e 25db 573c
00000100: 8f57 043e 7d3d a43e dc5c 5b3b f28c 7fbe
00000110: d7f6 63be 2323 9fbe 55a8 e03d e8be 82be
00000120: 147b b8bc ab99 03bf fd2d 7bbd 96f3 2e3e
00000130: 3192 60be 25f9 3abe 9268 4f3e bb55 893e
00000140: ebfc 403e dd23 a13d e935 8c3e d745 32be
00000150: 55a1 97bd e63d 28bd 5650 dd3d 6d04 b7be
00000160: 43ce 89bd 3281 9e3e f8ba 183e 5c1e c1be
00000170: 883e 8c3d 6445 153e ec37 0fbe 2d19 923e
00000180: 6770 b23e 6ff4 af3d d095 c73e 8518 36be
00000190: 6e6e 8ebe 0d0a a5be 2482 c73d c5ce c7bc
000001a0: 46e3 a6be 33fd 12be 61e3 8c3e 67b3 91be
000001b0: 4163 b0bd 4da6 5b3e 110a bdbd 33fb 78be
000001c0: f133 3bbe 1b6b f1bd 50f6 98be f06b 3a3e
000001d0: c563 c3bd 74ae 5f3e 76e4 9d3e c6ee 57be
000001e0: 5064 043d a944 943e bc98 80be 0e35 93be
000001f0: 0946 af3e d6c9 843e e256 18be ea3b ec3e
00000200: b69c e83d eccd 633e 59a7 43be fdfa a53e
00000210: d170 ba3d 27c3 e53d 583a ac3e 63f8 86bd
00000220: ffa6 9f3e ebe9 393e c509 63bd 1545 713e
00000230: 7995 c23e ec44 883e e25a 70be 7020 a43e
00000240: d62d 82be de8a c73e a046 7cbe f562 68be
00000250: 7cc0 a83d ce1f 833e c67c b43d 438f b0be
00000260: 8a0e 82bd e41f ddbe 9e69 bdbd 0473 da3e
00000270: 61b7 8fbe 9722 e03d 700a 3b3e a53f c1bc
00000280: 3456 84be cf9c b3be c17a 0f3e 5933 b53e
00000290: 7250 79bd 41a5 963e 3262 47be d714 563d
000002a0: 5748 0d3e 4fe5 863e 2ef0 10be 874b 68be
000002b0: 57f1 7d3c 741c d9bd 4703 2dbe 815e 31be
000002c0: 9f35 93be 70c0 aabe 4721 253e 0e94 693e
000002d0: b678 023d 7696 b03e 7f7d 41be 4558 62be
000002e0: 21e0 243e 266a 8dbe b028 9bbe a0fe 143d
000002f0: eb30 94bd 1e80 73be cdcb c9bd 9b26 00be
00000300: 8e63 59be c069 10bd f8d9 b4be 2c92 93be
00000310: d305 a83c 6434 a23e 2112 98bb 9ad1 3fbe
00000320: 3cdb 7ebe 0ee8 333e d194 1b3d 3874 13bd
00000330: 6590 18be 6359 ab3e 6501 b83d bede d63e
00000340: 1580 343d 5d71 33be 2479 b1bd e40d c0be
00000350: 074d 09be a90a e4be 7ae0 a4be ec28 833e
00000360: b569 793e a5b7 eabe 0e65 acbe 8023 bcbe
00000370: e911 bf3e 14fc a53d a863 c53e 6569 8e3e
00000380: 5ce6 b93c 4d9d c3bd 2ea0 0cbc ca03 10be
00000390: 3b19 b4bc 2745 80bd 085b 80be 291f e4bd
000003a0: 2eb0 293e bfb6 1cbe 0883 9cbe 281c 24bc
000003b0: cef6 c23c 6e95 2cbe 2217 513d c033 25be
000003c0: 6cf4 573e 6dd2 89bd bcda bb3e 3069 ecbd
000003d0: 6834 99be 59a8 04be 9c06 913e 2b3d fcbd
000003e0: 08e6 b93e 16b9 773e 2087 a13e b891 28be
000003f0: 9c39 883e 3df3 3e3e abb0 553e 7d87 c0be

in_proj_bias f4 [33]
0.10582383 0.11278924 -0.014774855 0.12947834 0.109612405 -0.0630587 -0.014157422 -0.057565894
-0.054470588 0.02063275 0.03162841 -0.00992032 0.012294347 -0.005662696 -0.0029359746 0.00052962225
0.018608524 -0.003961017 -0.0008942505 -0.00041345236 -0.006409773 -0.0012191198 -0.015313366 0.03855739
-0.02163574 0.041110415 0.061322898 -0.040913034 0.030132893 -0.008956112 0.14186202 -0.013553016
-0.05172787
00000000: 2aba d83d 0cfe e63d 3c12 72bc f895 043e
00000010: 787c e03d eb24 81bd 88f4 67bc 37ca 6bbd
00000020: 8d1c 5fbd 0306 a93c cb8c 013d d688 22bc
00000030: 3b6e 493c 238e b9bb 7b69 40bb 59d6 0a3a
00000040: e770 983c 6bcb 81bb 236c 6aba a3c4 d8b9
00000050: 1309 d2bb dfca 9fba eae4 7abc 5bee 1d3d
00000060: 6f3d b1bc 6563 283d b82d 7b3d 6d94 27bd
00000070: 42d9 f63c a8bc 12bc 4744 113e 780d 5ebc
00000080: 9ae0 53bd

weight f4 [11, 11]
0.15829393 0.07451403 -0.17957862 -0.024999041 0.044611882 -0.06813377 -0.025917182 0.07757283
0.16195941 -0.034419514 0.06117038 0.025950164 0.3062505 -0.13723144 -0.05987887 -0.15590794
-0.016899778 0.2132503 -0.24944668 -0.052357465 -0.15728588 -0.2484502 0.26927692 0.11054514
-0.22364332 -0.09853762 -0.13604844 0.26498306 -0.2254916 -0.17727405 0.2722036 0.14973222
-0.16639912 -0.014903871 -0.18971546 -0.058485914 0.41386244 -0.004310531 -0.4228896 -0.06888741
0.124388814 -0.07829656 -0.14530034 -0.25647628 0.28752798 0.17639396 -0.22758476 0.0006412752
-0.05405782 0.10522421 -0.08962299 0.1712575 -0.21455489 -0.11910999 0.23315968 -0.1681382
-0.23268954 -0.1558746 0.08690378 -0.0074831923 0.108737215 0.15878412 -0.013102654 -0.19485839
-0.24082142 0.02001893 0.20751432 -0.09127707 -0.2738275 -0.09941423 0.13379058 0.14971143
0.18182875 0.033465724 0.24475656 0.2997652 -0.13893634 -0.43699473 -0.04510081 0.16316952
0.07129569 0.15015198 -0.19045976 -0.23836885 -0.16492975 0.13369772 0.106764615 -0.013784095
0.012240726 -0.24686381 -0.022980008 -0.18509799 0.32123244 0.10875102 -0.20188066 0.076674476
-0.1091985 -0.014105262 -0.27186415 -0.16871338 0.09618139 0.025782228 0.29130045 0.04299309
-0.318858 0.017286636 0.1134938 0.20610018 -0.26236188 0.06249624 0.26718664 0.3247068
0.017896188 -0.1608389 0.3406771 0.35996863 0.116789944 0.11202809 0.17215852 -0.08167411
0.010608304
00000000: ce17 223e d09a 983d 75e3 37be caca ccbc
00000010: f3ba 363d b889 8bbd 4550 d4bc 81de 9e3d
00000020: b0d8 253e 7afb 0cbd cb8d 7a3d 7095 d43c
00000030: decc 9c3e 6686 0cbe 8c43 75bd 55a6 1fbe
00000040: 6771 8abc 495e 5a3e f36e 7fbe c874 56bd
00000050: 8d0f 21be bb69 7ebe aade 893e 7e65 e23d
00000060: c102 65be 17ce c9bd 4850 0bbe dcab 873e
00000070: 45e7 66be 5487 35be 455e 8b3e 6753 193e
00000080: 8864 2abe 5e2f 74bc c544 42be ed8e 6fbd
00000090: c7e5 d33e 5b3f 8dbb fc84 d8be d814 8dbd
000000a0: 90bf fe3d f259 a0bd 9dc9 14be dc50 83be
000000b0: de36 933e 9ea0 343e fb0b 69be 401b 283a
000000c0: bc6b 5dbd ca7f d73d 428c b7bd 205e 2f3e
000000d0: 47b4 5bbe f0ef f3bd 69c1 6e3e 6c2c 2cbe
000000e0: 2b46 6ebe 979d 1fbe 9cfa b13d 9135 f5bb
000000f0: 9eb1 de3d 4e98 223e 84ac 56bc f588 47be
00000100: e499 76be bdfe a33c a27e 543e 79ef babd
00000110: 1e33 8cbe b099 cbbd 6600 093e f44d 193e
00000120: 5131 3a3e 5b13 093d 77a1 7a3e d37a 993e
00000130: 5445 0ebe c6bd dfbe a0bb 38bd e915 273e
00000140: 7a03 923d 71c1 193e e207 43be f716 74be
00000150: 58e3 28be 0ee8 083e 68a7 da3d afd6 61bc
00000160: 538d 483c dec9 7cbe 9240 bcbc 548a 3dbe
00000170: 9478 a43e dbb8 de3d ceb9 4ebe 8207 9d3d
00000180: 77a3 dfbd c219 67bc c731 8bbe 33c3 2cbe
00000190: c0fa c43d 4035 d33c 5525 953e 8619 303d
000001a0: 5b41 a3be b49c 8d3c 706f e83d ed0b 533e
000001b0: 4c54 86be 0ffc 7f3d b0cc 883e f83f a63e
000001c0: 079b 923c f4b2 24be 3b6d ae3e cf4d b83e
000001d0: 912f ef3d fc6e e53d 534a 303e c144 a7bd
000001e0: 74ce 2d3c

bias f4 [11]
0.04785229 0.05060478 -0.0472292 -0.003443141 -0.022065636 -0.042991143 0.027076505 0.05945259
0.054146595 0.051637035 0.023897769
00000000: c300 443d f546 4f3d 6873 41bd 52a6 61bb
00000010: fec2 b4bc 7b17 30bd 8ccf dd3c 8f84 733d
00000020: d2c8 5d3d 5b81 533d 41c5 c33c

weight f4 [8, 11]
-0.02536225 -0.27303764 -0.22523189 0.036457174 0.10211625 -0.15783143 -0.008546888 -0.19051999
-0.10341266 0.16491856 0.34638962 -0.21233903 -0.005186682 -0.282428 0.26839972 0.24255425
0.1657904 0.21968395 0.17805322 -0.26771164 0.21522339 0.08942506 -0.20032503 -0.20669322
0.29091585 -0.14835815 0.054704156 0.042490628 -0.21977672 0.13940941 -0.013297604 -0.13740769
-0.11852133 -0.070926666 0.003537879 0.012969204 -0.18165398 0.051244847 -0.1433437 0.3488584
-0.2516755 -0.18765299 -0.016550262 -0.20467982 0.11288043 -0.10648152 -0.008045533 0.28995946
-0.05768902 0.19542235 -0.13723455 0.09707794 -0.04301593 -0.036864463 -0.10911558 0.124569766
0.21606968 0.09902031 -0.04810582 0.2641124 0.109137334 -0.19781233 0.058212858 -0.13653849
0.003030259 -0.1974558 0.121621095 0.036718298 -0.19454657 0.1471967 -0.037762046 0.017415922
0.172313 0.0968024 -0.21933706 0.29936436 -0.07776766 -0.0528552 0.19523188 0.21434581
-0.19742075 0.110975906 0.19863793 -0.16772261 0.020531837 -0.22679737 0.11944952 0.034275
00000000: 7ec4 cfbc 97cb 8bbe 30a3 66be 1e54 153d
00000010: 5322 d13d 909e 21be 3f08 0cbc ac17 43be
00000020: 04ca d3bd 69e0 283e fb59 b13e 676f 59be
00000030: 0bf5 a9bb 679a 90be b06b 893e 2460 783e
00000040: f5c4 293e d4f4 603e 9553 363e 8011 89be
00000050: 8563 5c3e 7c24 b73d 0122 4dbe 63a7 53be
00000060: ecf2 943e 33eb 17be 7711 603d a70a 2e3d
00000070: 260d 61be 57c1 0e3e 32de 59bc 9ab4 0cbe
00000080: 50bb f2bd 0042 91bd c3db 673b c97c 543c
00000090: 8003 3abe 1ee6 513d b1c8 12be 919d b23e
000000a0: 9cdb 80be 1b28 40be 6a94 87bc 9697 51be
000000b0: db2d e73d fc12 dabd 69d1 03bc 9175 943e
000000c0: 524b 6cbd cc1c 483e 3787 0cbe cdd0 c63d
000000d0: 7931 30bd 31ff 16bd fd77 dfbd 6f1e ff3d
000000e0: 5f41 5d3e 29cb ca3d 9c0a 45bd be39 873e
000000f0: 6583 df3d 518f 4abe 9b70 6e3d bfd0 0bbe
00000100: 4f97 463b da31 4abe 7b14 f93d ed65 163d
00000110: 3737 47be bbba 163e 60ac 1abd d6ab 8e3c
00000120: d272 303e 5640 c63d e599 60be 4946 993e
00000130: a744 9fbd b27e 58bd deea 473e 787d 5b3e
00000140: aa28 4abe 5647 e33d be67 4b3e 7abf 2bbe
00000150: 6232 a83c 923d 68be f3a1 f43d f163 0c3d

bias f4 [8]
-0.18328269 -0.25272372 -0.30897543 -0.21410567 -0.24742417 0.21865498 -0.22371583 0.0011290649
00000000: 75ae 3bbe 0165 81be 0732 9ebe 843e 5bbe
00000010: c35c 7dbe 17e7 5f3e c315 65be 22fd 933a

weight f4 [11, 8]
0.055199955 -0.22696394 0.12138374 0.11317154 0.14388274 -0.1255485 -0.113043845 0.20752044
-0.25241846 0.18834962 0.058824696 0.38244346 0.15650384 0.07680839 0.024835195 0.21603909
0.13775344 0.21416725 0.047488227 0.31935185 0.27691934 -0.07215845 0.3000894 0.103282824
-0.032905936 -0.12623636 -0.33907527 -0.108545974 0.19884576 0.24588035 0.010456847 -0.11254625
-0.31922123 0.20652 0.16610399 0.05645156 -0.14087403 -0.031404365 0.06970541 -0.123533346
0.31641683 0.23250219 -0.020809043 -0.15920131 0.23543662 0.008483127 -0.08263061 -0.37263614
0.20062758 0.3343377 0.19594423 0.26257706 0.2638701 0.30442297 -0.043253135 -0.23768407
-0.31736624 -0.0069849375 0.13399711 -0.3820621 0.071247056 -0.3419168 0.1822587 -0.07862836
-0.21607253 0.08973314 0.34093082 0.1661273 -0.15541615 0.15474719 -0.04746976 0.29267412
0.03227923 -0.174886 0.33607784 0.13992384 0.070375934 -0.20814495 -0.34677875 0.20384283
-0.32086876 -0.2234778 -0.048031475 0.26315993 0.22941786 0.10414755 -0.23898286 0.16365458
00000000: 5919 623d 3c69 68be 0a98 f83d 7bc6 e73d
00000010: ff55 133e c98f 00be 8883 e7bd 3d80 543e
00000020: fe3c 81be b9de 403e 2af2 703d a1cf c33e
00000030: 8b42 203e b84d 9d3d 2e73 cb3c 5a39 5d3e
00000040: 3d0f 0d3e a94e 5b3e 0483 423d 1682 a33e
00000050: 5fc8 8d3e cfc7 93bd 51a5 993e f285 d33d
00000060: 60c8 06bd 1b44 01be 469b adbe 5a4d debd
00000070: 399e 4b3e 0fc8 7b3e 3253 2b3c a67e e6bd
00000080: f770 a3be fb79 533e 2a17 2a3e c039 673d
00000090: 4841 10be dda1 00bd b6c1 8e3d 0dff fcbd
000000a0: 6301 a23e 0e15 6e3e ba77 aabc ab05 23be
000000b0: 4c16 713e d0fc 0a3c 3d3a a9bd 2aca bebe
000000c0: 5171 4d3e 502e ab3e 9ba5 483e 8070 863e
000000d0: fb19 873e 54dd 9b3e 332a 31bd 7463 73be
000000e0: d47d a2be e7e1 e4bb 8a36 093e a59d c3be
000000f0: fae9 913d b80f afbe 06a2 3a3e e807 a1bd
00000100: 1e42 5dbe 02c6 b73d 7c8e ae3e 461d 2a3e
00000110: 6925 1fbe 0c76 1e3e a76f 42bd 62d9 953e
00000120: 3a37 043d 5115 33be 6512 ac3e 3248 0f3e
00000130: 4221 903d f323 55be fc8c b1be 2dbc 503e
00000140: e948 a4be 5dd7 64be a7bc 44bd e6bc 863e
00000150: 84ec 6a3e 504b d53d ecb7 74be 1195 273e

bias f4 [11]
0.041273985 0.025956068 -0.046744738 0.05220727 0.017711982 -0.1519141 0.1637113 -0.03772473
-0.18770719 0.2652896 0.0870609
00000000: e90e 293d d2a1 d43c 6977 3fbd 4ad7 553d
00000010: b818 913c 5f8f 1bbe efa3 273e 3f85 1abd
00000020: 5036 40be 0ad4 873e fc4c b23d

weight f4 [11]
0.9910411 1.011524 0.9726878 0.967877 1.1765394 0.8982919 1.0456121 1.2092036
0.9258099 1.032774 0.859002
00000000: dfb4 7d3f 9e79 813f 1102 793f c9c6 773f
00000010: d898 963f 75f6 653f 9ed6 853f 2fc7 9a3f
00000020: e101 6d3f f031 843f 8ee7 5b3f

bias f4 [11]
0.055881333 0.04689408 -0.039400756 -0.04561065 -0.04005886 -0.026855513 0.018667791 -0.045071796
0.074347176 0.01981892 0.015952185
00000000: d3e3 643d 0214 403d b062 21bd 3cd2 3abd
00000010: c214 24bd 1800 dcbc 32ed 983c 349d 38bd
00000020: 5543 983d 4a5b a23c 28ae 823c

weight f4 [11]
1.0067302 1.0199317 1.0030531 1.0258895 1.147437 0.93004495 1.0461993 1.1804066
0.90265155 1.0287952 0.8619544
00000000: 89dc 803f 1f8d 823f 0b64 803f 5950 833f
00000010: 37df 923f 6d17 6e3f dce9 853f 9017 973f
00000020: 2c14 673f 90af 833f 0ba9 5c3f

bias f4 [11]
0.05401518 0.027250001 -0.023327447 -0.027249796 -0.023274167 -0.00062855537 0.023943441 -0.039116167
0.05641026 0.012087827 0.017093897
00000000: 053f 5d3d 653b df3c 3419 bfbc f73a dfbc
00000010: 77a9 bebc a3c5 24ba 0925 c43c 4638 20bd
00000020: 720e 673d 050c 463c 8008 8c3c

in_proj_weight f4 [33, 11]
-0.2067277 -0.3216985 -0.25864652 -0.089311354 0.44669747 0.049944 -0.34790692 -0.41940764
0.15101343 -0.35047525 -0.038868316 0.0055214595 0.17833948 0.06694715 -0.012932088 -0.35923922
-0.34027526 -0.08538312 -0.16471486 -0.01249438 0.0033937804 0.33562052 0.1259628 -0.03278245
0.27754545 -0.037542243 -0.2131597 -0.26184276 -0.1286801 -0.061153978 0.2283343 0.0053839358
-0.33190024 -0.20893517 0.0038190589 0.41381305 0.28663096 -0.022767112 -0.4451359 0.23009695
0.13591224 -0.15802741 0.029932477 -0.06827888 0.22758208 0.11201941 -0.15703695 -0.061712246
-0.11679701 -0.31701133 0.4567262 -0.3875476 -0.07999427 -0.34113806 0.21645519 0.32515332
-0.31170407 0.41041085 -0.03638312 -0.14242573 -0.12842399 0.018855304 0.21462557 0.24802153
-0.18434349 0.31378517 -0.093399175 -0.40038186 -0.18703759 -0.21098341 0.10933489 -0.30408525
0.008140808 -0.43436795 -0.06649286 0.22265533 -0.23241733 -0.058611885 0.014792426 0.1170907
0.16877455 -0.070630535 0.3125444 -0.12617674 0.08947511 -0.12798525 0.20115322 -0.45865303
-0.13962518 0.20086704 0.050704606 -0.41275358 0.28446227 0.3128372 -0.45004785 0.3012524
0.12998323 0.17023541 0.38823372 -0.20540504 -0.09833193 -0.48252997 0.03329525 -0.11038866
-0.2818258 -0.18262577 0.32668155 -0.34662095 0.1206567 0.3866709 -0.12380158 -0.39671397
-0.30087432 -0.05446374 -0.27179193 0.1801034 -0.16650078 0.15024982 0.38264725 -0.15026364
-0.065671526 0.38436848 -0.09889733 -0.24613757 0.2474512 0.2945426 -0.103623696 0.4026178
0.20242691 0.11775773 -0.36076766 0.19547491 0.08327539 0.03734729 0.27033722 -0.03931706
0.097317286 0.35988185 -0.13642555 0.20475459 0.37015116 0.11897803 -0.21945892 0.2625625
-0.21178772 0.35929963 -0.10113576 -0.07306651 0.13428253 0.27684635 0.16618517 -0.2739787
0.062077142 -0.45740345 0.009044541 0.36987472 -0.14508331 0.3397131 -0.0184801 0.28387
0.012835118 -0.44597808 -0.047400337 0.12790234 0.047947504 0.36433548 -0.27234054 0.19253312
0.06345754 0.43184546 -0.1761644 -0.39120045 -0.2006094 -0.20956998 -0.2535922 -0.1425808
-0.061903372 0.012486234 0.11273349 0.24818435 0.17934996 0.38319227 -0.25399718 -0.23861712
0.12589584 -0.27826986 -0.36582032 -0.05922702 -0.068429805 -0.17940529 -0.20706087 -0.2552651
-0.16437005 -0.15112047 -0.27472582 -0.2401376 -0.05787374 0.3872794 -0.048801277 -0.2309806
-0.42092925 0.12426145 -0.06408725 -0.08120739 -0.1503048 0.35671034 0.18356195 0.3093476
0.08735512 -0.39390522 0.04330766 -0.44542152 -0.36218765 -0.54235685 -0.18283893 0.19095454
0.3506114 -0.123528905 -0.29522708 -0.19663538 0.5728847 0.2002932 0.1663849 0.12678666
-0.08860401 -0.008597848 -0.11674857 -0.06105834 -0.20624429 -0.08376373 -0.42416662 -0.15140666
0.11895588 -0.16134527 -0.20143174 0.11690739 0.01673709 -0.2856413 0.06316871 -0.21087384
0.12124898 -0.16267706 0.22065896 -0.06716757 -0.084416874 -0.14656414 0.13458066 0.028771043
0.22954546 0.27584732 0.13129844 -0.23615453 0.17972825 0.20561427 0.22488804 -0.22969499
00000000: 6db0 53be aab5 a4be 516d 84be dfe8 b6bd
00000010: 88b5 e43e 1492 4c3d db20 b2be 99bc d6be
00000020: 44a3 1a3e 7e71 b3be 6234 1fbd 5ced b43b
00000030: a09e 363e 961b 893d 1ce1 53bc 34ee b7be
00000040: 8f38 aebe 58dd aebd 03ab 28be 3ab5 4cbc
00000050: 306a 5e3b 74d6 ab3e 64fc 003e e446 06bd
00000060: 701a 8e3e e5c5 19bd 8946 5abe 4110 86be
00000070: b7c4 03be 987c 7abd 77d0 693e ba6b b03b
00000080: d4ee a9be 1af3 55be 2d49 7a3b 4edf d33e
00000090: 4bc1 923e 1882 babc dae8 e3be 899e 6b3e
000000a0: 942c 0b3e f0d1 21be f434 f53c ccd5 8bbd
000000b0: 470b 693e 6f6a e53d 4bce 20be fbc5 7cbd
000000c0: 4533 efbd 4f4f a2be 04d8 e93e a46c c6be
000000d0: 09d4 a3bd a6a9 aebe 6ea6 5d3e 7f7a a63e
000000e0: ad97 9fbe 5f21 d23e 7706 15bd 0dd8 11be
000000f0: 9481 03be 7076 9a3c cec6 5b3e 5bf9 7d3e
00000100: 8ac4 3cbe 73a8 a03e 1148 bfbd dafe ccbe
00000110: c886 3fbe 090c 58be f9ea df3d 10b1 9bbe
00000120: 0661 053c 7a65 debe 692d 88bd c2ff 633e
00000130: cffe 6dbe 0413 70bd ee5b 723c 40cd ef3d
00000140: 3cd3 2c3e bea6 90bd d205 a03e 7a34 01be
00000150: ba3e b73d 910e 03be 1cfb 4d3e 92d4 eabe
00000160: e7f9 0ebe 17b0 4d3e a2af 4f3d 7054 d3be
00000170: 0aa5 913e 332c a03e ac6c e6be c13d 9a3e
00000180: 531a 053e 3152 2e3e 92c6 c63e b355 52be
00000190: 4062 c9bd 2b0e f7be 9a60 083d 7313 e2bd
000001a0: 794b 90be 4002 3bbe ce42 a73e 4d78 b1be
000001b0: dc1a f73d baf9 c53e af8b fdbd 181e cbbe
000001c0: 330c 9abe 5f15 5fbd 5028 8bbe 076d 383e
000001d0: 2e7f 2abe 17db 193e 57ea c33e b6de 19be
000001e0: cb7e 86bd f2cb c43e af8a cabd 7d0b 7cbe
000001f0: d963 7d3e 4ace 963e a938 d4bd ec23 ce3e
00000200: 0049 4f3e f72a f13d 8ab6 b8be 932a 483e
00000210: 4a8c aa3d 79f9 183d a469 8a3e ed0a 21bd
00000220: 494e c73d 6f42 b83e 24b3 0bbe 30ab 513e
00000230: 7484 bd3e c1aa f33d d7b9 60be 986e 863e
00000240: e1de 58be 1ff6 b73e 4420 cfbd e5a3 95bd
00000250: 5c81 093e cebe 8d3e 722c 2a3e f046 8cbe
00000260: 9a44 7e3d c930 eabe 8e2f 143c 3860 bd3e
00000270: b890 14be e0ee ad3e 9463 97bc 6957 913e
00000280: 634a 523c 3d57 e4be db26 42bd d5f8 023e
00000290: 9a64 443d 2e8a ba3e 3870 8bbe 6727 453e
000002a0: 07f6 813d d91a dd3e 7164 34be 6d4b c8be
000002b0: 8d6c 4dbe 8399 56be d6d6 81be b400 12be
000002c0: 648e 7dbd 1093 4c3c d1e0 e63d 0a24 7e3e
000002d0: 84a7 373e c731 c43e eb0b 82be 0c58 74be
000002e0: d7ea 003e 6379 8ebe cd4c bbbe 0898 72bd
000002f0: ed24 8cbd 05b6 37be c407 54be 1bb2 82be
00000300: 9f50 28be 53bf 1abe dda8 8cbe a2e6 75be
00000310: 040d 6dbd 7c49 c63e d9e3 47bd 2e86 6cbe
00000320: 0a84 d7be c97c fe3d 2d40 83bd 0f50 a6bd
00000330: 80e9 19be bda2 b63e aaf7 3b3e cf62 9e3e
00000340: 3ee7 b23d f2ad c9be 5f63 313d 4a0e e4be
00000350: a970 b9be e6d7 0abf 213a 3bbe 9689 433e
00000360: 5683 b33e b9fc fcbd 0128 97be c95a 49be
00000370: 92a8 123f a919 4d3e ce60 2a3e 5dd4 013e
00000380: 0576 b5bd fddd 0cbc e019 efbd 4f18 7abd
00000390: b431 53be 528c abbd 5e2c d9be 590a 1bbe
000003a0: 249f f33d b237 25be 1f44 4ebe 246d ef3d
000003b0: 391c 893c 943f 92be 995e 813d 50ef 57be
000003c0: 6351 f83d d194 26be 6cf4 613e 278f 89bd
000003d0: c1e2 acbd e914 16be 83cf 093e 40b1 eb3c
000003e0: f70d 6b3e dc3b 8d3e 1973 063e 7ed2 71be
000003f0: af0a 383e 8c8c 523e 0d49 663e 2a35 6bbe

in_proj_bias f4 [33]
0.0248791 -0.0057942225 0.14399695 0.122517586 0.15674955 -0.014416514 0.06123755 -0.04829685
-0.041997325 0.00607995 -0.050756678 0.0008029846 -0.0010778673 -0.0014159419 0.0067828353 0.0015873628
-0.01158437 -9.967157e-05 0.00093528995 -0.000962403 -0.001151974 0.0012864996 0.0070585497 -0.011520936
0.0033178315 -0.004324467 0.008316505 -0.0057048034 -0.019578744 -0.036413446 0.012566538 -0.0051088114
-0.0572385
00000000: 41cf cb3c 76dd bdbb f073 133e 80ea fa3d
00000010: f482 203e 3e33 6cbc 3ad4 7a3d ebd2 45bd
00000020: 6305 2cbd 513a c73b 3ce6 4fbd 627f 523a
00000030: 3a47 8dba 2097 b9ba 8c42 de3b 0f0f d03a
00000040: 5fcc 3dbc c406 d1b8 3f2e 753a c649 7cba
00000050: d5fd 96ba c39f a83a 684b e73b 4fc2 3cbc
00000060: fa6f 593b 42b4 8dbb f341 083c 5cef babb
00000070: 9a63 a0bc 4426 15bd e1e3 4d3c d167 a7bb
00000080: eb72 6abd

weight f4 [11, 11]
0.10735872 -0.02336424 -0.24619637 0.0997279 -0.0414454 -0.3272112 0.041554343 0.12850828
0.3188554 0.01778224 -0.034932088 -0.10339565 0.1664036 -0.11045157 -0.0046967184 -0.34378538
-0.10912173 0.13422768 -0.2205303 -0.20564678 -0.15976478 -0.284314 0.24720943 -0.07081383
-0.15465163 0.121401735 -0.35577276 0.22459532 -0.24103642 -0.15303816 0.2694479 0.06270489
-0.18399444 0.13257885 -0.07190531 -0.14483714 0.39881688 0.124762975 -0.2859944 -0.04519976
0.22006531 0.10067134 0.016427381 -0.21775551 0.13120705 0.109566644 -0.21815124 0.27649608
-0.18168528 0.015378771 -0.1629031 0.13774866 -0.11590734 -0.222028 0.17271346 -0.20183015
-0.31912568 -0.173406 0.10975075 0.113750964 0.07269732 0.08694745 -0.021970868 -0.076471545
-0.13826625 0.027342835 0.15273413 -0.067662135 -0.2535878 0.016228588 0.06355616 0.17224953
0.0017237749 0.06894755 0.20347098 0.24604395 -0.14908762 -0.36028704 0.04347607 0.15356587
-0.0068791336 0.2450979 -0.26765865 -0.09905025 -0.07357096 0.26163933 0.11852944 -0.06017703
-0.027721496 -0.2760276 -0.02756669 -0.2249888 0.18694426 0.09739882 -0.16064347 -0.022066312
-0.2279149 -0.15045258 -0.3288184 -0.07864604 0.16432132 -0.023379466 0.21030402 0.18935727
-0.19489603 0.044987157 0.18766665 0.2684504 -0.22754125 0.03485252 0.23154926 0.30480742
-0.08745871 -0.08240707 0.15502895 0.23178706 0.10986864 0.1049146 0.08264748 -0.19427167
-0.054110054
00000000: e3de db3d 5d66 bfbc e71a 7cbe 243e cc3d
00000010: a7c2 29bd 3a88 a7be e334 2a3d ad97 033e
00000020: 0441 a33e 0fac 913c f314 0fbd 19c1 d3bd
00000030: b565 2a3e 6f34 e2bd eee6 99bb a304 b0be
00000040: 377b dfbd fb72 093e b2d2 61be 1295 52be
00000050: 6199 23be 9b91 91be 7824 7d3e d706 91bd
00000060: ff5c 1ebe 79a1 f83d d927 b6be 51fc 653e
00000070: 40d2 76be 09b6 1cbe 13f5 893e 6c6b 803d
00000080: 0a69 3cbe c0c2 073e 1743 93bd 3050 14be
00000090: ba31 cc3e bb83 ff3d dc6d 92be 6223 39bd
000000a0: cd58 613e c72c ce3d b792 863c 4dfb 5ebe
000000b0: 245b 063e 7a64 e03d 0a63 5fbe e590 8d3e
000000c0: b50b 3abe 3ef7 7b3c 12d0 26be fc0d 0d3e
000000d0: d460 edbd 4f5b 63be ccdb 303e 90ac 4ebe
000000e0: 7164 a3be 5891 31be 00c5 e03d 44f6 e83d
000000f0: 55e2 943d 8111 b23d 40fc b3bc 1d9d 9cbd
00000100: ab95 0dbe 15fe df3c 5666 1c3e 7292 8abd
00000110: 43d6 81be d1f1 843c bb29 823d 2e62 303e
00000120: 4af0 e13a 6034 8d3d b25a 503e f2f2 7b3e
00000130: 6daa 18be 8b77 b8be f713 323d 5f40 1d3e
00000140: 5b6a e1bb f2fa 7a3e 8e0a 89be dcda cabd
00000150: 5fac 96bd 97f5 853e 90bf f23d 307c 76bd
00000160: 3118 e3bc 7d53 8dbe 8ad3 e1bc 7763 66be
00000170: 516e 3f3e 0879 c73d b97f 24be 69c4 b4bc
00000180: 8662 69be 3e10 1abe e35a a8be 2d11 a1bd
00000190: d943 283e 4b86 bfbc f059 573e dfe6 413e
000001a0: d392 47be 7444 383d b02b 403e 5572 893e
000001b0: 9300 69be 84c1 0e3d 401b 6d3e b80f 9c3e
000001c0: 8d1d b3bd 0ac5 a8bd e9bf 1e3e 9659 6d3e
000001d0: cf02 e13d 77dd d63d 1543 a93d 27ef 46be
000001e0: 81a2 5dbd

bias f4 [11]
0.020850148 0.03582004 -0.045132544 -0.007280712 -0.0542826 -0.031884696 0.050427806 -0.025427774
0.11401101 -0.021608923 0.021350179
00000000: eecd aa3c 09b8 123d e7dc 38bd 0a93 eebb
00000010: 6e57 5ebd 8799 02bd 638d 4e3d e84d d0bc
00000020: 9b7e e93d 3205 b1bc 92e6 ae3c

weight f4 [8, 11]
-0.18963785 -0.11137806 -0.23482083 -0.023974897 0.059760515 -0.13617145 0.112847686 -0.18073353
-0.044950753 0.20983163 0.2973279 -0.1575156 0.05818145 -0.25586578 0.3070984 0.19600391
-0.07657618 0.0274677 0.1921808 -0.23038799 0.2615878 0.23268965 -0.13280621 -0.19728535
0.24344465 -0.09764459 0.18541741 -0.13117364 -0.27188146 0.19552068 0.07977628 -0.16718975
-0.1657319 -0.034117848 -0.04173359 -0.019421313 -0.2239341 0.20858139 -0.14758079 0.25474435
-0.36345705 -0.10819234 0.06826402 -0.15611948 0.14336838 -0.15116271 0.015330752 0.1368444
-0.10264594 0.2708852 -0.22596267 0.15610799 -0.025839647 -0.013884666 0.0344738 -0.0032065231
0.038118657 0.15251213 -0.25882617 0.23536527 0.13434891 -0.15649517 0.106899746 0.0054215277
0.059066057 -0.039034218 0.18073387 -0.1942854 -0.20881267 0.19012728 0.06799014 -0.017929364
0.07666737 0.1504152 -0.107749104 0.22584718 -0.10294412 -0.049973227 0.23236996 0.18657202
-0.1943293 -0.035875484 0.24143645 -0.13754009 0.014034547 -0.33195126 0.24089232 0.1324002
00000000: 6d30 42be 2e1a e4bd df74 70be 0167 c4bc
00000010: 71c7 743d 8770 0bbe b01c e73d 3612 39be
00000020: 481e 38bd 1ade 563e 5d3b 983e c54b 21be
00000030: ac4f 6e3d d700 83be 003c 9d3e 40b5 483e
00000040: f9d3 9cbd f103 e13c 0bcb 443e d4ea 6bbe
00000050: d6ee 853e 3246 6e3e 5afe 07be 2c05 4abe
00000060: 8e49 793e e3f9 c7bd 10de 3d3e 6252 06be
00000070: 0c34 8bbe 9336 483e bf61 a33d ca33 2bbe
00000080: a0b5 29be 28bf 0bbd d7f0 2abd 7219 9fbc
00000090: fb4e 65be 5c96 553e 6b1f 17be da6d 823e
000000a0: 0b17 babe f293 ddbd 02ce 8b3d c9dd 1fbe
000000b0: 29cf 123e 66ca 1abe d62d 7b3c f020 0c3e
000000c0: 0938 d2bd 77b1 8a3e c262 67be c6da 1f3e
000000d0: abad d3bc 837c 63bc 6634 0d3d 8824 52bb
000000e0: 4f22 1c3d 242c 1c3e dd84 84be 9803 713e
000000f0: c392 093e 4540 20be 41ee da3d 12a7 b13b
00000100: 40ef 713d 58e2 1fbd 4d12 393e c0f2 46be
00000110: fdd2 55be bab0 423e 6a3e 8b3d 9ae0 92bc
00000120: c803 9d3d 7106 1a3e 90ab dcbd 7c44 673e
00000130: 5ed4 d2bd bab0 4cbd 64f2 6d3e bc0c 3f3e
00000140: 43fe 46be 2cf2 12bd 1e3b 773e 4fd7 0cbe
00000150: 28f1 653c 84f5 a9be 7aac 763e eb93 073e

bias f4 [8]
-0.2788318 -0.25855052 -0.24419688 -0.23085408 -0.20070179 0.08889316 -0.15284443 0.07220519
00000000: 0bc3 8ebe bc60 84be bf0e 7abe 0365 6cbe
00000010: c584 4dbe 9e0d b63d 4083 1cbe 51e0 933d

weight f4 [11, 8]
0.2760896 -0.077815376 0.16494416 -0.028047483 0.3797947 -0.036810886 -0.07692247 0.33066115
-0.25311536 0.0430413 0.11610434 0.31004727 0.13738602 -0.12721692 -0.1150573 0.041018493
0.24880756 0.20273276 0.17103335 0.2559569 0.1909576 -0.15639052 0.33764544 -0.0016097581
0.01582933 0.019561136 -0.2952931 -0.05857569 0.28410807 0.17622556 0.07370734 -0.08724767
-0.30445334 0.2946118 0.20716082 0.06373239 -0.13511202 0.14747737 0.20534377 -0.18167703
0.213473 0.27964386 0.076283306 -0.21633215 0.19668524 -0.052690458 -0.14802788 -0.3365811
0.15974183 0.26130286 0.2080667 0.30944988 0.16380204 0.19370912 -0.031975612 -0.2595382
-0.25336793 0.08599912 0.1013005 -0.37137747 0.15541379 -0.24391326 0.05892099 -0.1604001
0.004948155 0.13929224 0.26002905 0.3181232 -0.1192664 0.061355107 -0.038397722 0.3328745
-0.068257615 -0.25694597 0.34732366 0.27610877 0.07443711 -0.21788768 -0.35555622 0.30930904
-0.1494363 -0.25477642 -0.057663627 0.23592637 0.19706485 0.13828558 -0.29258248 0.15978517
00000000: 9e5b 8d3e ab5d 9fbd 1fe7 283e d6c3 e5bc
00000010: 7374 c23e 03c7 16bd 8789 9dbd 6b4c a93e
00000020: 5698 81be 134c 303d 1dc8 ed3d 84be 9e3e
00000030: ecae 0c3e 2745 02be 29a3 ebbd 0203 283d
00000040: 69c7 7e3e 2d99 4f3e 5e23 2f3e c80c 833e
00000050: 648a 433e d624 20be dddf ac3e 85fe d2ba
00000060: 83ac 813c ad3e a03c a830 97be 10ed 6fbd
00000070: 9d76 913e 7974 343e e0f3 963d e8ae b2bd
00000080: 4fe1 9bbe 5cd7 963e f721 543e 2186 823d
00000090: ce5a 0abe 4f04 173e a345 523e 8b09 3abe
000000a0: ab98 5a3e 7b2d 8f3e 6c3a 9c3d 2d86 5dbe
000000b0: db67 493e f3d1 57bd 9f94 17be 5c54 acbe
000000c0: 5d93 233e 7dc9 853e 700f 553e 3770 9e3e
000000d0: b9bb 273e af5b 463e dcf8 02bd 31e2 84be
000000e0: 71b9 81be 4e20 b03d a376 cf3d 3025 bebe
000000f0: cb24 1f3e 66c4 79be 2357 713d ec3f 24be
00000100: 2224 a23b a0a2 0e3e 8722 853e 0be1 a23e
00000110: f141 f4bd 7e4f 7b3d ee46 1dbd 876e aa3e
00000120: a6ca 8bbd 6c8e 83be 68d4 b13e 215e 8d3e
00000130: 7c72 983d f31d 5fbe 770b b6be c15d 9e3e
00000140: d405 19be 0e72 82be b230 6cbd af96 713e
00000150: 5ecb 493e bc9a 0d3e 5fcd 95be b99e 233e

bias f4 [11]
0.12721701 -0.077727064 -0.12021151 0.12350751 0.066399716 -0.13075437 0.16621904 0.016669683
-0.14531216 0.27167606 0.08287211
00000000: 2d45 023e 5e2f 9fbd 7431 f6bd 81f1 fc3d
00000010: 93fc 873d 79e4 05be 5335 2a3e dc8e 883c
00000020: b6cc 14be 2019 8b3e dab8 a93d

weight f4 [11]
1.0030799 1.0509602 0.9856793 1.0257783 1.1031525 0.8639846 1.0416555 1.1825311
1.0118322 0.9419046 0.8549457
00000000: ec64 803f dd85 863f 7b55 7c3f b44c 833f
00000010: 1a34 8d3f 182e 5d3f f854 853f 2e5d 973f
00000020: b883 813f a920 713f b9dd 5a3f

bias f4 [11]
0.08406972 0.0007710809 -0.033691812 -0.022199573 -0.01813876 -0.022480661 0.008487728 -0.048495065
0.073220536 -0.019236993 0.02908697
00000000: bf2c ac3d 5d22 4a3a 6d00 0abd e1db b5bc
00000010: bd97 94bc 5d29 b8bc 1d10 0b3c c3a2 46bd
00000020: a6f4 953d e696 9dbc cc47 ee3c

weight f4 [11]
1.0729628 1.0712771 0.99696845 1.0459906 1.0598727 0.86793196 1.0556782 1.1741202
0.94949335 0.9371258 0.84877574
00000000: d856 893f 9c1f 893f 5339 7f3f 05e3 853f
00000010: e9a9 873f ca30 5e3f 7720 873f 9249 963f
00000020: ff11 733f 7ae7 6f3f 5e49 593f

bias f4 [11]
0.07677341 0.0040459484 -0.012950535 -0.038049616 0.010526183 -0.021749884 0.010333097 -0.053433806
0.075528786 -0.023851138 0.04440678
00000000: 613b 9d3d e093 843b 7b2e 54bc ead9 1bbd
00000010: 0376 2c3c d02c b2bc 264c 293c 68dd 5abd
00000020: d6ae 9a3d 7663 c3bc e2e3 353d

in_proj_weight f4 [33, 11]
-0.20325021 -0.18368098 -0.20314856 -0.07747941 0.3735568 0.14134856 -0.30094334 -0.5673514
0.15447558 -0.29322943 -0.23639238 0.015526179 0.16554166 0.2668246 -0.119614735 -0.36368132
-0.29437762 -0.055215456 -0.25228694 -0.05301028 -0.09574125 0.3688263 -0.045919187 0.07028584
0.28219885 0.01992553 -0.17260808 -0.3639792 -0.15039752 -0.17109257 0.2391878 0.07628232
-0.21793309 -0.025008256 0.0023671524 0.11952979 0.37624496 -0.118502416 -0.3105341 0.08205771
0.1292178 -0.05006053 0.15212561 -0.15760499 0.3541288 0.18924642 -0.4043675 -0.10940404
-0.19476002 -0.29008362 0.31660655 -0.20514756 -0.03293957 -0.17579114 0.14425711 0.12430364
-0.419086 0.3219016 0.025377369 -0.19352852 0.080477625 -0.062924996 0.3652426 0.12257866
-0.057609934 0.4596816 -0.049526848 -0.22603631 -0.31706426 -0.32546687 0.09481286 -0.30084512
0.027777666 -0.3292638 0.029152272 0.13281617 -0.35075423 -0.034361005 0.20445576 0.106822945
0.2568461 -0.16292913 0.3084697 -0.3237352 0.0073934277 -0.1867263 0.26116315 -0.32836357
-0.14758256 0.338679 0.22248489 -0.4008726 0.13996306 0.12627211 -0.25575626 0.26537547
0.26327965 -0.021915397 0.26410538 -0.0651369 -0.16847971 -0.44937953 0.17733486 -0.12787838
-0.36433828 -0.07485359 0.28281584 -0.37470037 0.0067900824 0.31513157 -0.089465275 -0.2855353
-0.40595537 0.032206602 -0.31412575 0.31979913 -0.12860852 0.0981898 0.27362 -0.25055718
-0.057316408 0.4481768 -0.2895906 -0.22760573 0.1389806 0.13917682 -0.15822342 0.532904
0.06468851 0.20544761 -0.2812876 0.3283761 0.026918441 -0.0040242733 0.26800483 -0.04045894
0.15824096 0.45346707 -0.15403017 0.20761582 0.39323425 0.1459614 -0.2091807 0.17729731
-0.24524187 0.2862904 -0.21512339 -0.06528075 0.100961596 0.3916036 0.116946876 -0.09774185
0.12807481 -0.3465318 -0.11865515 0.30876926 -0.091383 0.14744802 0.08294408 0.099838294
-0.09958702 -0.3742588 0.17550823 0.22535463 0.08956215 0.34379327 -0.29394627 0.09313361
0.13276577 0.35479102 -0.14037415 -0.39771214 -0.12997578 -0.19505322 -0.19793583 -0.17890796
-0.20134504 0.16318536 0.0303563 0.37936926 -0.030744359 0.26184446 -0.22169225 -0.34814027
0.307654 -0.06880406 -0.407321 -0.03545993 -0.06473767 -0.22290798 -0.12670007 -0.13544245
-0.18692045 -0.19620636 -0.30142382 -0.15271102 -0.1184422 0.3287038 0.029657105 -0.34055611
-0.4367331 0.043814022 -0.1367424 -0.0018136099 -0.15939917 0.47124547 0.22490354 0.38571954
0.0826338 -0.2339323 -0.15827188 -0.2128472 -0.12852588 -0.3688876 -0.13841 0.33551186
0.15810093 -0.4469861 -0.44698405 -0.2637889 0.48201272 0.144353 0.19326289 0.2719575
-0.025132442 0.0036685648 -0.055784546 -0.2446349 -0.15654646 -0.17182261 -0.4009974 -0.095448494
0.22369799 -0.08552774 -0.16428044 0.09257678 -0.02923089 -0.28993642 -0.03188204 -0.2825138
0.13581131 -0.1500851 0.27242696 -0.17705446 -0.06765915 -0.11372255 0.120447375 0.052895565
0.23081243 0.23546222 0.21163608 -0.20598243 0.13539687 0.34644613 0.26365408 -0.30119422
00000000: d320 50be de16 3cbe 2d06 50be 86ad 9ebd
00000010: d642 bf3e adbd 103e 3f15 9abe f13d 11bf
00000020: d92e 1e3e 2b22 96be d810 72be 8461 7e3c
00000030: c183 293e 3c9d 883e 92f8 f4bd 7034 babe
00000040: aab8 96be 9a29 62bd c12b 81be 4f21 59bd
00000050: fd13 c4bd cdd6 bc3e c215 3cbd 06f2 8f3d
00000060: 5e7c 903e dd3a a33c 2cc0 30be 7b5b babe
00000070: cf01 1abe e432 2fbe a6ed 743e e839 9c3d
00000080: da29 5fbe 1dde ccbc 3a22 1b3b 09cc f43d
00000090: 2ea3 c03e 65b1 f2bd 53fe 9ebe df0d a83d
000000a0: ac51 043e 450c 4dbd d1c6 1b3e 3463 21be
000000b0: 5f50 b53e d0c9 413e 4209 cfbe 3a0f e0bd
000000c0: 2c6f 47be d785 94be 411a a23e 3412 52be
000000d0: a4eb 06bd 9802 34be 23b8 133e e892 fe3d
000000e0: 7192 d6be 49d0 a43e 33e4 cf3c 572c 46be
000000f0: 74d1 a43d d2de 80bd 1401 bb3e 850a fb3d
00000100: 65f8 6bbd 635b eb3e aadc 4abd 1076 67be
00000110: 3f56 a2be 98a3 a6be 3f2d c23d 5f08 9abe
00000120: fd8d e33c 4495 a8be bfd0 ee3c f600 083e
00000130: 0f96 b3be 20be 0cbd da5c 513e fdc5 da3d
00000140: 5581 833e e5d6 26be beef 9d3e 9fc0 a5be
00000150: 9144 f23b 2e35 3fbe 2db7 853e 451f a8be
00000160: e21f 17be 5567 ad3e 14d3 633e 2c3f cdbe
00000170: 7a52 0f3e 7a4d 013e 7cf2 82be 4bdf 873e
00000180: 97cc 863e eb87 b3bc d238 873e 7f66 85bd
00000190: f285 2cbe 1315 e6be 4597 353e 8df2 02be
000001a0: 8c8a babe d74c 99bd 3dcd 903e bad8 bfbe
000001b0: 577f de3b ed58 a13e 9239 b7bd af31 92be
000001c0: 62d9 cfbe 12eb 033d 17d5 a0be b6bc a33e
000001d0: f4b1 03be bc17 c93d ec17 8c3e 0849 80be
000001e0: 9cc4 6abd 6e77 e53e 3845 94be 7a11 69be
000001f0: ee50 0e3e 5e84 0e3e 5205 22be 666c 083f
00000200: 697b 843d dc60 523e ee04 90be ea20 a83e
00000210: 1084 dc3c 0dde 83bb ee37 893e 46b8 25bd
00000220: eb09 223e d62c e83e 16ba 1dbe 3e99 543e
00000230: 0056 c93e e876 153e 7733 56be 6d8d 353e
00000240: af20 7bbe a894 923e 4e49 5cbe eab1 85bd
00000250: f4c4 ce3d 4480 c83e d881 ef3d e12c c8bd
00000260: 0b26 033e 9e6c b1be 7901 f3bd 0117 9e3e
00000270: 0327 bbbd 9dfc 163e 96de a93d 0578 cc3d
00000280: 48f4 cbbd d99e bfbe 6eb8 333e 5dc3 663e
00000290: 5c6c b73d ac05 b03e 2080 96be d6bc be3d
000002a0: c0f3 073e 2ba7 b53e 3ebe 0fbe eda0 cbbe
000002b0: 5f18 05be 08bc 47be b1af 4abe a633 37be
000002c0: 652d 4ebe 101a 273e c6ad f83c b03c c23e
000002d0: 98db fbbc 7a10 863e 4b03 63be 713f b2be
000002e0: d384 9d3e 25e9 8cbd 618c d0be 6e3e 11bd
000002f0: 2f95 84bd fd41 64be aabd 01be 6db1 0abe
00000300: 1368 3fbe 52ea 48be 3954 9abe 4760 1cbe
00000310: d391 f2bd dd4b a83e 75f3 f23c 5f5d aebe
00000320: 7b9b dfbe 5576 333d 3306 0cbe a6b6 edba
00000330: 8939 23be 1647 f13e 1d4d 663e 087d c53e
00000340: e93b a93d f38b 6fbe 0612 22be 9ef4 59be
00000350: 4a9c 03be d6de bcbe 5abb 0dbe 36c8 ab3e
00000360: 36e5 213e 5ddb e4be 18db e4be 570f 87be
00000370: 5fca f63e 46d1 133e b5e6 453e 033e 8b3e
00000380: 8de2 cdbc 4e6c 703b 567e 64bd 9281 7abe
00000390: b74d 20be 44f2 2fbe 884f cdbe 807a c3bd
000003a0: 1611 653e 2b29 afbd 2239 28be e598 bd3d
000003b0: 9f75 efbc 8c72 94be be96 02bd a6a5 90be
000003c0: 1f12 0b3e e9af 19be 8c7b 8b3e c44d 35be
000003d0: e190 8abd 5ee7 e8bd 1dad f63d 05a9 583d
000003e0: 185a 6c3e 021d 713e 21b7 583e 0fed 52be
000003f0: 7aa5 0a3e 6361 b13e abfd 863e 2136 9abe

in_proj_bias f4 [33]
0.019202136 -0.08763731 0.0035358572 0.07613674 0.057662696 -0.031266123 0.058755174 -0.06698575
-0.02412797 -0.04415577 0.019492077 0.00160746 -0.0006982128 -0.00069123646 -0.0010010833 0.0037885485
-0.006030119 0.00013129567 0.0014203145 0.0015964216 0.00076186133 -0.0012887426 0.020859823 0.061572153
-0.03836378 -0.006392123 -0.010905737 0.02377763 0.024801213 -0.047978844 0.016117265 -0.04717744
-0.0114571955
00000000: cc4d 9d3c 317b b3bd d7b9 673b 94ed 9b3d
00000010: b82f 6c3d e810 00bd 44a9 703d d32f 89bd
00000020: 05a8 c5bc aedc 34bd d9ad 9f3c 68b1 d23a
00000030: 4508 37ba 1834 35ba c836 83ba 4c49 783b
00000040: 4e98 c5bb 6aac 0939 d929 ba3a 053f d13a
00000050: a6b7 473a 07eb a8ba 38e2 aa3c 1533 7c3d
00000060: 5723 1dbd 0475 d1bb faad 32bc 4ec9 c23c
00000070: ea2b cb3c 7785 44bd 5b08 843c 223d 41bd
00000080: f6b6 3bbc

weight f4 [11, 11]
-0.03339134 0.050052132 -0.22897662 0.042037424 -0.06518685 -0.3581167 0.08356547 0.12319034
0.16532491 0.061294395 0.0176005 -0.14203215 0.17209771 -0.18087716 0.105821885 -0.23186
-0.16023147 0.12336615 -0.22140208 -0.14487164 -0.09796186 -0.24636585 0.31083637 0.016584475
-0.25139743 0.08550726 -0.40297097 0.12290047 -0.28950045 -0.12554507 0.30611277 -0.023510637
-0.2632259 0.11670461 -0.17686138 -0.15049036 0.3145643 0.061021466 -0.20713937 -0.055063795
0.18823785 0.012428083 0.014627998 -0.2526882 0.17114718 0.17067237 -0.16676752 0.2549721
-0.13395905 -0.0398671 -0.17417413 0.16791813 -0.043066055 -0.18436791 0.1992105 -0.28185815
-0.19606788 -0.21515441 0.07585874 0.051115174 0.07071646 0.13222273 -0.0047947587 -0.13497922
-0.17602752 0.01387375 0.21204437 -0.13412157 -0.25633132 0.04887142 0.11306182 0.25471655
0.014684573 0.14772958 0.11092099 0.28900805 -0.09577326 -0.33930555 0.103499494 0.14465047
-0.06289871 0.2107206 -0.23951282 -0.12153441 -0.12193822 0.3945705 0.07405913 -0.046831667
-0.007410809 -0.24388658 0.014392285 -0.07739401 0.26220438 0.13073663 -0.19375744 0.034692813
-0.17932077 -0.08664638 -0.21881594 -0.12514503 0.1389216 -0.0054947357 0.12725714 0.21936844
-0.20433718 0.04443043 0.13692503 0.12328576 -0.16034904 0.026193084 0.20592536 0.40822265
0.023623088 -0.05106809 0.19727321 0.19106744 0.17156765 0.0014699384 0.18694057 -0.19320998
-0.04903157
00000000: 5cc5 08bd 7703 4d3d d978 6abe 6f2f 2c3d
00000010: af80 85bd 125b b7be 6024 ab3d 384b fc3d
00000020: ef4a 293e d50f 7b3d ec2e 903c e070 11be
00000030: 623a 303e dd37 39be 25b9 d83d b56c 6dbe
00000040: b813 24be 64a7 fc3d 3ab7 62be 3b59 14be
00000050: 3aa0 c8bd 5447 7cbe f225 9f3e 2adc 873c
00000060: 2ab7 80be 6e1e af3d 3652 cebe 3eb3 fb3d
00000070: 6739 94be e38e 00be d0ba 9c3e 6199 c0bc
00000080: 8cc5 86be d402 ef3d 261b 35be 251a 1abe
00000090: 920e a13e a5f1 793d 581c 54be 938a 61bd
000000a0: 6cc1 403e 299f 4b3c 45aa 6f3c 5960 81be
000000b0: 3541 2f3e bdc4 2e3e 1bc5 2abe b48b 823e
000000c0: 902c 09be af4b 23bd b45a 32be bbf2 2b3e
000000d0: 0866 30bd f1ca 3cbe d6fd 4b3e b64f 90be
000000e0: 05c6 48be 7051 5cbe d45b 9b3d 255e 513d
000000f0: cbd3 903d 6565 073e 5a1d 9dbb fe37 0abe
00000100: 8f40 34be ba4e 633c 2922 593e 2a57 09be
00000110: dc3d 83be 662d 483d f58c e73d 356a 823e
00000120: 9097 703c 6c46 173e 8b2a e33d ddf8 933e
00000130: c524 c4bd 75b9 adbe 8bf7 d33d 411f 143e
00000140: 0ad1 80bd 24c7 573e d942 75be 08e7 f8bd
00000150: bfba f9bd 2505 ca3e 50ac 973d 90d2 3fbd
00000160: 5fd6 f2bb 67bd 79be 9ecd 6b3c c080 9ebd
00000170: a73f 863e d3df 053e 5a68 46be 0d1a 0e3d
00000180: dd9f 37be a873 b1bd 4911 60be 0526 00be
00000190: 7741 0e3e 2f0d b4bb b24f 023e 1fa2 603e
000001a0: c43d 51be affc 353d 1336 0c3e 3f7d fc3d
000001b0: 8a32 24be e192 d63c 19de 523e 8f02 d13e
000001c0: 3585 c13c c62c 51bd fd01 4a3e 2fa7 433e
000001d0: 6eaf 2f3e f3aa c03a 596d 3f3e d6d8 45be
000001e0: 54d5 48bd

bias f4 [11]
0.045977443 0.013649442 0.0008548815 -0.0386307 -0.0193007 0.033635736 0.006984856 -0.042542987
0.004762605 0.01876373 0.04750864
00000000: d852 3c3d e9a1 5f3c 201a 603a 3a3b 1ebd
00000010: 801c 9ebc a0c5 093d 38e1 e43b 8e41 2ebd
00000020: a00f 9c3b 65b6 993c 6b98 423d
