PonziShield_tr_v5_gpu.pth (torch, 408246 bytes, 110 tensors)

weight f4 [108, 11]
-1.0268744 0.19590405 -2.0204463 -0.13787897 -1.9967442 -0.01833902 -0.709928 1.4976189
-0.33613083 0.10180687 -0.20711307 -0.21218058 -0.540397 -0.32047057 0.122154616 -0.24803725
0.64081013 -0.5612661 -0.43315712 -1.5223438 1.2966803 -1.1084504 0.11109445 -1.4047445
1.6267681 1.977759 -0.27974004 1.8440192 0.3634063 -0.15619758 -0.33777 -1.2041159
2.3894725 -0.14127056 0.3786625 -0.347936 -1.0327816 0.23464 0.37096044 1.3138539
0.16277483 -1.2158104 0.72064143 1.1259195 0.8847289 -0.21551028 -0.15635633 -2.3921585
0.13123527 -0.42359155 0.28981513 -0.9968164 -1.4037142 -0.04375694 1.7872888 -0.77537084
-0.9421603 0.8347898 1.0076017 -1.1469408 0.26869974 -0.11379793 1.4288987 -0.030704275
-1.0611672 -0.3514714 -1.1085749 -0.4202415 -0.973276 0.41702 0.16323839 -0.44676533
1.9169726 0.6536801 0.7608776 -0.36101422 0.65323615 2.2371619 -0.30565324 0.34668422
0.65048766 -1.606437 0.49554023 1.202449 1.1898971 -1.8836248 0.3113506 -0.14136899
0.65369606 -0.8211159 1.6437852 -1.1145928 1.0599076 -1.825556 0.33769107 0.09248519
1.7327962 1.0706425 -1.8993174 -2.0189095 1.623995 1.0154195 -0.7797359 0.0995209
1.1520028 0.82831 1.2525128 -0.36120746 1.5068529 -0.17221291 -0.6827495 0.6500121
0.6277238 0.01940928 0.3005573 -2.5623622 -2.0235043 0.37668326 -0.57765895 -0.6723924
0.7096486 2.3343325 1.693217 -1.8151753 1.0352498 0.39603594 0.3330988 -0.08353527
0.93251985 0.24906555 -1.0473998 -0.8740579 1.0656966 -0.7364885 0.16879205 -1.698532
-0.6760842 0.45191306 -0.41310877 -0.6691785 -0.20147397 0.6827274 -1.1070141 0.79018044
0.8421372 0.5889847 0.02294197 -1.6723319 0.50156885 -0.9215495 -0.3718218 1.241005
-1.4173257 1.3209404 1.6580172 -1.5388528 -0.424564 0.10415247 1.439037 0.29773134
-0.3285334 1.455171 -2.412835 -2.4874816 0.27343944 -1.2810178 -1.9042294 -0.46019253
0.17052624 -1.1465509 -0.33726683 0.4184283 -1.7882154 -0.95627767 0.6410356 -1.3132026
-0.86590296 -0.24198829 0.49519333 0.04134818 -0.8095124 -1.8001174 -1.1310174 0.7628278
0.3332662 -0.09411399 -0.7176796 -1.3082808 0.16308667 -0.053311963 -0.08137431 -0.18885782
-0.30522168 0.32492328 0.12761457 -0.88323724 1.4265468 0.021943083 1.934082 0.26041842
-0.14302781 0.20014146 0.14420718 0.48706764 1.0583652 -0.27484947 -0.14618078 -1.1414127
0.9160862 -0.33908603 0.45626864 0.02940489 -0.5422177 -1.0213687 0.7113229 0.786467
-1.082739 0.39335603 0.72499424 1.3080474 1.1362844 0.6913013 0.26620144 -1.1435819
-0.2882342 0.51421356 -0.24185184 -0.037674487 -2.1127996 0.9974187 -0.33118418 0.44511127
-1.2985928 0.26904485 -0.4820251 -0.044165123 0.0030395598 1.7405905 0.85463 -1.7314316
0.17992745 0.7329438 1.5641298 -1.3650783 -0.17089869 1.6177802 -0.79911983 1.4643462
-0.3629465 0.644624 0.58024925 0.0114746485 2.8055656 0.79610866 -0.5000942 -1.720732
00000000: 9f70 83bf 129b 483e fe4e 01c0 2530 0dbe
00000010: 5095 ffbf b63b 96bc d7bd 35bf fab1 bf3f
00000020: 5719 acbe 1f80 d03d 7315 54be de45 59be
00000030: 7557 0abf b814 a4be 332c fa3d 7afd 7dbe
00000040: 220c 243f 23af 0fbf c5c6 ddbe 29dc c2bf
00000050: 9ff9 a53f b4e1 8dbf 7d85 e33d abce b3bf
00000060: f039 d03f 3527 fd3f 163a 8fbe d208 ec3f
00000070: 6410 ba3e 42f2 1fbe 30f0 acbe 7820 9abf
00000080: 1eed 1840 3ba9 10be 0de0 c13e ab24 b2be
00000090: 3032 84bf 7845 703e 87ee bd3e 5d2c a83f
000000a0: 72ae 263e ad9f 9bbf f57b 383f 211e 903f
000000b0: 987d 623f baae 5cbe e01b 20be 2019 19c0
000000c0: 8a62 063e fee0 d8be a662 943e 5c2f 7fbf
000000d0: e8ac b3bf 7a3a 33bd e1c5 e43f b47e 46bf
000000e0: 6b31 71bf c9b4 553f 18f9 803f f5ce 92bf
000000f0: 0393 893e e40e e9bd 27e6 b63f 8887 fbbc
00000100: 54d4 87bf 0ff4 b3be c8e5 8dbf e529 d7be
00000110: 9e28 79bf a583 d53e f727 273e 6dbe e4be
00000120: 5c5f f53f 9457 273f e0c8 423f dbd6 b8be
00000130: 7c3a 273f a92d 0f40 957e 9cbe 9880 b13e
00000140: 5c86 263f ba9f cdbf 73b7 fd3e d9e9 993f
00000150: 8c4e 983f 9e1a f1bf 5969 9f3e 08c3 10be
00000160: a058 273f a734 52bf 8e67 d23f faaa 8ebf
00000170: 0dab 873f d2ab e9bf d8e5 ac3e e068 bd3d
00000180: 44cc dd3f d00a 893f d51c f3bf d035 01c0
00000190: 11df cf3f 44f9 813f c69c 47bf 9dd1 cb3d
000001a0: d474 933f 200c 543f 5752 a03f 2ff0 b8be
000001b0: 8ee0 c03f 9558 30be acc8 2ebf 3167 263f
000001c0: 82b2 203f 3600 9f3c a5e2 993e befd 23c0
000001d0: 1881 01c0 a1dc c03e 75e1 13bf e921 2cbf
000001e0: 88ab 353f b465 1540 56bb d83f aa57 e8bf
000001f0: 1183 843f 39c5 ca3e ed8b aa3e 8a14 abbd
00000200: 9fb9 6e3f 0a0b 7f3e 3211 86bf 42c2 5fbf
00000210: bf68 883f 838a 3cbf d3d7 2c3e 7f69 d9bf
00000220: db13 2dbf 2661 e73e fe82 d3be 484f 2bbf
00000230: 314f 4ebe 39c7 2e3f a3b2 8dbf 4449 4a3f
00000240: 4e96 573f b4c7 163f ccf0 bb3c f90e d6bf
00000250: d166 003f abea 6bbf 6d5f bebe 40d9 9e3f
00000260: ee6a b5bf 9314 a93f e839 d43f 21f9 c4bf
00000270: 7460 d9be e44d d53d 5d32 b83f 3e70 983e
00000280: 8835 a8be 0b43 ba3f e36b 1ac0 e632 1fc0
00000290: 4100 8c3e 64f8 a3bf cabd f3bf 5b9e ebbe
000002a0: 6e9e 2e3e 2ec2 92bf 3dae acbe 3c3c d63e
000002b0: 3ee4 e4bf 9dce 74bf e91a 243f 0617 a8bf
000002c0: d1ab 5dbf c7cb 77be fb89 fd3e b65c 293d
000002d0: 343c 4fbf 3f6a e6bf 2ec5 90bf af48 433f
000002e0: dea1 aa3e d6be c0bd dab9 37bf bf75 a7bf
000002f0: 3100 273e a55d 5abd 93a7 a6bd f263 41be
00000300: 0446 9cbe 585c a63e 65ad 023e d61b 62bf
00000310: 1699 b63f fbc1 b33c 0090 f73f 9055 853e
00000320: e275 12be e2f1 4c3e 0cab 133e ee60 f93e
00000330: 8378 873f 12b9 8cbe 6ab0 15be d019 92bf
00000340: a084 6a3f af9c adbe 0b9c e93e 86e2 f03c
00000350: c7ce 0abf 36bc 82bf 4219 363f e755 493f
00000360: 3197 8abf f665 c93e 3999 393f 196e a73f
00000370: c471 913f 1ff9 303f 8e4b 883e e460 92bf
00000380: 6f93 93be 80a3 033f 02a8 77be 9050 1abd
00000390: 1c38 07c0 d556 7f3f f990 a9be a0e5 e33e
000003a0: 4a38 a6bf 3fc0 893e fecb f6be 7de6 34bd
000003b0: 5a33 473b abcb de3f 08c9 5a3f 8d9f ddbf
000003c0: e73e 383e 34a2 3b3f 6835 c83f e3ba aebf
000003d0: 1100 2fbe 6c13 cf3f 1e93 4cbf b26f bb3f
000003e0: 20d4 b9be 1406 253f 378b 143f 2a00 3c3c
000003f0: 638e 3340 c7cd 4b3f 2c06 00bf f240 dcbf

in_proj_weight f4 [33, 11]
-0.0024494394 -0.020651111 0.4498701 -0.12574881 0.23837233 -0.33553785 -0.24379572 0.3847999
-0.43810537 0.0067825085 -0.023818605 -0.17394847 -0.17101623 -0.15460984 0.08766413 0.1703503
0.49724308 -0.09308166 0.36195308 -0.20047243 0.24236804 -0.09177325 0.37578243 0.21228091
-0.10349738 0.2527407 0.14170715 -0.01825917 0.22734232 -0.19668542 -0.26264676 0.14578807
0.10875331 0.22563915 -0.18246415 -0.28968608 0.21449396 -0.1979566 -0.4102752 0.07982215
-0.2869485 0.43132997 0.078090616 0.26050776 -0.35772383 -0.26039013 0.23710686 0.014049318
-0.15755692 -0.13937864 -0.025126748 0.064240426 0.081087105 0.32222188 -0.15751928 -0.17082354
-0.19479758 0.36289415 0.42428714 0.2908852 0.09011463 0.09658545 0.088935256 -0.34082946
-0.028805783 0.07349055 0.042890005 0.15109447 -0.29894727 0.20944875 -0.44522145 0.05216565
-0.33322552 -0.35980725 -0.27533054 0.25902236 -0.26350915 0.08687865 0.26371172 -0.20168403
-0.12019118 0.1847572 -0.13182631 -0.43238923 -0.20093924 -0.08641093 -0.12816654 -0.4035591
0.12584111 -0.366513 0.034874465 0.4016622 0.3109623 0.17047265 -0.15806529 0.08049977
0.09890879 0.11920379 -0.12462026 -0.0575093 -0.4026776 -0.028337078 -0.2995802 -0.3262058
0.31690755 -0.03422752 -0.2658793 0.06942524 0.107658505 -0.3395854 -0.08859241 -0.06577048
-0.016404532 -0.22963034 -0.20447086 -0.16677853 0.04114152 -0.056712776 0.17523198 0.23787557
-0.11161531 -0.23260878 0.4333383 -0.14244832 -0.33266336 0.14186715 -0.18324435 0.15346359
-0.16521527 0.23731104 0.32922143 -0.4304656 -0.26744977 0.010762522 0.071043774 0.38712966
0.06270164 0.38382787 -0.083248496 -0.20608537 -0.07452932 0.2166136 0.106533505 0.42003703
-0.047443584 0.39488715 -0.30232674 -0.26591983 0.34640872 0.2400955 0.20460224 0.31692532
0.29489446 0.21799777 0.006092785 -0.28595132 0.14044541 0.33729488 -0.031019693 -0.13023947
0.27401802 -0.21122514 -0.42382014 -0.23445624 0.28562075 -0.053704206 0.06446854 -0.027597193
-0.029935412 0.21405895 -0.22296874 -0.10905317 -0.056949273 -0.036784522 -0.28468674 0.070911415
0.18011996 0.12044524 -0.27993053 0.14417516 0.13946022 -0.068173714 0.41566995 0.17196961
0.07435946 0.3751319 0.096026696 -0.28787318 0.26350838 -0.12670858 0.245891 -0.2318014
-0.028016977 -0.05126661 0.37832397 -0.21535483 0.45755973 -0.22695273 -0.16128333 -0.040311996
-0.38594547 -0.048601158 -0.22531827 0.2524419 -0.13991739 0.4544759 0.31290373 0.16426972
0.035287704 0.32584727 0.27018747 0.40704498 -0.07798014 -0.03645599 0.07929957 0.25909308
0.34874356 -0.16613443 -0.26272073 0.23388276 -0.19930814 0.34635043 -0.105101325 -0.37088105
0.077139616 0.10124288 0.20513552 0.15462492 -0.012061889 0.37153864 0.22764768 0.08665256
-0.020353908 0.23458505 -0.12917815 -0.013002679 -0.1436236 -0.04168501 0.013553509 -0.064605996
-0.1084764 -0.26722828 -0.019456524 0.024771243 -0.17153308 -0.23970328 0.25434938 0.09372159
0.16819867 0.0135638155 0.12935679 0.34600425 -0.33329457 0.14522085 0.43467596 -0.19224446
00000000: c686 20bb 852c a9bc 6055 e63e 4cc4 00be
00000010: e017 743e 9ecb abbe 96a5 79be 7e04 c53e
00000020: 594f e0be ce3f de3b 3c1f c3bc 8c1f 32be
00000030: e11e 2fbe 0b52 1ebe 4089 b33d 4f70 2e3e
00000040: a596 fe3e 99a1 bebd ea51 b93e a548 4dbe
00000050: 542f 783e 9df3 bbbd 8e66 c03e 2b60 593e
00000060: 6ff6 d3bd 3b67 813e ae1b 113e 4194 95bc
00000070: 6dcc 683e e767 49be a379 86be 7849 153e
00000080: 0eba de3d f30d 673e e2d7 3abe bc51 94be
00000090: 4ea4 5b3e 23b5 4abe 970f d2be cc79 a33d
000000a0: eaea 92be 48d7 dc3e f9ed 9f3d 4661 853e
000000b0: 9427 b7be db51 85be 24cc 723e 1c2f 663c
000000c0: 9a56 21be 46b9 0ebe 9cd6 cdbc 7c90 833d
000000d0: ff10 a63d 44fa a43e bc4c 21be 5eec 2ebe
000000e0: 0479 47be 43cd b93e 2a3c d93e e8ee 943e
000000f0: 058e b83d 98ce c53d b023 b63d 3381 aebe
00000100: 1bfa ebbc 3782 963d 6ead 2f3d 82b8 1a3e
00000110: 9e0f 99be bc79 563e 11f4 e3be a6ab 553d
00000120: 899c aabe a838 b8be 20f8 8cbe 949e 843e
00000130: acea 86be 6fed b13d 3905 873e 4286 4ebe
00000140: cb26 f6bd fe30 3d3e 7afd 06be 1f62 ddbe
00000150: 04c3 4dbe 37f8 b0bd 173e 03be 4c9f cebe
00000160: 7edc 003e 98a7 bbbe 87d8 0e3d aba6 cd3e
00000170: 7336 9f3e 6290 2e3e dedb 21be 10dd a43d
00000180: b190 ca3d 1e21 f43d e838 ffbd df8e 6bbd
00000190: c22b cebe 2923 e8bc 9362 99be 7204 a7be
000001a0: b541 a23e 2832 0cbd 5521 88be d22e 8e3d
000001b0: 107c dc3d 23de adbe f06f b5bd acb2 86bd
000001c0: cc62 86bc 3724 6bbe cf60 51be fec7 2abe
000001d0: 0384 283d a84b 68bd 0370 333e a795 733e
000001e0: 9196 e4bd ff30 6ebe 85de dd3e f9dd 11be
000001f0: da52 aabe 9f45 113e 68a4 3bbe 8f25 1d3e
00000200: 312e 29be aa01 733e b68f a83e fd65 dcbe
00000210: 2def 88be 4a55 303c 667f 913d dc35 c63e
00000220: b869 803d 1685 c43e 307e aabd 0b08 53be
00000230: d4a2 98bd f5cf 5d3e 3d2e da3d 180f d73e
00000240: 3454 42bd a62e ca3e 92ca 9abe a526 88be
00000250: 7c5c b13e 98db 753e 4083 513e 0944 a23e
00000260: 68fc 963e cf3a 5f3e fca5 c73b 3668 92be
00000270: ecd0 0f3e eab1 ac3e 031d febc 7f5d 05be
00000280: 174c 8c3e 674b 58be f4fe d8be 4c15 70be
00000290: e23c 923e f1f8 5bbd 1508 843d 8213 e2bc
000002a0: 1c3b f5bc 4532 5b3e eb51 64be 4557 dfbd
000002b0: a443 69bd 5eab 16bd 76c2 91be 013a 913d
000002c0: 5e71 383e feab f63d 0e53 8fbe a7a2 133e
000002d0: a9ce 0e3e a99e 8bbd b1d2 d43e cd18 303e
000002e0: c649 983d 4a11 c03e a5a9 c43d 1d64 93be
000002f0: 92ea 863e e5bf 01be daca 7b3e 595d 6dbe
00000300: dc83 e5bc f0fc 51bd aeb3 c13e fa85 5cbe
00000310: 4545 ea3e 4c66 68be 7527 25be 311e 25bd
00000320: a59a c5be 0212 47bd d5b9 66be 1140 813e
00000330: 8146 0fbe 11b1 e83e eb34 a03e 5236 283e
00000340: d789 103d 74d5 a63e 0356 8a3e 3368 d03e
00000350: 0db4 9fbd e052 15bd d067 a23d d9a7 843e
00000360: 848e b23e 251f 2abe 5583 86be f67e 6f3e
00000370: 6f17 4cbe d854 b13e 5d3f d7bd 1fe4 bdbe
00000380: 60fb 9d3d 6d58 cf3d 0c0f 523e ff55 1e3e
00000390: 3b9f 45bc 503a be3e 791c 693e e676 b13d
000003a0: 3dbd a6bc 1037 703e 4747 04be 3009 55bc
000003b0: 1112 13be e7bd 2abd 890f 5e3c 2650 84bd
000003c0: e028 debd 25d2 88be 4a63 9fbc 10ed ca3c
000003d0: 5ea6 2fbe c774 75be 153a 823e 1bf1 bf3d
000003e0: 463c 2c3e c43a 5e3c 1b76 043e 7827 b13e
000003f0: 96a5 aabe c6b4 143e d98d de3e bbdb 44be

in_proj_bias f4 [33]
0.008190136 0.02075601 0.42391753 -0.08013625 0.038195673 0.144171 0.16510044 0.20885096
0.12297848 0.09167015 -0.016940031 -0.0016216903 0.004741523 0.0013460364 -0.0016131528 0.0020733674
0.00061702897 0.0013896091 -0.0014218778 -0.0023250347 0.007505385 -0.0027012958 -0.02124298 -0.16223079
0.19059181 -0.036733888 0.03340036 -0.112377405 -0.13028443 0.10400181 0.06896803 -0.07038279
-0.11637852
00000000: ec2f 063c 8208 aa3c b80b d93e 791e a4bd
00000010: 1173 1c3d 90a1 133e 1710 293e 07dd 553e
00000020: 24dc fb3d 8fbd bb3d d2c5 8abc e68e d4ba
00000030: c75e 9b3b 7d6d b03a 6d70 d3ba 55e1 073b
00000040: 1dc0 213a 8b23 b63a 4d5e baba 9c5f 18bb
00000050: bcef f53b 3908 31bb c205 aebc d41f 26be
00000060: 802a 433e 4676 16bd d1ce 083d 2026 e6bd
00000070: 4869 05be e7fe d43d 1c3f 8d3d da24 90bd
00000080: dd57 eebd

weight f4 [11, 11]
-0.18641429 -0.17134827 0.007836692 0.080890924 -0.10976513 -0.07248605 0.059202634 -0.21677484
-0.124207765 0.12806274 0.18597317 -0.14246704 0.02736655 -0.047242105 0.03854016 -0.28093904
0.1072555 0.08380211 -0.3651026 -0.27340624 -0.18920666 0.25061765 -0.34941015 -0.29402268
-0.24295712 -0.09282529 -0.12311014 -0.23547654 -0.28072575 0.3152783 0.112542145 -0.3618342
0.023218017 0.15582754 -0.14536679 0.4766091 0.23321842 -0.0713754 -0.33396226 -0.2080969
0.23386136 -0.01046459 -0.16049644 -0.09552372 0.25455195 -0.1426239 -0.15965855 -0.21052209
-0.13023335 0.2327874 0.419802 -0.09191732 0.12531514 0.24471402 0.23329438 0.3544042
-0.038907655 -0.22471298 -0.019799393 0.22809105 0.4178443 -0.22989337 -0.13613933 0.30958724
-0.07145095 0.19942354 -0.048843008 -0.28543064 -0.23339908 -0.29486367 0.0037049484 0.15467551
-0.27901906 0.26279262 0.015859433 0.11280626 -0.022271974 0.09154435 0.057722285 -0.29375803
-0.2605407 0.063733056 -0.1668631 0.10456639 0.032293435 0.15493773 0.22511019 -0.105732195
0.33739156 0.19716989 0.1775442 -0.016114352 -0.13604535 -0.3148527 -0.013547261 -0.12339251
-0.14590466 0.13050841 -0.1472766 -0.2527232 -0.1338101 -0.026100734 0.1316764 -0.32841355
0.109421715 -0.12675446 -0.1845421 0.031510856 0.03593924 0.10359849 0.0046981177 -0.2842426
0.4732675 0.15737109 -0.0908695 0.060594004 -0.06411004 0.21927871 0.17317769 0.0199409
-0.45320523
00000000: 63e3 3ebe ec75 2fbe 7865 003c 24aa a53d
00000010: 8acc e0bd 9173 94bd 767e 723d 39fa 5dbe
00000020: a460 febd e122 033e c06f 3e3e e1e2 11be
00000030: d12f e03c f080 41bd 49dc 1d3d 3ed7 8fbe
00000040: c6a8 db3d 71a0 ab3d baee babe e7fb 8bbe
00000050: 64bf 41be f550 803e e3e5 b2be 248a 96be
00000060: c0c9 78be 301b bebd 2b21 fcbd c320 71be
00000070: 49bb 8fbe 286c a13e 7f7c e63d 5542 b9be
00000080: b633 be3c 4191 1f3e 08db 14be 1c06 f43e
00000090: cfd0 6e3e 442d 92bd 1afd aabe 5b17 55be
000000a0: 5a79 6f3e ac73 2bbc 2e59 24be f1a1 c3bd
000000b0: a254 823e 000c 12be 887d 23be 1a93 57be
000000c0: e45b 05be d25f 6e3e 4af0 d63e 263f bcbd
000000d0: 9d52 003e 5096 7a3e b9e4 6e3e 7874 b53e
000000e0: a25d 1fbd 291b 66be 5632 a2bc b390 693e
000000f0: b0ef d53e 2b69 6bbe 1c68 0bbe 3882 9e3e
00000100: e054 92bd af35 4c3e 9b0f 48bd f723 92be
00000110: 2b00 6fbe 5ff8 96be b8ce 723b 4263 1e3e
00000120: 96db 8ebe c18c 863e a4eb 813c f806 e73d
00000130: b773 b6bc 9b7b bb3d 346e 6c3d 7467 96be
00000140: 9765 85be 7a86 823d 29de 2abe e726 d63d
00000150: 1f46 043d ffa7 1e3e 4983 663e 1f8a d8bd
00000160: 96be ac3e e7e6 493e 26ce 353e 3f02 84bc
00000170: 794f 0bbe 6034 a1be 55f5 5dbc 36b5 fcbd
00000180: 0868 15be ffa3 053e adcf 16be ef64 81be
00000190: 8405 09be 35d1 d5bc 2ed6 063e d225 a8be
000001a0: 7e18 e03d eccb 01be 9bf8 3cbe 8711 013d
000001b0: 0635 133d 722b d43d abf2 993b 3f88 91be
000001c0: 1e50 f23e e325 213e ca19 babd 6b31 783d
000001d0: 204c 83bd 998a 603e 7e55 313e 195b a33c
000001e0: 840a e8be

bias f4 [11]
-0.036453627 -0.024327295 0.09552375 0.1199178 -0.08391329 -0.16598752 0.06314602 0.0518431
-0.091611974 0.07011101 0.19259816
00000000: 6650 15bd 094a c7bc f5a1 c33d 7797 f53d
00000010: bbda abbd a2f8 29be b352 813d 6e59 543d
00000020: 0f9f bbbd 5c96 8f3d 7438 453e

weight f4 [8, 11]
-0.25778514 0.40729854 -0.3953457 0.03557745 -0.059133817 -0.14452244 -0.36868158 0.09538807
0.42806643 0.13684167 -0.19319083 0.051815603 -0.043477885 -0.123412564 -0.26368213 -0.03306991
-0.3138827 -0.14594992 0.04103675 0.21067142 -0.16611086 0.12709193 0.4067989 0.095473595
-0.11710575 -0.24340266 -0.087228745 -0.200069 -0.25196126 -0.26015282 0.19952257 -0.18644685
0.31169355 0.34937465 -0.13975912 0.15787646 0.3195822 -0.34408405 -0.03636626 0.03738206
-0.35493827 -0.22652006 -0.0059110606 0.2271456 -0.004047483 0.27155364 -0.25371867 -0.15038602
0.185385 -0.0073185954 0.09558051 -0.06859332 -0.09393299 -0.1012211 -0.28465486 0.19548607
0.30198994 0.20084716 0.2139843 -0.06403246 0.2482332 -0.34171113 -0.32037374 0.20107186
0.18983622 -0.07134859 -0.25215638 0.16122918 0.001981953 -0.19081499 0.04359507 0.11570782
-0.28971452 0.09235592 0.24882689 0.029571256 -0.18682846 -0.2856445 0.19556166 0.027897986
-0.28143787 -0.18605748 0.21685636 0.08998037 0.34598923 0.09919382 -0.20165232 -0.18141663
00000000: 6afc 83be 6f89 d03e c06a cabe a9b9 113d
00000010: 4d36 72bd b1fd 13be d5c3 bcbe d25a c33d
00000020: 862b db3e 3920 0c3e d1d3 45be 993c 543d
00000030: de15 32bd babf fcbd 5801 87be 5074 07bd
00000040: 3cb5 a0be e573 15be 2716 283d 40ba 573e
00000050: f718 2abe 6324 023e f247 d03e a987 c33d
00000060: 24d5 efbd 8c3e 79be fca4 b2bd e3de 4cbe
00000070: 1101 81be c032 85be a54f 4c3e eceb 3ebe
00000080: 4c96 9f3e 3ce1 b23e 041d 0fbe 5eaa 213e
00000090: 47a0 a33e c92b b0be caf4 14bd ee1d 193d
000000a0: 78ba b5be e0f4 67be 92b1 c1bb db98 683e
000000b0: c0a0 84bb 1409 8b3e 6ae7 81be cbfe 19be
000000c0: 91d5 3d3e d4d0 efbb b7bf c33d a87a 8cbd
000000d0: f15f c0bd 024d cfbd 48be 91be 802d 483e
000000e0: 6d9e 9a3e e1aa 4d3e b31e 5b3e 7323 83bd
000000f0: d830 7e3e c3f4 aebe 0708 a4be c8e5 4d3e
00000100: 6d64 423e 361f 92bd a41a 81be 4319 253e
00000110: a7e3 013b 0165 43be be90 323d 39f8 ec3d
00000120: 7655 94be 1a25 bd3d 7acc 7e3e 6b3f f23c
00000130: f64f 3fbe ff3f 92be 5141 483e 518a e43c
00000140: a018 90be da85 3ebe 980f 5e3e a147 b83d
00000150: 8025 b13e 2126 cb3d f27d 4ebe 48c5 39be

bias f4 [8]
0.33375567 -0.03432743 -0.08241614 0.31930432 0.10083336 -0.08161858 0.22371703 -0.19766705
00000000: 06e2 aa3e eb9a 0cbd cbc9 a8bd db7b a33e
00000010: b881 ce3d a427 a7bd 1416 653e 3b69 4abe

weight f4 [11, 8]
-0.041359987 -0.31640562 -0.19748592 0.119628266 -0.002116706 -0.18049185 -0.4000001 -0.2761539
0.010880336 0.27292302 0.25134012 -0.10080542 -0.03714726 -0.2412773 -0.07172555 0.35332543
-0.043008022 0.47157174 0.07088317 0.41222513 0.0552936 -0.14617138 0.013267031 0.23839708
-0.12887415 0.05882402 0.14140943 0.48330605 0.23267455 -0.13045125 -0.01786743 -0.07268429
-0.275625 0.13535133 0.064023994 0.2742978 -0.19019769 -0.3710923 -0.103557214 0.08297689
-0.17370257 -0.3534298 -0.3529723 -0.07424358 0.10674635 0.12618311 0.06557731 0.43699217
0.18447323 0.018708238 -0.08657158 0.35472754 0.18743704 -0.0994015 0.16473792 0.37192333
-0.16696568 -0.03422153 0.43563628 0.41190532 -0.18573579 0.25560528 -0.19720793 -0.21266331
-0.3783701 0.11618097 -0.4344317 -0.1814113 -0.39669988 -0.27188426 -0.18811941 0.3064092
0.24047434 0.16912487 0.35626096 0.34676695 0.34356546 0.18910624 0.1928699 0.027324896
0.18759419 0.26666594 0.15449035 0.35676786 -0.0011475065 0.042852707 -0.27988416 -0.27099788
00000000: 1769 29bd ebff a1be c039 4abe aaff f43d
00000010: 6fb8 0abb dbd2 38be d0cc ccbe 0b64 8dbe
00000020: 7043 323c 91bc 8b3e a7af 803e 1273 cebd
00000030: ba27 18bd 6611 77be d8e4 92bd 12e7 b43e
00000040: 2e29 30bd da71 f13e 322b 913d 2c0f d33e
00000050: 8b7b 623d f3ad 15be f65d 593c 5d1e 743e
00000060: 96f7 03be 75f1 703d a2cd 103e e473 f73e
00000070: 3d42 6e3e 0395 05be b75e 92bc 80db 94bd
00000080: b81e 8dbe 8a99 0a3e 031f 833d c370 8c3e
00000090: 2fc3 42be cfff bdbe ce15 d4bd caef a93d
000000a0: 16df 31be c0f4 b4be c9b8 b4be 050d 98bd
000000b0: d59d da3d 2536 013e 664d 863d 70bd df3e
000000c0: 8de6 3c3e 0542 993c 714c b1bd d99e b53e
000000d0: 7fef 3f3e 0393 cbbd 0fb1 283e bc6c be3e
000000e0: 0df9 2abe e02b 0cbd b80b df3e 41e5 d23e
000000f0: 8631 3ebe b2de 823e e0f0 49be 69c4 59be
00000100: bab9 c1be 4af0 ed3d d56d debe e2c3 39be
00000110: 3f1c cbbe 6a34 8bbe 60a2 40be abe1 9c3e
00000120: e83e 763e 122f 2d3e d667 b63e 708b b13e
00000130: d0e7 af3e 11a5 413e b07f 453e 76d8 df3c
00000140: b118 403e 7088 883e b832 1e3e 47aa b63e
00000150: ee67 96ba 5286 2f3d fa4c 8fbe 3cc0 8abe

bias f4 [11]
-0.04587993 0.20406574 -0.12841313 -0.031137649 -0.106959365 -0.17805915 -0.032031618 0.05765205
-0.076965705 0.2913719 -0.04193441
00000000: 98ec 3bbd 9cf6 503e bb7e 03be 6214 ffbc
00000010: 830d dbbd 2355 36be 9633 03bd 8e24 6c3d
00000020: 32a0 9dbd b32e 953e 6ac3 2bbd

weight f4 [11]
0.94172394 1.0498555 1.046463 1.0993801 1.0814536 0.9528673 0.9992649 1.031169
0.9918551 0.8739346 1.1785702
00000000: d214 713f aa61 863f 80f2 853f 7db8 8c3f
00000010: 126d 8a3f 1def 733f d3cf 7f3f 59fd 833f
00000020: 37ea 7d3f 2eba 5f3f 63db 963f

bias f4 [11]
-0.074028686 0.004287756 0.13814746 0.12713021 -0.08743375 -0.13226974 0.088141 0.073616
-0.13087639 0.057757977 0.13557501
00000000: 5a9c 97bd 4e80 8c3b 8776 0d3e 6c2e 023e
00000010: 7710 b3bd b871 07be 4583 b43d fcc3 963d
00000020: 7604 06be a193 6c3d 2dd4 0a3e

weight f4 [11]
0.92991847 0.8738524 0.867904 1.0744991 1.0591232 1.028421 1.0351179 0.93980414
1.1171137 0.9813831 1.170892
00000000: 230f 6e3f cab4 5f3f f52e 5e3f 3089 893f
00000010: 5991 873f 4da3 833f be7e 843f 0197 703f
00000020: 95fd 8e3f ec3b 7b3f cadf 953f

bias f4 [11]
-0.080441035 -0.051284924 0.17271532 0.13550274 -0.08106971 -0.12347468 0.08148291 0.08278139
-0.1239157 0.041540515 0.12518036
00000000: 45be a4bd 2410 52bd 49dc 303e 3bc1 0a3e
00000010: e007 a6bd 4be0 fcbd 83e0 a63d 4a89 a93d
00000020: 84c7 fdbd 6326 2a3d 482f 003e

in_proj_weight f4 [33, 11]
0.009591495 -0.112326704 0.36929834 -0.20564464 0.17525218 -0.26691586 -0.1852975 0.33646247
-0.2805099 0.03974506 -0.17714465 -0.14536497 -0.020680154 -0.11715559 -0.017465467 0.043681975
0.31537163 0.19060114 0.27257633 -0.16471112 0.46274284 0.07703255 0.29961565 0.022795051
-0.28264588 -0.096241854 0.18980014 0.17246301 0.16686726 -0.3141714 -0.065484054 0.042267267
-0.16135299 0.19535252 -0.120633 -0.09782303 0.36972734 -0.23533028 -0.43024743 -0.14077504
-0.13851482 0.27161068 0.118292354 0.4162208 -0.23895691 -0.24439095 0.14784859 -0.034412764
-0.25354975 -0.08166173 -0.05769526 0.037481166 -0.09971781 0.41656986 -0.33999053 -0.2627161
-0.15811636 0.24071312 0.25418535 0.25272924 -0.012480799 0.27549925 0.22179125 -0.22043148
0.18314561 0.104731046 0.09387395 0.53878045 -0.34774828 -0.06924727 -0.39637765 0.2514676
-0.30472755 -0.3467036 -0.2616729 0.31725815 -0.36372012 -0.01723325 0.099708095 -0.12525593
0.00071453146 0.32086787 -0.11554197 -0.29733905 -0.1385328 0.23638226 -0.19105925 -0.2002149
-0.07216676 -0.564161 0.038668048 0.32144886 0.3150139 0.2321541 -0.15750271 0.20096797
0.13655813 0.16078736 0.051485576 -0.0073142396 -0.2630023 -0.004815304 -0.37883216 -0.1705464
0.31223327 -0.025915705 -0.2912783 0.16473989 0.12833565 -0.2892591 -0.17521982 -0.24501714
0.018582387 -0.29194632 -0.13754547 -0.17716093 -0.08492444 -0.06720177 0.19028285 0.13477129
-0.23707357 -0.30614242 0.44836423 -0.06183012 -0.16338491 0.26611513 -0.30156296 -0.040151633
-0.18265596 -0.0038139673 0.11362451 -0.22754481 -0.1977509 0.16679314 0.06381566 0.34531665
-0.0766799 0.3984647 0.038196627 -0.07103625 -0.06740052 0.29345763 0.17548546 0.21951564
-0.21009493 0.26317322 -0.14701448 -0.39145237 0.15614668 0.36196974 -0.080219984 0.15076786
0.14130701 -0.009605635 -0.009465401 -0.11928131 0.13306518 0.18734792 0.020875037 -0.12030671
0.32828316 -0.2668736 -0.22821422 -0.17933178 0.4550525 0.054721743 0.2566193 -0.029882876
-0.10326037 0.092118464 -0.051299904 -0.22190961 -0.043974567 0.07192142 -0.17162499 0.20790756
0.07832389 -0.10758193 -0.1251848 0.16892794 0.1558062 -0.04573924 0.5091541 0.14327192
0.044714104 0.24711217 -0.048439693 -0.38988554 0.18547319 -0.08991759 0.5171004 -0.29448774
-0.012625299 -0.063263044 0.35538763 -0.32796147 0.4410843 -0.19313723 -0.0576639 -0.04545146
-0.21097124 0.05891222 -0.27961737 0.23517941 -0.13535741 0.30364826 0.29259413 0.017634103
0.013543604 0.39241225 0.29045832 0.17502148 -0.34242162 -0.26837224 0.3316237 0.37285468
0.16620922 -0.22745095 -0.07067993 -0.07435922 -0.24414062 0.19684444 -0.10524818 -0.34238073
0.0618455 0.041856717 0.09415366 0.0811258 -0.1680306 0.394342 0.16647683 0.10762567
-0.031951446 0.14639916 -0.15395351 -0.09179889 -0.20904739 -0.12968764 -0.08454614 0.027548956
-0.15408021 -0.21493559 0.101784736 -0.14568931 -0.14203037 0.23945221 -0.18639824 0.11375372
0.3182108 0.12223601 0.27077523 0.24016593 0.049566325 -0.007406533 0.18547687 -0.24202393
00000000: a525 1d3c 8b0b e6bd ac14 bd3e 8294 52be
00000010: 4f75 333e 32a9 88be a1be 3dbe cf44 ac3e
00000020: fe9e 8fbe b7cb 223d 6865 35be 8eda 14be
00000030: 6d69 a9bc 45ef efbd bd13 8fbc dfeb 323d
00000040: 6478 a13e f22c 433e 208f 8b3e 08aa 28be
00000050: a1ec ec3e 3ec3 9d3d 3967 993e b0bc ba3c
00000060: f6b6 90be 731a c5bd f85a 423e 259a 303e
00000070: 40df 2a3e 13db a0be 811c 86bd 7120 2d3d
00000080: b839 25be 7e0a 483e 6f0e f7bd 7157 c8bd
00000090: e74c bd3e 6cfa 70be 6449 dcbe 5527 10be
000000a0: d4d6 0dbe 8e10 8b3e 4343 f23d e51a d53e
000000b0: 1fb1 74be 9f41 7abe 9f65 173e 66f4 0cbd
000000c0: 46d1 81be 443e a7bd dd51 6cbd da85 193d
000000d0: da38 ccbd a548 d53e 3d13 aebe ba82 86be
000000e0: 41e9 21be 807d 763e 9524 823e ba65 813e
000000f0: 447c 4cbc 3d0e 8d3e 3f1d 633e cab8 61be
00000100: 868a 3b3e 3b7d d63d fc40 c03d 84ed 093f
00000110: 100c b2be 83d1 8dbd 03f2 cabe 5cc0 803e
00000120: 4005 9cbe 2283 b1be fef9 85be a96f a23e
00000130: 8639 babe bf2c 8dbc c233 cc3d 1743 00be
00000140: 654f 3b3a cb48 a43e 45a1 ecbd d33c 98be
00000150: 8bdb 0dbe 310e 723e 09a5 43be 2205 4dbe
00000160: 2bcc 93bd db6c 10bf 6362 1e3d f294 a43e
00000170: 8049 a13e ceb9 6d3e 6448 21be 8cca 4d3e
00000180: e5d5 0b3e 71a5 243e 8ae2 523d 4aac efbb
00000190: 3da8 86be b3c9 9dbb 4af6 c1be b7a3 2ebe
000001a0: 0add 9f3e 2c4d d4bc 6e22 95be 93b1 283e
000001b0: 6c6a 033e c519 94be d36c 33be c6e5 7abe
000001c0: 173a 983c fd79 95be b8d8 0cbe ad69 35be
000001d0: ddec adbd 15a1 89bd 82d9 423e 7c01 0a3e
000001e0: 6ac3 72be b3be 9cbe ff8f e53e 9441 7dbd
000001f0: 604e 27be 3e40 883e 7666 9abe 0a76 24bd
00000200: 2a0a 3bbe c1f3 79bb f8b3 e83d 8201 69be
00000210: 367f 4abe d2cb 2a3e c9b1 823d 58cd b03e
00000220: 5a0a 9dbd 9103 cc3e 1174 1c3d 747b 91bd
00000230: 4909 8abd 1440 963e 76b2 333e b5c8 603e
00000240: 2023 57be a4be 863e f78a 16be 726c c8be
00000250: eae4 1f3e 1954 b93e 604a a4bd e462 1a3e
00000260: c9b2 103e f460 1dbc c514 1bbc c249 f4bd
00000270: 3d42 083e 22d8 3f3e 2002 ab3c 5d63 f6bd
00000280: bb14 a83e a8a3 88be fdb0 69be c0a2 37be
00000290: a4fc e83e e823 603d 9b63 833e efcc f4bc
000002a0: 2c7a d3bd 9ba8 bc3d d91f 52bd 463c 63be
000002b0: ad1e 34bd 8a4b 933d 76be 2fbe b8e5 543e
000002c0: 4768 a03d ea53 dcbd 7230 00be 72fb 2c3e
000002d0: a98b 1f3e 1259 3bbd ec57 023f e0b5 123e
000002e0: 2326 373d f90a 7d3e b368 46bd 149f c7be
000002f0: afec 3d3e b726 b8bd b160 043f 19c7 96be
00000300: 58da 4ebc 0e90 81bd 5ef5 b53e 91ea a7be
00000310: cdd5 e13e c4c5 45be fb30 6cbd 4f2b 3abd
00000320: d808 58be f14d 713d 022a 8fbe dfd2 703e
00000330: 229b 0abe c977 9b3e e6ce 953e 6575 903c
00000340: fee5 5d3c 42ea c83e f4b6 943e d538 333e
00000350: e351 afbe 1668 89be 95ca a93e cfe6 be3e
00000360: c032 2a3e e7e8 68be a4c0 90bd a649 98bd
00000370: 0000 7abe 9791 493e 5c8c d7bd 874c afbe
00000380: b551 7d3d f371 2b3d a2d3 c03d 4925 a63d
00000390: 3710 2cbe 32e7 c93e e778 2a3e d96a dc3d
000003a0: 85df 02bd a9e9 153e fda5 1dbe 0e01 bcbd
000003b0: 8510 56be d6cc 04be 8726 adbd 59ae e13c
000003c0: 34c7 1dbe 1318 5cbe 8474 d03d 942f 15be
000003d0: 6970 11be f632 753e 2edf 3ebe b6f7 e83d
000003e0: 87ec a23e e056 fa3d 0da3 8a3e 0fee 753e
000003f0: 0f06 4b3d 81b2 f2bb a6ed 3d3e 1fd5 77be

in_proj_bias f4 [33]
-0.040064283 0.15612899 -0.17416713 -0.06787098 0.12838858 0.059131198 0.040985953 -0.013904537
-0.050238166 0.045849632 -0.07284185 -0.00041594726 -0.0006251282 0.00077360147 0.0009714287 -6.628746e-05
8.13715e-05 0.0008124372 -0.00036772524 -0.0027803802 0.0012827086 -0.0007085262 -0.11982737 -0.112156235
0.098450914 -0.07271504 0.09350037 0.00041419183 -0.030890115 0.12896137 0.08098364 -0.03273992
-0.12658308
00000000: 721a 24bd 47e0 1f3e de58 32be f1ff 8abd
00000010: 4c78 033e 8e33 723d e3e0 273d dbcf 63bc
00000020: 89c6 4dbd d3cc 3b3d 1c2e 95bd 7f13 dab9
00000030: a5df 23ba 84cb 4a3a 7aa7 7e3a cf03 8bb8
00000040: fea5 aa38 bdf9 543a 3fcb c0b9 0a37 36bb
00000050: 8f20 a83a 63bc 39ba 0d68 f5bd 2bb2 e5bd
00000060: a2a0 c93d 9feb 94bd 1f7d bf3d e327 d939
00000070: 440d fdbc 730e 043e c0da a53d 4b1a 06bd
00000080: ff9e 01be

weight f4 [11, 11]
-0.17718294 -0.29430035 0.06814472 0.18169776 -0.17809935 -0.017547095 0.032361805 -0.21568494
-0.1456342 0.14749824 0.22041877 -0.056357384 -0.12815522 0.10197485 -0.07926858 -0.43630838
-0.08669105 0.12964278 -0.32108048 -0.20787486 -0.13744262 0.16063158 -0.21005574 -0.15390328
-0.21190965 -0.24193367 0.0088002905 -0.23741566 -0.38885236 0.19978519 0.08374468 -0.40763283
-0.035280146 -0.021955952 -0.024817804 0.27475566 0.16439535 0.02331315 -0.22574055 -0.27009073
0.17047435 -0.013818181 -0.10924516 -0.10320905 0.15947267 -0.12550002 -0.09578964 -0.0014570582
-0.08340366 0.38230118 0.34371468 -0.006505929 0.09933081 0.18309054 0.24450018 0.36548203
-0.0703318 -0.17269073 0.07733668 0.10537813 0.055301223 -0.13754132 -0.2986612 0.27294874
0.04613186 0.26913416 0.06263461 -0.10895939 -0.24089614 -0.4907171 -0.038361866 0.055335708
-0.21974967 0.120251514 -0.1044602 0.10799699 0.06753817 0.20724684 0.10097186 -0.26217735
-0.45922133 -0.012822695 -0.2573394 0.034850676 -0.0070131426 0.15723637 0.1170195 -0.04952916
0.27931276 0.06462748 0.22923546 0.2735237 -0.12341737 -0.16064215 0.0012568765 0.014646159
-0.03757355 0.26578385 -0.036320396 -0.1860926 -0.15301317 -0.09477546 -0.07668481 -0.30494675
0.055029165 0.014621228 -0.28034362 -0.0612152 0.057855748 0.17206924 0.02536992 -0.035789423
0.31344533 0.20827682 0.03558335 0.33648586 -0.10940278 0.23017946 0.26067108 0.030265324
-0.40115306
00000000: 726f 35be 89ae 96be 758f 8b3d fa0e 3a3e
00000010: ad5f 36be edbe 8fbc d08d 043d 83dc 5cbe
00000020: 2221 15be c709 173e 75b5 613e 00d7 66bd
00000030: 1f3b 03be 31d8 d03d 9157 a2bd d063 dfbe
00000040: 148b b1bd 14c1 043e a964 a4be 26dd 54be
00000050: c2bd 0cbe 9b7c 243e da18 57be d298 1dbe
00000060: d8fe 58be 76bd 77be 182f 103c 171d 73be
00000070: a817 c7be 7d94 4c3e 5582 ab3d 40b5 d0be
00000080: ea81 10bd f8dc b3bc b54e cbbc c6ac 8c3e
00000090: 4157 283e 38fb be3c 8828 67be 5549 8abe
000000a0: d490 2e3e a765 62bc edbb dfbd 445f d3bd
000000b0: ce4c 233e 1483 00be 5c2d c4bd c3fa beba
000000c0: 8acf aabd fbbc c33e 5ffb af3e b02f d5bb
000000d0: f46d cb3d 167c 3b3e 415e 7a3e 7620 bb3e
000000e0: 1e0a 90bd d7d5 30be b162 9e3d 7dd0 d73d
000000f0: 8983 623d a2d7 0cbe 1fea 98be f0bf 8b3e
00000100: c3f4 3c3d f4cb 893e 9346 803d 1a26 dfbd
00000110: 7aad 76be 463f fbbe 5521 1dbd b2a7 623d
00000120: 0f06 61be 6d46 f63d 3bef d5bd 872d dd3d
00000130: 7451 8a3d 8438 543e 56ca ce3d 1c3c 86be
00000140: 0f1f ebbe 4816 52bc fdc1 83be 95bf 0e3d
00000150: 81ce e5bb 9202 213e eba7 ef3d 17df 4abd
00000160: 1502 8f3e 6a5b 843d b3bc 6a3e 4c0b 8c3e
00000170: 3fc2 fcbd 607f 24be c7bd a43a 71f6 6f3c
00000180: b9e6 19bd d214 883e b2c4 14bd 0f8f 3ebe
00000190: 7caf 1cbe a319 c2bd ed0c 9dbd fb21 9cbe
000001a0: 4366 613d e08d 6f3c 3389 8fbe cabc 7abd
000001b0: 26fa 6c3d eb32 303e 94d4 cf3c ee97 12bd
000001c0: e87b a03e 8546 553e d9bf 113d e047 ac3e
000001d0: 910e e0bd 2ab4 6b3e ae76 853e fcee f73c
000001e0: ef63 cdbe

bias f4 [11]
-0.06071737 -0.029428968 0.14469829 0.088858485 -0.053058706 -0.2138685 0.09742978 0.07112014
-0.12225063 -0.050194025 0.11955796
00000000: c7b2 78bd 0515 f1bc ca2b 143e 70fb b53d
00000010: 1654 59bd 5800 5bbe 4489 c73d 70a7 913d
00000020: 8a5e fabd 4098 4dbd ceda f43d

weight f4 [8, 11]
-0.13141751 0.20990668 -0.07663627 -0.031432725 -0.08435771 -0.18912752 -0.31955492 0.184322
0.41425085 0.020792207 -0.37309942 0.06837994 -0.11181059 -0.11613197 -0.15090619 -0.15787135
-0.31749165 -0.19745821 -0.10109503 0.2075585 -0.18455695 0.280609 0.40914023 0.025337333
-0.06027532 -0.2123356 -0.06595294 -0.36531046 -0.16865462 -0.2248513 0.09106675 -0.037872076
0.23754461 0.23860393 0.1092705 -0.051019885 0.11230119 -0.3601704 -0.18972199 0.19823413
-0.27308756 -0.4244805 0.15457009 0.40584627 0.09234959 0.18734378 -0.36753342 -0.23664701
0.2769853 -0.060419653 0.12673281 -0.116798066 -0.2307059 -0.050217167 -0.16196485 0.22794254
0.17164163 0.22068714 0.08953408 -0.02284008 0.22471873 -0.19960764 -0.40320417 0.25626773
0.21300489 -0.090429015 -0.17020954 0.16777317 -0.02091178 -0.13560861 -0.008400682 0.18633112
-0.3015741 0.06980526 0.31987527 0.018039687 -0.32198283 -0.26249343 0.25404435 -0.029057818
-0.19254461 -0.010947529 0.32953194 0.19337143 0.14065318 0.15318093 -0.21314001 -0.31501865
00000000: 5092 06be c7f1 563e 7af3 9cbd 9abf 00bd
00000010: bcc3 acbd a5aa 41be b49c a3be e8be 3c3e
00000020: b018 d43e 6b54 aa3c e306 bfbe c80a 8c3d
00000030: f3fc e4bd 99d6 edbd 2787 1abe 07a9 21be
00000040: 448e a2be 7c32 4abe e90a cfbd 378a 543e
00000050: 7ffc 3cbe fcab 8f3e d47a d13e 3d90 cf3c
00000060: 41e3 76bd 816e 59be 5612 87bd f909 bbbe
00000070: ccb3 2cbe 6b3f 66be 3481 ba3d c01f 1bbd
00000080: e53e 733e 9754 743e 36c9 df3d 3afa 50bd
00000090: 2bfe e53d 4168 b8be 7b46 42be e3fd 4a3e
000000a0: 22d2 8bbe 8255 d9be 9f47 1e3e 15cb cf3e
000000b0: c821 bd3d 0cd7 3f3e 572d bcbe 9853 72be
000000c0: 04d1 8d3e 997a 77bd 3fc6 013e d333 efbd
000000d0: 2b3e 6cbe 84b0 4dbd 1dda 25be c569 693e
000000e0: d3c2 2f3e cffb 613e a55d b73d 1f1b bbbc
000000f0: ab1c 663e f265 4cbe c770 cebe 8635 833e
00000100: f41d 5a3e d932 b9bd 694b 2ebe bbcc 2b3e
00000110: 2e4f abbc fcdc 0abe 04a3 09bc 96cd 3e3e
00000120: ec67 9abe 0ff6 8e3d b1c6 a33e f7c7 933c
00000130: efda a4be 8a65 86be 1a12 823e a90a eebc
00000140: 6a2a 45be 445d 33bc 69b8 a83e 2903 463e
00000150: 6307 103e 76db 1c3e 6041 5abe 204a a1be

bias f4 [8]
0.1603845 0.060026117 -0.087072894 0.3353297 0.08207374 -0.04362689 0.27824357 -0.16046976
00000000: d63b 243e f2dd 753d 4653 b2bd 56b0 ab3e
00000010: 4716 a83d 1cb2 32bd f175 8e3e 2f52 24be

weight f4 [11, 8]
-0.05094103 -0.27770007 -0.19336674 0.036993634 -0.011613773 -0.19850323 -0.45621186 -0.30947793
0.06486498 0.28808942 0.32403296 -0.14359121 -0.014316753 -0.10192011 -0.1110818 0.1922137
-0.045805838 0.42277554 0.0123685645 0.42349932 0.03572078 -0.30667838 -0.0022591325 0.26336548
-0.0876789 0.017971788 0.031223973 0.46176723 0.23069832 -0.2067362 0.059372623 0.045438297
-0.20639019 0.18354341 0.037796963 0.25866297 -0.1210607 -0.40140387 -0.06744751 0.03115248
-0.24873711 -0.336286 -0.31367296 -0.16510496 0.40688425 0.116120644 0.049437582 0.4383027
0.20468932 0.044273686 -0.082242526 0.32668334 0.21933047 -0.06084737 0.16905588 0.39456165
-0.11736372 -0.10110194 0.43644732 0.45135665 -0.17000005 0.31557715 -0.15569454 -0.14799795
-0.28571314 0.25740287 -0.38574097 -0.14220874 -0.33829787 -0.24179016 -0.14970484 0.1268408
0.3206772 0.15693605 0.37415287 0.35369447 0.36726308 0.17582266 0.23850866 0.13028851
0.07804398 0.27242103 0.03956425 0.34156507 -0.12746443 -0.06762177 -0.39028928 -0.20404282
00000000: 8ba7 50bd b42e 8ebe ee01 46be a386 173d
00000010: b247 3ebc 6e44 4bbe 9a94 e9be e473 9ebe
00000020: eed7 843d 7580 933e a6e7 a53e 9309 13be
00000030: d090 6abc 7ebb d0bd db7e e3bd abd3 443e
00000040: e79e 3bbd 0976 d83e 85a5 4a3c e7d4 d83e
00000050: f44f 123d f304 9dbe f40d 14bb d7d7 863e
00000060: ff90 b3bd 9239 933c 6bc9 ff3c c16c ec3e
00000070: 2e3c 6c3e a8b2 53be b530 733d 821d 3a3d
00000080: f357 53be cef2 3b3e fdd0 1a3d 796f 843e
00000090: acee f7bd cf84 cdbe ec21 8abd 7c33 ff3c
000000a0: f1b4 7ebe ae2d acbe be99 a0be 4611 29be
000000b0: 2253 d03e a9d0 ed3d 107f 4a3d 3669 e03e
000000c0: 149a 513e 5358 353d c56e a8bd 0a43 a73e
000000d0: 2b98 603e 183b 79bd fc1c 2d3e fc03 ca3e
000000e0: 645c f0bd 890e cfbd 0676 df3e 3818 e73e
000000f0: 7e14 2ebe 5493 a13e 646e 1fbe c68c 17be
00000100: fe48 92be 4fca 833e d77f c5be 2b9f 11be
00000110: 6135 adbe d797 77be 3a4c 19be 8ee2 013e
00000120: cd2f a43e d8b3 203e f790 bf3e 7117 b53e
00000130: e809 bc3e db0a 343e 9d3b 743e 5a6a 053e
00000140: 86d5 9f3d c57a 8b3e 1f0e 223d 9ee1 ae3e
00000150: 0986 02be 487d 8abd ffd3 c7be 9af0 50be

bias f4 [11]
-0.09348937 0.18386711 -0.12914173 -0.008433323 -0.08098752 -0.11076629 -0.03950208 0.065704785
-0.015897885 0.28272822 -0.087329134
00000000: 5b77 bfbd a947 3c3e bb3d 04be ec2b 0abc
00000010: c9dc a5bd 70d9 e2bd efcc 21bd 3b90 863d
00000020: 483c 82bc c1c1 903e 9ed9 b2bd

weight f4 [11]
0.9787397 1.0083493 1.011018 1.0403665 0.94845784 1.0677724 1.0227545 0.91727555
1.0405772 0.8653408 1.2137532
00000000: af8e 7a3f 9711 813f 0a69 813f bb2a 853f
00000010: 22ce 723f c4ac 883f 9fe9 823f 92d2 6a3f
00000020: a231 853f fa86 5d3f 445c 9b3f

bias f4 [11]
-0.079500645 -0.03679623 0.14537323 0.1573459 -0.07241547 -0.13457875 0.095804244 0.07168853
-0.12686312 -0.033657026 0.109985255
00000000: 3cd1 a2bd a5b7 16bd b8dc 143e 491f 213e
00000010: 904e 94bd 03cf 09be 0435 c43d 70d1 923d
00000020: 68e8 01be f3db 09bd f33f e13d

weight f4 [11]
0.9889217 0.9277438 1.0043956 1.0461215 0.88544846 1.1113083 1.0330937 0.94287324
1.0649027 1.0041837 1.1987529
00000000: f929 7d3f 9e80 6d3f 0990 803f 4fe7 853f
00000010: c0ac 623f 5a3f 8e3f 6a3c 843f 2460 713f
00000020: bb4e 883f 1789 803f bc70 993f

bias f4 [11]
-0.09459114 -0.057109345 0.07352042 0.17731434 -0.060086288 -0.1602839 0.08873307 0.09703484
-0.12729685 -0.036273964 0.080849536
00000000: 00b9 c1bd 7deb 69bd e091 963d e491 353e
00000010: 0a1d 76bd 7621 24be afb9 b53d 34ba c63d
00000020: 1b5a 02be 0294 14bd 7194 a53d

in_proj_weight f4 [33, 11]
0.043636568 -0.14379175 0.28295442 -0.21842588 0.30142313 -0.27947846 -0.29748586 0.26676774
-0.2215951 -0.061765403 -0.16743772 -0.4020892 -0.019747015 0.1156008 0.036890052 -0.11763455
0.22809686 0.40200266 0.5657411 -0.23008174 0.42328727 0.15744536 0.40486676 0.13640167
-0.31554756 -0.02502029 0.32532188 0.09907897 -0.23656645 -0.4729885 -0.041076556 -0.17675276
0.017530764 0.066794135 -0.16707267 -0.09693955 0.38480246 -0.32910454 -0.49050802 0.14460541
-0.03851187 0.2039863 0.25736487 0.3240521 -0.3393124 -0.18931328 0.2931278 -0.16817752
-0.28094572 -0.057327412 0.14087811 -0.025200076 -0.21831515 0.5121242 -0.3803484 -0.1525378
-0.14326862 0.2586272 0.15575503 0.2980522 0.22330613 0.21662484 0.15186897 -0.29679647
0.26114434 -0.08616459 0.04857531 0.43886945 -0.29448023 -0.10524194 -0.17263645 0.25332186
-0.2837951 -0.41445035 -0.2978263 0.37753192 -0.36190483 0.01768782 0.16422889 -0.19593664
-0.092653744 0.38356107 -0.071135 -0.46723974 -0.1490962 0.2075035 -0.12649113 -0.20957701
0.039502367 -0.4440742 -0.028716538 0.39819154 0.35382107 0.13950992 -0.21262068 0.025250424
0.17963059 0.16951323 -0.05460693 -0.08749578 -0.21640158 0.12107623 -0.38726807 -0.12067557
0.27445033 0.02311636 -0.24432884 0.14426053 0.15465403 -0.31643853 -0.4088746 -0.2901106
0.17807616 -0.15408298 -0.17726482 -0.3402649 -0.17373458 0.03663203 0.21083844 0.18634135
-0.10506403 -0.35562053 0.36478946 -0.081584975 -0.12789123 0.2523768 -0.3242749 0.000743179
-0.14960897 0.024776954 0.06276907 -0.1944581 -0.21658693 0.0376356 -0.004079733 0.4733653
-0.012087151 0.35961285 -0.025177198 -0.28693402 -0.18872225 0.511976 0.20631513 0.36743212
-0.13211381 0.2638861 -0.048956178 -0.45673552 0.377952 0.31040952 -0.040196013 0.18532544
-0.012573627 -0.24370503 0.11870205 -0.054090645 0.113639526 0.07315574 0.04879866 -0.02159384
0.28577372 -0.2844597 -0.3218591 -0.24284308 0.4643618 -0.085396275 0.05426381 -0.15960547
0.16991809 -0.0889963 -0.024285523 -0.052888386 0.2617673 -0.1410226 -0.28612295 0.3758005
0.09480393 0.024013475 -0.2616837 0.13490081 0.25295198 -0.29798195 0.348792 0.22860235
-0.00035389478 0.18708096 0.032421555 -0.28542346 0.15721138 -0.105682194 0.39912486 -0.2733229
-0.124668345 -0.18133183 0.36492154 -0.21467915 0.37940237 0.013970556 -0.12229691 -0.022594666
-0.038313307 0.042281833 -0.32038537 0.091920905 -0.20691505 0.3046574 0.32592532 -0.016823502
0.16811194 0.38823557 0.2032772 0.28010425 -0.35263827 -0.23966835 0.31965074 0.39807162
0.18194987 -0.13167295 -0.12408288 -0.053792343 -0.24459468 0.20093927 -0.13980152 -0.38107398
-0.0017427165 0.02303461 0.09351684 0.092846416 -0.19123638 0.4907354 0.19165309 0.1725442
-0.06525114 0.27582633 -0.12949307 -0.119890265 -0.12799661 -0.024541136 0.009469161 -0.018068872
-0.18987736 -0.31057647 0.23747343 -0.0203011 -0.24818765 -0.10350304 0.07126646 0.25421658
0.035248727 0.019984003 0.34958908 0.1593063 -0.16199176 0.14566197 0.18891829 -0.320963
00000000: 42bc 323d 253e 13be 67df 903e 09ab 5fbe
00000010: 2254 9a3e cd17 8fbe 1150 98be c895 883e
00000020: d3e9 62be b8fd 7cbd cb74 2bbe a3de cdbe
00000030: 7ec4 a1bc 1dc0 ec3d 061a 173d 62ea f0bd
00000040: 3992 693e 4bd3 cd3e 69d4 103f 8c9a 6bbe
00000050: 1cb9 d83e 5b39 213e b24a cf3e e1ac 0b3e
00000060: 738f a1be 5af7 ccbc 9790 a63e eae9 ca3d
00000070: 7a3e 72be 8c2b f2be e43f 28bd adfe 34be
00000080: ad9c 8f3c 5dcb 883d 1915 2bbe 3e88 c6bd
00000090: d404 c53e 6480 a8be de23 fbbe 7113 143e
000000a0: 9fbe 1dbd c9e1 503e 54c5 833e 28ea a53e
000000b0: 5bba adbe 57db 41be d914 963e ba36 2cbe
000000c0: 1ed8 8fbe 26d0 6abd 5a42 103e 6470 cebc
000000d0: 028e 5fbe 921a 033f 07bd c2be de32 1cbe
000000e0: 02b5 12be c96a 843e 3f7e 1f3e 4c9a 983e
000000f0: 5daa 643e e7d2 5d3e 8a83 1b3e b5f5 97be
00000100: b6b4 853e 1077 b0bd e7f6 463d 7fb3 e03e
00000110: 1dc6 96be 1689 d7bd 9cc7 30be 67b3 813e
00000120: 974d 91be d632 d4be b07c 98be dd4b c13e
00000130: 974b b9be 0ce6 903c 9e2b 283e 9da3 48be
00000140: 3fc1 bdbd 1e62 c43e 3aaf 91bd 0c3a efbe
00000150: adac 18be cc7b 543e e486 01be 5b9b 56be
00000160: 3ccd 213d b25d e3be f23e ebbc c3df cb3e
00000170: 0928 b53e b0db 0e3e 3cb9 59be fad9 ce3c
00000180: 15f1 373e e094 2d3e 84ab 5fbd fd30 b3bd
00000190: 6098 5dbe d1f6 f73d 0048 c6be c124 f7bd
000001a0: c184 8c3e 855e bd3c 5731 7abe 08b9 133e
000001b0: a05d 1e3e 3b04 a2be 0358 d1be 6089 94be
000001c0: 9959 363e eec7 1dbe e984 35be 3337 aebe
000001d0: 7ae7 31be 780b 163d 08e6 573e 44d0 3e3e
000001e0: cf2b d7bd e513 b6be afc5 ba3e 0616 a7bd
000001f0: ebf5 02be 8837 813e 5c07 a6be e6d1 423a
00000200: 1833 19be 0af9 ca3c 128d 803d 0620 47be
00000210: f7c8 5dbe c927 1a3d 48af 85bb f05c f23e
00000220: 3009 46bc 2d1f b83e 6940 cebc 04e9 92be
00000230: 6840 41be dc10 033f 4644 533e 1020 bc3e
00000240: d848 07be 141c 873e 4686 48bd 3dd9 e9be
00000250: ed82 c13e ffed 9e3e 93a4 24bd f4c5 3d3e
00000260: 9d01 4ebc d08d 79be 0f1a f33d 278e 5dbd
00000270: d7bb e83d add2 953d 1be1 473d 91e5 b0bc
00000280: ef50 923e b4a4 91be b7ca a4be dbab 78be
00000290: d4c0 ed3e 3ee4 aebd bb43 5e3d 9e6f 23be
000002a0: 02ff 2d3e b143 b6bd 6ff2 c6bc 7ea1 58bd
000002b0: 5d06 863e 3a68 10be b57e 92be ec68 c03e
000002c0: 9028 c23d e8b7 c43c 68fb 85be 7023 0a3e
000002d0: ec82 813e 1791 98be dd94 b23e bc16 6a3e
000002e0: f48a b9b9 2792 3f3e 77cc 043d 0623 92be
000002f0: 05fc 203e e86f d8bd 185a cc3e fbf0 8bbe
00000300: 1e52 ffbd 0daf 39be ffd6 ba3e dad4 5bbe
00000310: 0741 c23e c2e4 643c cd76 fabd 7318 b9bc
00000320: 6aee 1cbd b72f 2d3d 8d09 a4be 0741 bc3d
00000330: 8ae1 53be 0efc 9b3e afdf a63e 71d1 89bc
00000340: 8925 2c3e d0c6 c63e e627 503e d369 8f3e
00000350: 018d b4be 9f6b 75be 43a9 a33e 0bd0 cb3e
00000360: 1151 3a3e 46d5 06be 2a1f febd 5c55 5cbd
00000370: 0777 7abe 06c3 4d3e 2128 0fbe 211c c3be
00000380: dd6b e4ba 14b3 bc3c c285 bf3d 4326 be3d
00000390: 78d3 43be ac41 fb3e b540 443e 6daf 303e
000003a0: 64a2 85bd 1c39 8d3e d599 04be 0789 f5bd
000003b0: 8b11 03be 7e0a c9bc 8a24 1b3c 2c05 94bc
000003c0: 366f 42be e103 9fbe 3c2c 733e 7e4e a6bc
000003d0: e724 7ebe 67f9 d3bd 26f4 913d ad28 823e
000003e0: f860 103d 7eb5 a33c 57fd b23e 3121 233e
000003f0: 2be1 25be 6928 153e cc73 413e 4355 a4be

in_proj_bias f4 [33]
-0.031304527 0.22063908 -0.25672537 0.052379843 0.20061515 0.10939313 0.07491598 -0.12553252
-0.14206812 0.0805503 -0.026793724 0.002196773 -0.001640982 -0.0008494254 -0.0021512809 0.0012714427
0.0020162382 -0.00025649872 0.00189226 -0.0016819285 0.00084357994 0.0012280986 -0.06085686 -0.21184431
0.078713074 0.019729655 0.14205837 -0.034047607 -0.02558175 0.17271978 0.13877502 -0.035360508
-0.08392651
00000000: 2d39 00bd 36ef 613e 8271 83be 3f8c 563d
00000010: 0f6e 4d3e 8109 e03d 8d6d 993d 998b 00be
00000020: 4e7a 11be 8ef7 a43d 837e dbbc bcf7 0f3b
00000030: 3816 d7ba f9ab 5eba 81fc 0cbb 8aa6 a63a
00000040: dd22 043b ad7a 86b9 b605 f83a 2874 dcba
00000050: b123 5d3a 27f8 a03a 0b45 79bd b7ed 58be
00000060: 5234 a13d 16a0 a13c c077 113e 8175 0bbd
00000070: d190 d1bc 74dd 303e 0a1b 0e3e 2ed6 10bd
00000080: a9e1 abbd

weight f4 [11, 11]
-0.19570453 -0.22120157 0.083580635 0.15424007 -0.1447798 -0.13354072 -0.0688561 -0.17038757
-0.14857757 0.058122486 0.09882853 -0.085571446 -0.0924219 0.0949038 -0.19315882 -0.4293539
0.21892063 0.014703143 -0.31097007 -0.16840129 -0.15171066 0.11077742 -0.31804457 -0.35521302
-0.0936227 -0.1556753 0.0065049594 -0.37163338 -0.24786542 0.239931 0.16579646 -0.3354763
0.0040768213 -0.02598659 -0.15725999 0.48067173 0.36842948 0.15301232 -0.35554507 -0.19799797
0.30066475 0.19184043 -0.14820796 -0.13137898 0.10210332 -0.1450397 -0.080552965 -0.024097454
-0.08861842 0.11317023 0.32834607 -0.021276614 0.087778494 0.07792543 0.26394284 0.5178516
0.23948231 -0.35861504 -0.28907564 -0.11803972 0.40649736 -0.27088875 -0.29000822 -0.00070046226
-0.020763263 0.06759268 0.05426597 -0.090429924 -0.27399224 -0.4021068 0.030856488 0.35543156
-0.18513407 0.13039163 -0.05216467 0.20525426 -0.0016653474 0.23977858 0.04566129 -0.25788122
-0.39311528 -0.022018049 -0.10131486 0.10502539 0.009724268 0.14770795 0.24307047 -0.06628303
0.1635445 0.12158565 0.26215276 0.11810942 -0.18519637 -0.29803693 -0.0846975 -0.039790798
-0.113345064 0.18110988 -0.08087157 -0.14554794 -0.22191186 -0.019375516 -0.036162708 -0.18412842
0.30833903 -0.05513329 -0.14991297 0.113306224 0.10739139 0.2011388 0.13929819 -0.19765623
0.42990002 0.29492566 0.047244996 -0.017555358 -0.009236909 0.28431398 0.1991751 0.01193264
-0.37798184
00000000: c566 48be aa82 62be 532c ab3d 1cf1 1d3e
00000010: 2841 14be e6be 08be 6d04 8dbd 147a 2ebe
00000020: b824 18be d811 6e3d 9d66 ca3d 1540 afbd
00000030: b147 bdbd ec5c c23d 6dcb 45be 46d4 dbbe
00000040: bb2c 603e 74e5 703c 7837 9fbe 6371 2cbe
00000050: 0a5a 1bbe 46df e23d bdd6 a2be 7bde b5be
00000060: 42bd bfbd 5969 1fbe 8e27 d53b bb46 bebe
00000070: 6fd0 7dbe 79b0 753e 8cc6 293e 8dc3 abbe
00000080: db96 853b d4e1 d4bc c308 21be 9b1a f63e
00000090: caa2 bc3e 43af 1c3e 010a b6be fbbf 4abe
000000a0: bbf0 993e d171 443e d4c3 17be 3688 06be
000000b0: 8c1b d13d 4a85 14be f4f8 a4bd 0668 c5bc
000000c0: 937d b5bd cbc5 e73d fa1c a83e 4b4c aebc
000000d0: 36c5 b33d 5e97 9f3d 8423 873e ec91 043f
000000e0: da3a 753e 649c b7be b901 94be cfbe f1bd
000000f0: 6c20 d03e eeb1 8abe f57b 94be 3a9f 37ba
00000100: b817 aabc 086e 8a3d fe45 5e3d 5333 b9bd
00000110: b648 8cbe f1e0 cdbe bfc6 fc3c 20fb b53e
00000120: c993 3dbe 6285 053e 9faa 55bd 2c2e 523e
00000130: c947 daba 8488 753e 5507 3b3d 0209 84be
00000140: 6846 c9be 325f b4bc 2a7e cfbd 8d17 d73d
00000150: 8952 1f3c c140 173e 77e7 783e 66bf 87bd
00000160: 3678 273e e601 f93d e338 863e 5ae3 f13d
00000170: 1ea4 3dbe 4c98 98be e275 adbd adfb 22bd
00000180: 7521 e8bd de74 393e fe9f a5bd 850a 15be
00000190: dd3c 63be 67b9 9ebc 591f 14bd 298c 3cbe
000001a0: 9dde 9d3e 72d3 61bd c982 19be 180d e83d
000001b0: 04f0 db3d 54f7 4d3e 2fa4 0e3e 6566 4abe
000001c0: db1b dc3e 7f00 973e f883 413d 41d0 8fbc
000001d0: 6856 17bc 9a91 913e 8ff4 4b3e 1f81 433c
000001e0: d686 c1be

bias f4 [11]
-0.031721905 -0.037690137 0.050978992 0.072101004 -0.012263618 0.00586621 0.067122735 0.06712
-0.12768497 -0.06616388 0.06507806
00000000: d4ee 01bd f960 1abd 59cf 503d b1a9 933d
00000010: 58ed 48bc 5639 c03b a577 893d 3676 893d
00000020: d9bf 02be ee80 87bd a547 853d
