PonziShield_tr_v3_gpu.pth (torch, 408246 bytes, 110 tensors)

weight f4 [108, 11]
00000000: 333d 143e 94dc c0be 286f 093f c108 b9bf
00000010: f25a 77bf fb49 343f 078b 39bf a57a 52be
00000020: 6664 783f 454f b3be 380a 84bf dac8 2ebf
00000030: c275 9dbf 2a01 cdbe 93e7 6ebe 8856 223f
00000040: 5fb3 813f 144f 0bbf dbc8 dbbe e7af 57bf
00000050: 9800 043f 5d09 e1bf 646b b33e 5fcb 03bf
00000060: 90a5 6bbf dbec c0be 6c98 ea3e dd34 80bf
00000070: 78e9 f2be 4c54 81bf ce4d f43e bbd5 553f
00000080: ce02 cb3f 96c5 503f 82a1 a7bf 0a0a e53e
00000090: 913e e03e 1c67 c3bd dea9 8abe ea46 20c0
000000a0: 442b a03d 9239 31bf f08c 35bf 556e 823f
000000b0: 6c36 8cbf 2818 8abf 1003 3b3f fcc2 4a3f
000000c0: 288b f1be 28a8 2dbf 291f babf 3c3d dfbd
000000d0: 2b12 ab3c 48e0 93bf 6da4 a1bf 5ab6 bbbf
000000e0: 6bc0 a13f 479a 0c3f 6b2e 41bf f17e 4fbd
000000f0: 3732 68bf d45f fb3e a66d 2d3f 740c 8dbf
00000100: 642d b0be 3544 a5be 21e1 24be 5017 f0bc
00000110: b1bb d43e df23 2dbf 6d69 27bf 9347 38bf
00000120: 2e92 90be 1861 b63d 87c3 db3f e4a6 473f
00000130: f0f6 5abf 88c3 93be ef0e a3bd ac36 af3e
00000140: bb28 d4be 7357 8a3e ded4 6fbe b7c7 2e3f
00000150: 4b52 1040 ae30 3fbf 69bc 2ebf ef24 3fbf
00000160: deb1 82bf 7c93 08bf 61ca cdbd 5c16 4a3f
00000170: 43b4 563d c0f9 f4be aa56 c33f 534f 9e3e
00000180: 74ad b43d 9483 a2bf 6565 513e 3305 9c3f
00000190: cdff 27be ef76 00be 08d2 233f 4e4f b03e
000001a0: 5126 debe 422a bbbf fdec 99bf ae65 623d
000001b0: 17fa 993f 7172 fd3e 5c40 cf3e 74ed 9a3e
000001c0: 1a3a 3cbf f54a ac3e 1f4d aabe 4221 123f
000001d0: 810d 2ebf 99cf 3ebe 8efe ad3f 7aea d3be
000001e0: c027 cebe b75f 203f 78fe d63e 4438 b3be
000001f0: a965 1b3f d425 8d3e 47ac f0be 34bd 8c3f
00000200: 1b6b 093f 8a94 a2bf abb5 353f 36fd 9dbe
00000210: fa1d 8bbf d3c6 87bf 60e7 1140 1371 d8bf
00000220: 26ee 483f f0e8 ba3e d73c 60bf 1b05 f93e
00000230: 2fcd 8e3d d597 073f 5343 363e 8dc1 2b3f
00000240: 3f8a 3f3e f245 2abf 585c cbbd ee6a 0bbe
00000250: 85de f5bd a72c edbe f6b3 0b40 3046 40bf
00000260: 1561 62be 1891 8d3d b013 343e f0f6 803f
00000270: 7935 82bf 8f71 bebf 00e3 713b b7a6 e4bf
00000280: 75ab 9d3f 88e4 b6bd 1c28 1abf 8357 133f
00000290: c4c5 31be da5b 3a3e 8628 9cbf 7c31 0b3f
000002a0: fcc2 7cba 6d2c 0dbe a10d cabf e801 ebbf
000002b0: 7de8 cebe b366 66bf c074 c7bd 860f 593e
000002c0: 68d5 5abe 9e02 343f d685 0440 3a5f 2d40
000002d0: e8eb e33e 7caf 82be 7eb5 533f 51f7 f9bf
000002e0: 781d 8dbd 9fc2 1cc0 4b88 0cbf 8843 503f
000002f0: 704a 0a40 3eeb 49be 9cc3 dfbe 70c2 e4be
00000300: 9b6b 913f 9448 b8be 7aad 9fbe 1ad4 d9be
00000310: 20e7 af3e f9fa ad3e ae05 a3bf edea e03e
00000320: aaed e3be 023f 843f 470f 853e 5c74 8bbe
00000330: 573f 5c3f 07ab 01c0 9863 cc3f abc2 40bd
00000340: 9d43 0fbe a120 a33f f698 43bf 5601 4f3f
00000350: c5ec c7be 815e 50be 16bf f4bc 6692 d13f
00000360: 1a83 d83f 479b e33f fae7 83bf e298 923e
00000370: 8f52 94bf 5d9b 8a3f cad7 6ebf 85eb 64bf
00000380: eda2 c93f 7717 ff3f 3a62 963f e89a 24bf
00000390: f066 e0bc d185 bdbf 607c 2b3d e5fd 913e
000003a0: dad3 b4be c381 e0be 9aa6 743f 4c12 2a40
000003b0: c28c 77bf c6a4 73be 0087 cc3d 1a24 873f
000003c0: fb2e d43f 4e21 8cbe 96e6 893f 5a77 2fbf
000003d0: 258d 0040 b2be 973f af67 3b3f 9a17 3abe
000003e0: 3e31 8ebf e308 e03f c5d5 b53f eda8 7fbf
000003f0: 204f fdbf 0c41 38bd 9699 b23f 6c1d 363e
0.1447647 -0.37668288 0.53685236 -1.4455796 -0.96623147 0.70425385 -0.72477764 -0.20554598
0.97028196 -0.35021415 -1.0315619 -0.68275225 -1.2301562 -0.4003995 -0.23330526 0.63413286
1.0132865 -0.5441754 -0.42926678 -0.8425278 0.51563406 -1.7580982 0.3504287 -0.51482195
-0.92049503 -0.37680706 0.45819414 -1.0016133 -0.47443748 -1.010385 0.4771561 0.8352925
1.5860231 0.8155149 -1.3096163 0.44734222 0.43797734 -0.09541151 -0.27082723 -2.5043283
0.07820752 -0.6922847 -0.7091818 1.0189921 -1.0954108 -1.0788622 0.7305155 0.7920377
-0.4717648 -0.6783471 -1.4540759 -0.109003514 0.020882687 -1.155282 -1.2628304 -1.4665024
1.2636846 0.5492291 -0.75461453 -0.05065817 -0.9070162 0.4909655 0.67745435 -1.1019425
-0.3440963 -0.322786 -0.16101505 -0.029307991 0.41549447 -0.6763286 -0.6539524 -0.71984214
-0.28236526 0.08905238 1.7169045 0.7798903 -0.85533047 -0.28860116 -0.07961833 0.342214
-0.41437325 0.27019843 -0.23421046 0.6827349 2.2550228 -0.74683654 -0.6825624 -0.7466573
-1.0210531 -0.53350043 -0.10048366 0.7894037 0.052418005 -0.47846794 1.5260823 0.30919895
0.08822146 -1.2696404 0.20448835 1.2189087 -0.16406174 -0.1254537 0.6399236 0.34435505
-0.43388608 -1.4622271 -1.2025448 0.05527275 1.2029446 0.49501374 0.4047879 0.30259287
-0.73526156 0.33650938 -0.33261964 0.57082 -0.67989355 -0.1863388 1.3593309 -0.4138983
-0.40264702 0.6264605 0.4199102 -0.35003865 0.60701996 0.27567923 -0.47006437 1.099524
0.53679055 -1.270158 0.7098033 -0.30857247 -1.0868523 -1.0607551 2.279747 -1.6909508
0.78488386 0.36505842 -0.87592834 0.48636708 0.069727294 0.5296605 0.1779912 0.6709221
0.1870508 -0.6651298 -0.099297225 -0.13615009 -0.12005333 -0.4632313 2.182859 -0.751071
-0.22107346 0.0691244 0.17585635 1.0075359 -1.0172569 -1.4878405 0.0036908984 -1.7863377
1.231795 -0.089303076 -0.6021745 0.5755541 -0.17360598 0.18199101 -1.2199867 0.5437238
-0.0009642092 -0.13786478 -1.5785409 -1.8359957 -0.4041175 -0.90000457 -0.09739065 0.21197328
-0.2137047 0.70316494 2.0706687 2.7089372 0.4451592 -0.2552451 0.8269881 -1.95286
-0.06890386 -2.4493787 -0.54895467 0.81353045 2.1607933 -0.19718644 -0.43703926 -0.44679594
1.1360964 -0.35992873 -0.3118704 -0.42544633 0.34356022 0.3398054 -1.2736108 0.43929234
-0.4451726 1.0331728 0.25988218 -0.27237213 0.8603415 -2.0260637 1.5967894 -0.04706065
-0.13990636 1.2744333 -0.76405275 0.80861413 -0.39047828 -0.2034855 -0.029876273 1.6372802
1.6915009 1.7781762 -1.0305169 0.28632265 -1.1587695 1.0828663 -0.9329802 -0.89421874
1.5752846 1.9929036 1.1748726 -0.6429887 -0.027392834 -1.4806463 0.04186666 0.2851402
-0.3531788 -0.43849 0.95566714 2.6573668 -0.96699154 -0.23793325 0.09986687 1.0557892
1.6576837 -0.2736916 1.0773494 -0.6854149 2.0086148 1.185507 0.73205084 -0.18173066
-1.1108778 1.7502712 1.4205862 -0.99867135 -1.9789772 -0.04498391 1.3953121 0.17784661

in_proj_weight f4 [33, 11]
00000000: 50dd a33e 7f26 553e d358 05be 3535 1a3c
00000010: 22c4 aebe bed1 233e a077 8f3d b671 9dbe
00000020: 849a cbbd 654d c6be 19a8 ddbd 351d 3b3d
00000030: 194f 0bbd 5e24 8cbe 6343 2c3e 3601 28be
00000040: f045 d6bc 52c0 913e 41d1 c23e 6cc6 b83e
00000050: 85ec f03e f618 afbe 7131 a03e 763d c9bc
00000060: 2604 91bd ed27 873e 55f3 96be ab86 e4bd
00000070: 2ea2 2fbe c51a 223d b89e 23bc 1d62 ba3e
00000080: 1804 21bd 6608 18be c769 a03d 79d1 0e3e
00000090: 8690 233d 0844 2bbe 008b 543e 9caf ce3d
000000a0: 9b2d 9dbd 4136 b73b c654 dd3c a10b 71be
000000b0: 7a19 97be f66d 6b3e bade 943e b33c 5c3e
000000c0: 5d29 28bd 8584 01bf 1df6 b6be 0245 c4be
000000d0: 5db5 d3be 4b90 f73c 844f df3e d952 eb3e
000000e0: 22ab 2abe 4887 9c3d 07c9 95be 2532 653d
000000f0: 3363 a23e 38ad 9f3e 4d55 9e3e ec3c c7bd
00000100: 9004 c73e d12f 9e3e 512d edbe ef86 b9bd
00000110: e1db 23be fbc6 b7be 9780 bb3d 841a 41be
00000120: 12de ecbc ba56 7c3e 1a97 cf3e 4744 283e
00000130: bcac 233e 1519 8ebe 58f4 66be 3d58 6e3e
00000140: 6923 71be 32da b53d ac85 06bd 8a8f 713e
00000150: 1eae 5fbe 8a50 82be 39da ac3e ea01 c9be
00000160: 2577 b53e 59fd 023d 6bec 4abe 55c3 b9bd
00000170: 5e38 d23e 1f2c b23e b0da 103e ebad b63d
00000180: 7a30 1cbe ae53 8c3d 7cff 35bd b01d 7d3e
00000190: f916 873e 4564 d13e 73af 81be 1b8c b53d
000001a0: 7146 adbe 038a 0ebe febf 0bbe e4d4 913e
000001b0: 5d0b 013e 7981 0d3c 1f2c 9e3e 5f38 3b3e
000001c0: 22ab 83be af10 47be 4804 0fbc 90ed 6f3e
000001d0: 9d90 aa3e 4fc1 94be eb19 2fbe b54e b6bd
000001e0: 81b7 89be 1519 f63d 5620 44be 51fc d4ba
000001f0: 0ad1 7bbe 2ea2 493e e1f9 febd efeb 98bd
00000200: ca5a ddbc 6941 8fbe fc74 0abe 2659 f0bb
00000210: 3239 a7be 9ad6 8d3d 11e4 11bd ec1b c53e
00000220: 8571 90be e7f3 533e 5f32 c5bd f7ee 71be
00000230: 2c6f 2fbe e200 7dbe 9b2f cb3e b73f 8bbe
00000240: eb30 553e c331 1cbe b2ec 7dbe d1d0 92be
00000250: 1ae9 3a3d c97e eebd 3ed9 62be 4998 8c3e
00000260: a3b5 27bd 974a 013c dac0 2cbe 3e8c c03e
00000270: 6d01 abbe 4f00 333e c7f2 d1be f9ad de3d
00000280: ef3d d33d e0b1 ebbd f566 67be 7705 8ebe
00000290: 5055 293d f0c8 31be 6b1d 80be 32a7 a53e
000002a0: c23e 82bb 69d6 d3be af67 8cbe fee8 a43e
000002b0: 62c2 8c3d 13df f23c 26fd 01bd 2854 8d3d
000002c0: f30a 8bbe 9c76 19be 7f0e 383d 5b54 543e
000002d0: 0f24 953e 0d38 80be eed5 d0be 14b1 0d3e
000002e0: 15e7 2b3e 2caf 3cbe c7f8 763d 725f 9bbe
000002f0: edad 003e 8025 08be 5aa1 d2bd 3a72 04bd
00000300: 16a6 8b3e c310 6d3d ce33 223e 7bda 8a3e
00000310: 10c9 c7be f766 bdbe 1bc4 54bd 508f 353e
00000320: eb77 73bd 6355 903d 8217 123e e80f ae3e
00000330: 37e3 373e 9e6a 99bd c1ca d83d 3119 f93d
00000340: 361c a4bd c79e 61be 0642 323d b9ee a93e
00000350: f4dd d23d 21c8 9dbe 9da9 8a3d bddc 6cbd
00000360: 9b28 b1be 33d6 0abe 82c1 d63e bc18 1dbe
00000370: b9c9 6fbe 350d 59be e811 0dbd 2057 7b3e
00000380: 350a 093e 09fb 9e3e 86a0 dc3e 4d4b 60be
00000390: ee88 ccbd 3b43 393e 901f 8e3e 1835 46bd
000003a0: 6b41 14bc 12db b3ba b223 3a3e 375b 87bd
000003b0: f00f 883e 75f1 903e fb22 593c ebd3 b03e
000003c0: f693 b63e e5d6 7f3e 5570 c9bc 72e4 15bc
000003d0: cd1f 043f 637e cf3d 5b42 46be 729c ac3e
000003e0: f760 59bc 5dfc 6f3e a6a0 30be b7ee e43e
000003f0: 95f8 d2bc 971e 7ebe 0b43 2d3e ffc0 6b3e
0.32004786 0.20815466 -0.13022165 0.0094121 -0.34134012 0.15997979 0.070052385 -0.30750817
-0.09941581 -0.38730922 -0.10823078 0.04568215 -0.03401098 -0.27371496 0.16822581 -0.16406712
-0.026156396 0.2846704 0.38050273 0.36088884 0.4705545 -0.3419873 0.3128772 -0.02456544
-0.070808694 0.26397648 -0.29482523 -0.111584984 -0.1715171 0.03957631 -0.009986572 0.3640298
-0.039310545 -0.14846954 0.078326754 0.13947095 0.03993275 -0.1672517 0.2075615 0.100920886
-0.07674714 0.0055911844 0.027017962 -0.23539592 -0.29511625 0.22991166 0.29076177 0.2150753
-0.041055072 -0.50592834 -0.35734645 -0.383339 -0.41349307 0.030220171 0.43615353 0.45961645
-0.16666844 0.0764299 -0.29254934 0.055956025 0.31716308 0.31186843 0.30924454 -0.09728417
0.38870668 0.30895856 -0.46323636 -0.0905894 -0.16001846 -0.35893998 0.09155386 -0.18857771
-0.028914485 0.24642459 0.4054497 0.16432296 0.15983862 -0.2775351 -0.22554147 0.23275848
-0.23548664 0.08879508 -0.032842323 0.23589912 -0.21843764 -0.2545207 0.3376024 -0.39259273
0.35442463 0.031979892 -0.19816749 -0.0907046 0.4105863 0.34799287 0.14145923 0.08919891
-0.15252867 0.06851898 -0.044433102 0.24718356 0.26384714 0.40896812 -0.2532917 0.088646136
-0.33842805 -0.13919835 -0.13647458 0.28482735 0.12601991 0.008636826 0.30893037 0.18283223
-0.257165 -0.19439958 -0.008729048 0.23430467 0.33313456 -0.29053733 -0.1709973 -0.08901731
-0.26897815 0.12016503 -0.1915296 -0.0016249513 -0.24591461 0.19690773 -0.12450004 -0.07466876
-0.02702083 -0.2797959 -0.13521188 -0.007334846 -0.32660824 0.069256976 -0.03561789 0.38497865
-0.2821161 0.2069851 -0.09628748 -0.23626314 -0.17132252 -0.24707368 0.39684758 -0.27197048
0.20819442 -0.15253358 -0.24797323 -0.2867494 0.04563246 -0.11645276 -0.22153184 0.27459934
-0.040944707 0.007891319 -0.16870442 0.37606996 -0.33399525 0.17480586 -0.41005537 0.108730264
0.10314547 -0.11508536 -0.22597869 -0.27738544 0.041341126 -0.17361808 -0.25022444 0.32354122
-0.0039747665 -0.4137452 -0.27422854 0.3220901 0.06873013 0.029647386 -0.03173556 0.06900817
-0.2715679 -0.14986652 0.0449357 0.20735304 0.29129073 -0.25042763 -0.40788215 0.13837081
0.1678737 -0.18426198 0.060295846 -0.30346256 0.12566347 -0.13295555 -0.102846816 -0.032335497
0.2727515 0.057877313 0.15840074 0.27119812 -0.39020586 -0.36992618 -0.051944833 0.1773045
-0.059440535 0.07047536 0.1426678 0.3399651 0.1795777 -0.07491039 0.10585547 0.12163008
-0.08013193 -0.22033225 0.043519996 0.33189943 0.102962404 -0.3081675 0.067706324 -0.0578277
-0.34601292 -0.13558273 0.4194451 -0.15341467 -0.23416795 -0.21196444 -0.034440905 0.24544954
0.133828 0.310509 0.4309122 -0.21903725 -0.09987055 0.18092053 0.27758455 -0.048390478
-0.0090488 -0.0013721904 0.18177679 -0.06609195 0.2657466 0.28309217 0.013252969 0.3453668
0.3565976 0.2498432 -0.024589697 -0.009148704 0.51611024 0.10131528 -0.1936125 0.33713108
-0.013267747 0.23436113 -0.17248783 0.44713375 -0.025753299 -0.24816357 0.16920106 0.23022841

in_proj_bias f4 [33]
00000000: 3100 333d f42a 23be a230 113d d8e0 a53c
00000010: caf0 02be 850d 443c 68fb e2bd 9566 c7bc
00000020: 124a 1a3d 3472 93bd e98d 843c c831 2d3b
00000030: 881e 4f3b 9682 1bba 7398 73bb ce75 91bb
00000040: ce10 0139 0a7b 21bc d1fd d83a d440 343b
00000050: 9300 94ba 55a5 1cbb 43e3 7b3b d2d6 ddbc
00000060: 34e5 81bd 9577 7abd 76e4 263b 98fe 3e3d
00000070: 59f0 e2bb 7f53 8c3c f9c4 453c fcff 403d
00000080: 97ab 3f3c
0.043701354 -0.15934354 0.03544677 0.020248815 -0.12787166 0.011966114 -0.11083108 -0.024340907
0.037668295 -0.07199517 0.01618095 0.0026427377 0.0031603891 -0.00059322396 -0.0037169724 -0.0044390922
0.00012308659 -0.009855995 0.0016555135 0.002750446 -0.0011291675 -0.0023902257 0.003843502 -0.027079973
-0.06342545 -0.0611492 0.0025465763 0.04662952 -0.0069256243 0.017129658 0.012070888 0.047119126
0.011698625

weight f4 [11, 11]
00000000: 1d49 e4bd 989f babe 09f2 a63d 16a9 7bbe
00000010: ce17 9cbe ca3d 363c 8793 8fbe c770 c23d
00000020: 0892 553e 5835 62bd 53b4 6b3e ead4 6fbe
00000030: ebaf 803e 2b35 92bc a3d0 67be 1149 e33d
00000040: b338 cd3d 5912 e9bd 8d52 09be a142 543e
00000050: 89d5 243e c7ce 563d 1b0f 6b3d 3b2b 963e
00000060: 61fa 243e c3e1 283e de69 2e3d 3d0d b1be
00000070: 4010 d73d 6b77 5cbc c7ed 79be 1107 3fbe
00000080: aa1c e2be 5043 24bd 5b99 303e 77b2 d53b
00000090: dbeb 96be 1a2c 053e ceaa 773e 4286 dd3d
000000a0: 0bf8 fabd ee08 273d b51c ab3d 880e 08be
000000b0: b894 72be 14ba fb3c 40f3 83bd 7240 0a3e
000000c0: 128c 0dbe ad7a 30be d96e 9f3e aace 1fbe
000000d0: d024 ee3d bf5f f63d b4ad 7f3e 0d74 993e
000000e0: 8cac 6d3e a1ac cfbd a10d b03e 95ea 4fbe
000000f0: dc64 803d 5d11 f83d ab59 dd3d 2742 68be
00000100: a2df 0fbe 6ef0 babd 7382 38be bbda 5a3e
00000110: 8cce 833e 4c3a 51be bcb1 613c 53f9 80be
00000120: 6dd2 a3bd b5e9 133e 894c 53bd 14d2 8c3e
00000130: 6c27 00be 0861 833e 0442 11be 487a 64be
00000140: f510 a0bd 77e3 963e 2375 2f3e ca6f 4d3d
00000150: d87e 80be 191b ae3d e89b 2e3d 39f7 0cbe
00000160: 8e10 c3be 1597 96be 5e08 1e3e 16d0 673e
00000170: 5f62 3dbe d936 9dbd 1b8d 85bd 6b53 59be
00000180: 1acd fb3b cd5a 84be b747 a6bd 5dc4 b23d
00000190: 65ef 54be d469 3e3e 1c62 9fbd f55b d6bc
000001a0: a724 da3c b3c7 a5bc 8cba 4e3e 54bd 7cbe
000001b0: 7b42 7abe 86f0 0b3d c9b7 2e3e 4ea3 b83e
000001c0: dbdb 303e c0b2 853e a95f 17be 7ecc e2bc
000001d0: 5dcd 4b3e 67cb 443d 761f 8c3e 9b74 9bbd
000001e0: a27d 0f3e
-0.11146758 -0.36449885 0.08151633 -0.2457622 -0.30486912 0.01112313 -0.28042242 0.09494167
0.20856488 -0.055226654 0.23018007 -0.23421064 0.25134215 -0.017847618 -0.22638182 0.11097921
0.1002058 -0.11380453 -0.13410397 0.20728542 0.16097082 0.052443292 0.057387453 0.29329857
0.16111137 0.16492371 0.04258143 -0.34580413 0.10501146 -0.013456206 -0.24407111 -0.1865504
-0.44162494 -0.040103257 0.17246 0.006521519 -0.29476818 0.13005105 0.2418625 0.10816623
-0.12254342 0.04078 0.08355085 -0.13286793 -0.23689544 0.030728377 -0.06442881 0.13501146
-0.13822964 -0.17234297 0.31139258 -0.1560618 0.11628115 0.12029981 0.24968606 0.29971352
0.23210353 -0.10140348 0.34385398 -0.2030433 0.062692374 0.12112687 0.108081184 -0.22681485
-0.14050153 -0.091278896 -0.18018512 0.21372502 0.2574352 -0.20432395 0.013775285 -0.2519022
-0.0799912 0.14444621 -0.05158666 0.27504027 -0.12515038 0.25659966 -0.14185339 -0.22312272
-0.07815734 0.29470417 0.17134528 0.05015544 -0.25096774 0.08501262 0.042629153 -0.13766183
-0.38098568 -0.2941214 0.1543288 0.22637972 -0.18494557 -0.07676477 -0.06521054 -0.21223228
0.007684362 -0.25850525 -0.08119147 0.087288596 -0.20794447 0.18595058 -0.07782385 -0.026166895
0.026628805 -0.020236826 0.2018835 -0.24681598 -0.24439423 0.034164928 0.17062296 0.36062092
0.17271368 0.26112938 -0.14782585 -0.0276854 0.19902559 0.048045542 0.27367753 -0.075906
0.14012769

bias f4 [11]
00000000: 22c5 a6bb 53a4 35bc a30f b2bd 05eb 313d
00000010: 50ba 61bb afc2 813d 6390 253d 1ccb ce3c
00000020: 191f 0c3a e0c5 87bb 71da 52bd
-0.005089418 -0.011086541 -0.08694389 0.043437023 -0.0034443326 0.06335961 0.0404209 0.025243334
0.000534521 -0.0041434616 -0.051477853

weight f4 [8, 11]
00000000: 2532 a6be a010 0e3e 25e3 c13e a85e 88be
00000010: 692c 37bd dd7f 043e fe01 b4bd 029d 14be
00000020: d397 48be 3ecf 02bd 0606 f1bd d7fd c6bd
00000030: 3ea9 dc3d 09e7 853e 5120 bf3d f5dd e93d
00000040: b3e6 86be f4c8 17be b62d 973e d0fe e8bd
00000050: bb12 923d 3923 a2be b4fa 33be c2e3 303d
00000060: 7593 803e 8437 a6be fb9b 34be a5a9 723d
00000070: 6feb 763e c030 75be 0a29 d5bd 5f70 dcbd
00000080: 9658 353e 07bd e0bd f370 1a3e 63b3 093c
00000090: dd90 823d a79b d13d adba 193e a9e6 293e
000000a0: 3a0f 0dbe 64ad 463d 0ea7 3dbe e619 073e
000000b0: c9f4 4d3e 0e68 c2bd cc2d 6f3e 6583 d0bd
000000c0: 59cc 9abd da2c 94be 4d7c 6fbe df24 0c3e
000000d0: c200 acbe 7d19 cb3d a5f6 a13d bcad 083d
000000e0: bd95 163e 429b 60be 87c7 333c ad1b e4bd
000000f0: 6ed8 7dbe b2a9 823e 07e5 1cbe 2c3e 06bd
00000100: 0027 a1be 14f4 593e 02cd e23d 7d5f 1d3e
00000110: 67ee c73c 4d7b 81be 942d a13d 7ac4 fb3d
00000120: 7381 b23c c615 49be 6041 ae3d 1ef0 373c
00000130: 9e28 153e 5938 21bd d4f8 28be 5ca8 31be
00000140: 0601 7d3d 2fd9 50be aee1 f6bd fb88 85bd
00000150: bbf8 783d ec12 18be ab1a 863d fa08 05be
-0.32460132 0.1387353 0.3786861 -0.26634717 -0.044720087 0.12939401 -0.087894425 -0.14513019
-0.19589166 -0.031935923 -0.11768727 -0.09716385 0.10774468 0.26152828 0.09332336 0.11419288
-0.26347885 -0.14822751 0.29527062 -0.113767266 0.07132479 -0.31667498 -0.17576104 0.043185957
0.251125 -0.3246423 -0.17637627 0.059243817 0.24113248 -0.23944378 -0.10408218 -0.107636206
0.17709574 -0.10973554 0.15082149 0.0084045855 0.06375287 0.102347665 0.15012617 0.16591896
-0.1377534 0.048505202 -0.18520758 0.13193473 0.2011291 -0.09492503 0.23357314 -0.101813115
-0.075585075 -0.2894047 -0.2338726 0.1368594 -0.33594328 0.09916971 0.07908372 0.03336881
0.14705558 -0.21934226 0.010972864 -0.11138091 -0.24789593 0.25520092 -0.15321742 -0.032774135
-0.31475067 0.21284515 0.110742584 0.15368457 0.024405671 -0.25289384 0.078700215 0.12293334
0.021790242 -0.19637212 0.08508563 0.011226682 0.14566275 -0.039360378 -0.1650117 -0.1734938
0.061768554 -0.20395349 -0.12054764 -0.065202676 0.060784083 -0.14850968 0.06548055 -0.12991706

bias f4 [8]
00000000: d23e ab3d c63b f4bd f2c6 42be 7216 d4bd
00000010: 150e 9a3d 80db d9bb 87ae c5bd 83b5 5f3d
0.083615914 -0.119254634 -0.19021204 -0.103558436 0.07522217 -0.006648481 -0.09652429 0.054616462

weight f4 [11, 8]
00000000: dbab e6bd 10fc 19be 3d24 3a3e 1653 453e
00000010: 01e3 33be 4f1e bb3e 7cb2 ef3d 927f aabd
00000020: 8d1b 39be 2741 713e 8e15 e63d 172e 723e
00000030: 29da d0be d90c d2bc 63c1 043e fa7f 58be
00000040: c321 2fbe 537a 9f3e 1282 383e c95f 61be
00000050: 9b34 84be e0c7 233e 913a 2dbe 7332 953d
00000060: d4b1 8bbe 9c9d 863e c6b6 99bd 5cdc 163d
00000070: c6e7 293e b159 73be 1ae2 a3bd 8117 5e3e
00000080: b714 25be 4d15 5dbc 32bc d0be 2052 86bd
00000090: 3d23 0b3e 0084 bfbd 7eea bdbd 7ac8 2dbd
000000a0: 5559 47be 3a1c 8f3e 2dda 8e3e c656 643e
000000b0: 0792 d4bd 2dbc 603e c19d ee3d 08e2 93bb
000000c0: 5a29 b8bc 1318 bfbe 1bbc 5dbe 92b6 883e
000000d0: 1725 8fbe 7b6b 3d3e e02b f63d 58a7 97bd
000000e0: ed55 893e 8468 ba3d eb22 59be 6767 67be
000000f0: 26b9 03bd cf16 36be b52d 3d3e 5fb2 cd3d
00000100: cb76 20bd 8465 093e 87a1 493a 7c7e 203e
00000110: c0d7 843e 9c59 733e bcf5 b13d 52ff 603e
00000120: a504 623e f859 26be cdd7 8e3e 2ab2 6bbd
00000130: b0f5 4e3e adf3 6dbe 741e 003e f696 8c3c
00000140: 8294 2dbe 70da bdbe d06a 353e 8257 92be
00000150: a629 f73b e1ba 63be 5159 9a3e 840d e3bd
-0.112632476 -0.1503756 0.18177886 0.19269976 -0.17567064 0.3654656 0.11703965 -0.08325113
-0.18076916 0.2356001 0.1123458 0.23650394 -0.40791443 -0.025640892 0.12964396 -0.21142569
-0.17102723 0.31148013 0.18018368 -0.22009195 -0.25821385 0.15994215 -0.16916873 0.07285013
-0.2728411 0.2629212 -0.075055644 0.036831245 0.16592321 -0.23764683 -0.0800211 0.21688654
-0.16121183 -0.013493848 -0.40768582 -0.06558633 0.13587661 -0.09351349 -0.092732415 -0.042427517
-0.19467671 0.27951223 0.2790083 0.22298726 -0.10379415 0.21946783 0.11651183 -0.004513029
-0.022480655 -0.37323055 -0.21653788 0.2670179 -0.27957985 0.18498032 0.12020087 -0.07404965
0.2682337 0.09101966 -0.21204726 -0.22598039 -0.032158993 -0.17782138 0.18474467 0.10043787
-0.03917579 0.13417631 0.0007691611 0.1567325 0.25945854 0.23764652 0.08689448 0.21972397
0.22072084 -0.16245258 0.27899018 -0.057542957 0.2021091 -0.23237486 0.12511617 0.017161828
-0.16951182 -0.37080717 0.17716527 -0.28582388 0.0075428067 -0.22239257 0.30146268 -0.11086562

bias f4 [11]
00000000: e90d d0bb 5964 6cbd bd97 653e 2203 373e
00000010: 5fac 5c3e 0dfa 27be c3c1 14bd 2fe4 363e
00000020: f23e 963c caa3 95be 4961 353e
-0.0063493145 -0.057712886 0.22421165 0.17872289 0.2155013 -0.1640398 -0.036317598 0.17860483
0.018340562 -0.29226524 0.17712893

weight f4 [11]
00000000: 66c1 883f a324 833f 6f03 893f 0947 7f3f
00000010: cda3 693f 660f 683f e763 863f 2b59 803f
00000020: 67a3 733f fabd 863f 9d81 863f
1.068402 1.0245556 1.0704173 0.99717766 0.91265565 0.90648496 1.0499238 1.0027212
0.9517121 1.0526726 1.0508305

bias f4 [11]
00000000: 578c 45bc a7d1 5c3d 9f2e f8bc c96c 403b
00000010: 93fc 09bd b8c4 b93c a3f6 253d 98dd 5a3c
00000020: 02d4 bebc 9c3e 983c 86d4 75bb
-0.012057385 0.053910878 -0.030295668 0.0029361716 -0.03368814 0.02267681 0.040518414 0.013358496
-0.023294453 0.018584542 -0.0037510707

weight f4 [11]
00000000: 4a97 883f 7b42 813f 2bce 833f d476 7d3f
00000010: 8a8b 6b3f ee93 6b3f c856 813f 0ab2 793f
00000020: c48d 703f ad56 873f eadf 893f
1.067117 1.0098413 1.0297292 0.9900944 0.92009795 0.920226 1.0104609 0.9753729
0.9396632 1.0573326 1.0771458

bias f4 [11]
00000000: 07e1 39bc 721e 4f3d f36c d1bc 5b8c 61bb
00000010: 5eea 33bd d737 50bb f009 203d 8b21 c53b
00000020: 71ac c5bc 6c54 db3c 0f78 66b8
-0.011345155 0.050566144 -0.025564646 -0.0034415934 -0.04392468 -0.0031771564 0.039071977 0.0060159615
-0.024130078 0.026773654 -5.4948086e-05

in_proj_weight f4 [33, 11]
00000000: 5bef 983e d919 483e da3a 09be 6d09 e0bc
00000010: d03a 94be d28f 5e3d 77c3 d4bd c2ee 7dbe
00000020: fc56 ffbd ec20 cabe b7e4 09be d089 5e3c
00000030: 85d5 80bd 6e80 bdbe bb9b 0c3e 8954 8bbe
00000040: 1c33 5f3e 9825 643e e907 fc3e c664 a03e
00000050: e405 c93e 77b0 ddbd fa42 ec3e 9d3a eabd
00000060: dc2d b0bd dad0 843e 4e28 2dbe c946 3e3d
00000070: 75c5 c2be 7dd9 83bd 8979 8a3c be23 9f3e
00000080: 93fd 89bd 7916 03be f7a3 38bc f0f0 013e
00000090: 1023 f7bc 1bce 8dbd 41df d03d 4570 193d
000000a0: 51ef 2dbd 8d7b 643b b4d6 fd3d 9e75 4abe
000000b0: 30cd 0ebe 34aa 113e 0381 903e 9aea 953e
000000c0: ec30 ccbd fb07 66be 60e3 9cbe 1922 08bf
000000d0: ce38 f5be 9f32 8b3b d113 a43e 7290 d13e
000000e0: 8a37 45be 3e46 993c a317 88be 3448 75bd
000000f0: d98f b13e 7a15 2a3e cce2 8b3e 70f7 80be
00000100: 5404 8a3e 48b5 9c3e 3614 aebe fb47 233d
00000110: 2e3a 23be 5c17 a1be 8d3f e73d 7524 2abe
00000120: 63ab fdbd a9aa be3d 9e8f b53e 1dbd 7cbd
00000130: 20a5 583e 6e8c a1be 5717 a1be 1d8f c23e
00000140: 8cf1 40be 03d2 0a3d 99b9 133c f4f4 af3e
00000150: 52d4 64be 90c4 c6be 5935 9e3e 762e 9fbe
00000160: abfb 8d3e f18d 753d 6d1b a93d 039e c7bc
00000170: b827 623e f8a8 7d3e 4173 823e 8563 063c
00000180: 20b3 70be 63a2 2bbd b7a5 afbd 448b f53d
00000190: 6266 cd3e e6b8 843e 4fff 98be 1fe4 0e3e
000001a0: dfe9 cfbe 72cd d6bc 5a7d c5bd e1a1 a23e
000001b0: 6adb 1a3d 343b fdbc 2f27 873e 20c1 b43d
000001c0: 6e4a 59be 7ee3 80be 784d 093e a947 8c3e
000001d0: ca4b 7c3e a754 9abe d70b ffbd 9ae1 ebbc
000001e0: 2c2f 61be 0417 263e 9d90 6cbe a15c 313c
000001f0: 1a57 1dbd f460 c43d 0c64 27be 632c 3e3d
00000200: a197 bbbd c06f 81bd 5b0b e6bd 0bc1 ca3d
00000210: 978c 87be 19fe d03d c03e 8cbe 3810 213e
00000220: 5b95 d8be d586 523e c2f0 c7bd 5e13 22be
00000230: 16d4 c53c 72f1 8bbe 28a4 f03e 8d65 96be
00000240: f3eb 243e 92bf 9abd c730 75be 293e 49be
00000250: cee0 003d d279 55be 786a afbe b2da 763e
00000260: 5fec b8bd 00ac efbd b3f6 3ebe 1049 9d3e
00000270: e205 ccbe c5a9 e73d dbf5 b9be 6183 853d
00000280: 54ab 9b3d 2625 bebd 66f2 9cbe 6eb6 98be
00000290: 4d11 a63d 64cf 1dbb 0792 59be 190e 723e
000002a0: 53a1 83bc 4896 b7be 8405 91be 9016 853e
000002b0: 50d4 1cbc 0ee1 c73d fdf3 97bd 190d 903e
000002c0: 0b02 11be 07e2 63bd 7c09 313c 7285 fc3d
000002d0: a698 c03e 0620 85be 2e7d afbe 9d54 953e
000002e0: ffb6 493e dfb8 10be 3fbd 9e3d 5b33 a6be
000002f0: b899 333d ade4 eabd 0ec3 2ebd 119b 40be
00000300: ac28 3b3e d310 17bc 4d5b 9c3d a636 203e
00000310: 8486 9abe d16f b7be 6e2e 6fbd 3370 d83d
00000320: 5d0d 57be b822 a8bb 93b0 083d 5027 d73e
00000330: 1623 9a3e 654a 14be dd71 c73c a4b5 453e
00000340: 24c7 13bd 11c3 79be 24d8 12bc 78e6 523e
00000350: 6740 a7bd 84f7 83be eebb b53d 9365 cbbd
00000360: 8d0d cebd dbc7 babc 2297 bc3e 9680 bbbe
00000370: cc6a 0dbe 4ac0 c0be bc3a 92be 2d1d b13e
00000380: bc18 793e 20c3 c53e b8f2 a43e 1232 21bd
00000390: 5d75 b8bc 243e 2d3e 595c 8f3e c56a d3bd
000003a0: 40e7 1bbe 59ef 3b3d 9b62 a73e 5535 35be
000003b0: 4825 b63e 6212 903e 7b1e 3cbd 0c36 b73d
000003c0: 6afc 963e 13e4 623d a65a 3fbe b6af 82bd
000003d0: 65bb 9e3e 0df5 24bd 0dac dbbd f368 8b3e
000003e0: cea4 583d 6088 8a3e df57 febd 1daa b53e
000003f0: 4001 083d 8919 afbe 6ddf 093e 3fe6 ca3d
0.29870114 0.1954111 -0.13401356 -0.027348245 -0.2895112 0.054336376 -0.103888445 -0.2479811
-0.12467763 -0.39478242 -0.13466154 0.013582662 -0.062907256 -0.37012047 0.13731281 -0.27212933
0.2179684 0.22279966 0.49224785 0.31326884 0.39262307 -0.108246736 0.4614485 -0.11436961
-0.08602497 0.2594059 -0.16909906 0.046454225 -0.38041273 -0.06437967 0.016903656 0.31081957
-0.067378186 -0.12801541 -0.011269561 0.12689567 -0.030168086 -0.06924077 0.10198832 0.037460584
-0.042464558 0.003486368 0.12394467 -0.1977143 -0.1394546 0.14225084 0.28223428 0.2928055
-0.099702686 -0.22463982 -0.30642223 -0.5317703 -0.478949 0.004247978 0.3204637 0.40930516
-0.19259468 0.018710252 -0.26580533 -0.05988331 0.3468006 0.16609755 0.2732147 -0.2518878
0.26956427 0.30607057 -0.33999795 0.039863568 -0.15940163 -0.31463134 0.11291418 -0.1661547
-0.12386205 0.093098946 0.35461134 -0.06170379 0.2115674 -0.31552452 -0.3146312 0.37999812
-0.18842143 0.03389169 0.009016418 0.34366572 -0.22346619 -0.3882184 0.30900076 -0.31090134
0.2773107 0.05994982 0.08257184 -0.024367338 0.22085464 0.24771488 0.25478557 0.008202438
-0.23505831 -0.04190291 -0.085765295 0.119894534 0.40117174 0.25922316 -0.29882285 0.13954209
-0.40608117 -0.02622101 -0.096430495 0.3176413 0.037806906 -0.03091202 0.26397082 0.08825898
-0.21219799 -0.25173563 0.13408458 0.27398422 0.24638286 -0.3014271 -0.1245343 -0.028794099
-0.21990651 0.16219717 -0.2310204 0.010825307 -0.038413145 0.09588805 -0.16346759 0.04642905
-0.0915978 -0.06320143 -0.11232635 0.09900101 -0.2647445 0.10204715 -0.27391624 0.15728843
-0.4230145 0.20559247 -0.09762718 -0.158277 0.024148982 -0.27332646 0.4700024 -0.29374352
0.16105632 -0.075560704 -0.23944388 -0.19652618 0.03146439 -0.20847252 -0.34260917 0.24106863
-0.09029459 -0.11702728 -0.18648796 0.30719805 -0.39848238 0.11311678 -0.36320385 0.06519199
0.076010376 -0.09284429 -0.30653685 -0.29826683 0.081087686 -0.0024079913 -0.21247111 0.2363819
-0.016068136 -0.35856843 -0.2832452 0.25993776 -0.009572104 0.09759723 -0.07419584 0.28134993
-0.14160936 -0.05563548 0.010805484 0.1233014 0.37616462 -0.26000994 -0.34275192 0.29166117
0.19698714 -0.14133023 0.077509396 -0.32461056 0.04384777 -0.11469398 -0.042666487 -0.18809153
0.18277234 -0.00922032 0.07634602 0.15645847 -0.30180752 -0.35827497 -0.05839389 0.10568275
-0.21001191 -0.005131092 0.03337152 0.4202218 0.30104893 -0.14481504 0.024346286 0.19307572
-0.036078587 -0.24390818 -0.008962665 0.2059573 -0.08166581 -0.25774777 0.08873735 -0.09931483
-0.10061178 -0.022800377 0.36834055 -0.3662154 -0.13810271 -0.37646705 -0.28560436 0.34592572
0.24325842 0.3862543 0.3221643 -0.03935439 -0.0225169 0.16918236 0.28000143 -0.10323099
-0.15224934 0.045882557 0.32692418 -0.17696126 0.35575318 0.28139025 -0.045927506 0.089458555
0.29489452 0.05539329 -0.18686923 -0.063811705 0.31002346 -0.04027276 -0.107261755 0.27228507
0.052891545 0.2705717 -0.12419104 0.3548135 0.033204317 -0.3419917 0.13464136 0.09907197

in_proj_bias f4 [33]
00000000: d5d9 8a3c 9b52 d33c 7075 233d 0008 bebb
00000010: 9c42 11bd ecb4 703c 0a14 e7bd d10a 4abd
00000020: 3277 0c3e a6d1 ae3c 3538 09bd dc40 043a
00000030: 21a2 3a39 42e5 49b9 d970 33ba 28b0 a03a
00000040: 284f 9f38 dddb 01ba 49e9 46b9 2656 9bba
00000050: 1a99 583a b6c5 a0ba 8ce6 243c bc17 23bc
00000060: df0a 0bbc bfa9 8ebd 81ec bdbb f42c dc3c
00000070: 68d2 9abc faf6 d63c bcba cc3b d30f 983c
00000080: 4668 9d3c
0.016949574 0.025796225 0.03990692 -0.0057992935 -0.035463914 0.014691573 -0.11283119 -0.04932672
0.13717344 0.021340203 -0.03350087 0.0005045065 0.0001779874 -0.00019254259 -0.0006845124 0.001225953
7.596455e-05 -0.00049537217 -0.00018969657 -0.0011851236 0.000826256 -0.0012265954 0.010064732 -0.009954389
-0.008486479 -0.0696597 -0.0057960157 0.026876904 -0.018899158 0.026240814 0.0062478464 0.018562233
0.01921476

weight f4 [11, 11]
00000000: eeaf d23b e753 9ebe 9bb7 533d 8de0 61be
00000010: 468d ac3b 3cca 983d 54a2 8fbe 1036 153e
00000020: 38a8 8b3e 5b50 f33b da41 693e c05f 43be
00000030: ae22 583e 4549 0ebe ba0a 2cbe 70c7 5c3e
00000040: b09b 9e3d 9183 26be 3a41 88bd 90fa 7d3e
00000050: 5d76 85bc e8b1 8d3b 205d c73d 03d7 a03e
00000060: 4874 1b3e f60b 343d 3d21 573c 64b1 41be
00000070: 1486 013e e189 a2bd aa52 a0be d096 61be
00000080: 30d6 66be 9420 06be b168 283e 9dba c3bd
00000090: 1371 86be e19e 55be 3abd ba3c 391d 973d
000000a0: 414a 39be 1ab0 9abc 23a7 eabd 6fb8 d6bd
000000b0: 1aae 74be d2dc a1bd fb26 94bd 1619 3d3e
000000c0: 4c7e 14be bcae acbe 7d26 993e 0a34 f73b
000000d0: 7fd2 3e3d a149 f7bc 2d2b 203e 80f5 983e
000000e0: f1ad 913e 00c7 d63b 4184 923e eb7a 8abe
000000f0: 6336 cbbc d355 463d fb6e 2f3d f086 44be
00000100: 5347 3abe 0e68 85bd 8297 53be 6718 243e
00000110: a500 433e 4231 3ebe 70d6 933d 8f07 73be
00000120: 20a2 f7bc 8267 4e3e ca22 3ebc ec02 6f3e
00000130: 878f 20be 4265 803e d5c3 eebc 3526 57be
00000140: 6e0c 07be 34c4 b93d c173 8c3e 3990 9abc
00000150: 11c8 92be 4302 a53d 359c ec3d 34a3 c0bd
00000160: 46bd 8cbe 32d2 7dbe 0cda 103e c85f 9c3e
00000170: 169a 203e ab4b 11be 4e36 eebb 3dbd 18be
00000180: 5c27 123d b567 75be c7fe 07be e2ab 01bc
00000190: 703d 40be 9b8d 893e e96a fbbd 6251 0cbe
000001a0: b0ed 63bd d767 b9bd 980a 7a3d 101c 54be
000001b0: d2c9 febd f06a 183e 8653 a9bd 1920 af3e
000001c0: 3570 673e 2fd2 6c3e ea1b 37be 29f1 1ebd
000001d0: 34c4 233e 9fff ec3d 3ed8 9c3e a723 a6bd
000001e0: 0a3a 363d
0.006429664 -0.30923387 0.05168877 -0.22058316 0.0052658645 0.07460448 -0.28053534 0.14571404
0.27276778 0.0074253506 0.22779027 -0.19079494 0.21106979 -0.13895138 -0.16800967 0.21560454
0.07744539 -0.16261126 -0.06653066 0.24802613 -0.016291792 0.0043241866 0.09734559 0.3141404
0.15181077 0.04395672 0.013130483 -0.18915325 0.12648803 -0.079364546 -0.31313068 -0.22030187
-0.22542644 -0.13098365 0.16446187 -0.09557078 -0.26258144 -0.20861389 0.022795308 0.07378621
-0.18094732 -0.0188828 -0.1145766 -0.10484397 -0.2389454 -0.07903446 -0.072339974 0.18466601
-0.14501303 -0.33727062 0.29912177 0.0075440453 0.046587463 -0.030186476 0.1564147 0.29874802
0.2845302 0.0065544844 0.28616527 -0.27046904 -0.024806207 0.048421692 0.04283045 -0.191921
-0.1819127 -0.065139875 -0.20663264 0.16024934 0.19043215 -0.18573478 0.07218635 -0.23733352
-0.030228674 0.20156673 -0.011604974 0.23340958 -0.15679751 0.25077254 -0.029146114 -0.21010669
-0.13188335 0.09070626 0.27432063 -0.018867599 -0.28668264 0.08057072 0.115532316 -0.094061285
-0.27488154 -0.24787214 0.14145678 0.30541825 0.15683779 -0.14189021 -0.007269657 -0.14915939
0.035682067 -0.23965342 -0.13280784 -0.007914515 -0.18773437 0.2686585 -0.12276251 -0.1370292
-0.0556466 -0.09053009 0.06104526 -0.2071383 -0.12440838 0.14884543 -0.08267884 0.34204176
0.22601397 0.23127054 -0.17881742 -0.038804207 0.15992814 0.11572193 0.3063373 -0.08112269
0.044488944

bias f4 [11]
00000000: 619f 3b3c 6d7e 873d 185c 81bd ef45 753c
00000010: 2bde e1bc c1f9 2c3d 2819 733c ed75 d8bb
00000020: 4854 f2ba 0c98 1c3d 6a7d 05bc
0.011451573 0.06615911 -0.063163936 0.014970287 -0.027571758 0.04223037 0.014837541 -0.0066058547
-0.0018488253 0.03823094 -0.008147577

weight f4 [8, 11]
00000000: 6c15 97be 05e2 2c3e 0aa7 a83e 369b 1abe
00000010: b6b8 cbbd b1f9 383e 93d3 c5bd 4428 0dbe
00000020: bcc5 6bbe 201c 53bd 7a5d 2ebe d5e4 afbc
00000030: 6606 27bc aebe ad3e 4983 353e 4422 5c3d
00000040: df1a 9cbe ecd6 35be 899a 9d3e ee56 d4bc
00000050: 7998 a83c 111b a5be 3806 08be 3146 8a3d
00000060: 7c96 113e f698 18be 1fbd 41be 52e6 b43d
00000070: 71de 0b3e ef33 27be 28a7 29be 6558 e6bd
00000080: 0799 143e f7af c9bd 6838 403e ad28 1bbd
00000090: 63ff 823d c3ac bb3d 9153 433e 3b23 0b3e
000000a0: 9faf 43be 85a3 233d 9c98 0dbe bc29 033e
000000b0: c9de 373d 06f8 20bd 1ba7 ab3e e769 49be
000000c0: 9f0c 03be e26f 56be 4802 b4bd 36eb d13d
000000d0: 3ab9 c3be 51ec d93d 7007 803d 1ed0 3b3d
000000e0: 46eb 6a3e 4bc6 26be e52d 26bd 1568 c8bd
000000f0: 313d 39be 2f3c 503e 5239 70be e671 5ebd
00000100: 813a 87be bc85 463e d089 5a3e a3d7 123e
00000110: 25d9 4ebc e12e bfbe 5918 bf3d b9ff 013e
00000120: 6080 be3d 0e36 31be 9783 c43d ed15 853d
00000130: 7a7b 3f3d 08e7 54bd 0c2e 26be 9511 4abe
00000140: 230e 963d 6c90 95bd 6627 18be 3e80 58ba
00000150: 3f81 02bc 0420 45be 8b8f e53d 7c5a 78be
-0.2950853 0.16883095 0.3293994 -0.15098271 -0.0994734 0.18064 -0.09659495 -0.13784891
-0.23024648 -0.051540494 -0.17027846 -0.02147142 -0.010194397 0.3393454 0.17725863 0.053743616
-0.3048925 -0.17757767 0.30781963 -0.025920358 0.020580517 -0.32247213 -0.13283622 0.06751669
0.14217561 -0.149021 -0.189198 0.088329926 0.13659073 -0.16328405 -0.16567671 -0.11247329
0.145115 -0.09848016 0.18771517 -0.03788059 0.063963674 0.09163811 0.19074847 0.13587658
-0.19109963 0.039950866 -0.13827747 0.12808889 0.0448902 -0.039299034 0.3352593 -0.19669305
-0.12797783 -0.20941117 -0.087894976 0.10249941 -0.38227254 0.10640777 0.062514186 0.045852773
0.22941312 -0.1628658 -0.040571112 -0.09785477 -0.18089749 0.20335458 -0.23459366 -0.05430784
-0.26411822 0.19386953 0.21341634 0.14340071 -0.0126250135 -0.37340453 0.09330816 0.12695207
0.09301829 -0.17305776 0.09595411 0.06498323 0.046748616 -0.05197814 -0.16228503 -0.1973327
0.07326915 -0.07302937 -0.1485878 -0.00082588557 -0.007965385 -0.19250494 0.11209019 -0.24253267

bias f4 [8]
00000000: 6778 5e3d 6de0 3ebd 8a7d 9abe 126c e6bd
00000010: ef38 623d 1425 623c dd33 25bd 172a da3d
0.054314043 -0.046600748 -0.30173904 -0.112510815 0.055230077 0.013802785 -0.040332664 0.10652559

weight f4 [11, 8]
00000000: ca7a 43be 554a 02be 0947 0e3e 4d5e 503e
00000010: b2f1 1fbe 0672 bd3e f3c1 a5bc 6f17 26bd
00000020: 5ad5 1abe 4b45 8d3e 5dcf 223e 0061 263e
00000030: a961 b6be 4eac 75bd 464d 793e f5db 81be
00000040: 8e06 6ebe db80 b13e d5f0 063d 6f26 3ebe
00000050: b8a0 77be 68ea e63d 8c89 83be e3bd 523d
00000060: c198 08be ac89 8c3e c89d ec3b eb28 183c
00000070: 7ca4 213d 2d79 80be 0863 f8bd e02a 3a3e
00000080: 4fca 2fbe c441 60bc 7a50 c6be 2c4d c0bd
00000090: b813 263e 147f c3bd b28d 10be ae98 a03b
000000a0: 2d32 0cbe 5e83 603e 4690 363e 6ea2 5b3e
000000b0: f7a8 36be 9ae8 533e fc16 8d3d 3592 453d
000000c0: 43a5 b73d ee6d c7be 6e5b 7dbd b213 a33e
000000d0: e439 8cbe 068a 033e 41ad 843e aef9 0ebe
000000e0: 1a7d 4e3e 65ea 1e3e 2cd7 82be 9fcb 55be
000000f0: b60c 0abd 14e3 41be fef4 f13d 2065 b03c
00000100: 663f d7bd 68b8 c03d f624 433c 6746 ec3d
00000110: 3bc5 843e d202 293e b1e0 023e fdad 893e
00000120: 7da4 893e cc20 eebd 6eb3 853e 718d 5cbc
00000130: b250 523e 6902 3ebe 07d2 0f3e 4dcc 8fbd
00000140: b950 4abe 2a6a bebe 50d1 773d e48c bcbe
00000150: 2996 703d 1e90 67be 6b8b 973e 4531 45be
-0.19089809 -0.12723668 0.13894285 0.20348473 -0.15619543 0.37001055 -0.020234084 -0.04054969
-0.1512045 0.2759193 0.15899415 0.1624794 -0.35621384 -0.059978776 0.24345884 -0.25363126
-0.23244688 0.3466862 0.03294452 -0.18569349 -0.24182403 0.11275178 -0.25690877 0.05145062
-0.13339521 0.27448785 0.0072209574 0.009287099 0.039463505 -0.2509245 -0.12128264 0.18180418
-0.17167018 -0.013687555 -0.38733274 -0.09389719 0.1621846 -0.095457226 -0.14116552 0.0049010133
-0.13691016 0.21925113 0.17828473 0.21448681 -0.17837892 0.20694199 0.068891495 0.048235137
0.08967068 -0.38951057 -0.061854772 0.31850964 -0.27387917 0.1284562 0.25913432 -0.13962433
0.2016491 0.15519102 -0.25554788 -0.20878457 -0.03370353 -0.1893428 0.11814307 0.021532595
-0.10510139 0.09410173 0.011910668 0.11536866 0.25931725 0.16504982 0.12781025 0.26890555
0.26883307 -0.11627349 0.26113456 -0.013461457 0.20538595 -0.18555607 0.14044963 -0.07021389
-0.19757356 -0.37190372 0.06050235 -0.3682624 0.058736954 -0.2261357 0.29598555 -0.19257076

bias f4 [11]
00000000: ca06 febc c825 bcbd 3d7f 523e 0848 243e
00000010: 2daa 3d3e 0281 3abe 0438 693c d970 043e
00000020: af7c 20bc ffad 81be ac5c fa3d
-0.031009097 -0.09186894 0.2055635 0.16043103 0.18521948 -0.18213275 0.014234547 0.12933673
-0.009795352 -0.2532806 0.12224707

weight f4 [11]
00000000: 949e 8a3f 7264 843f 0cf8 853f 7fa9 823f
00000010: ca03 6e3f 9bef 653f 84e7 823f 6c56 813f
00000020: 30e1 783f 18fa 853f 2e15 843f
1.0829644 1.0343153 1.0466323 1.0207976 0.9297453 0.89818734 1.0226903 1.0104499
0.9721861 1.0466948 1.0318964

bias f4 [11]
00000000: a608 58bb 8388 423d 4cbe 42bd a7ea 893b
00000010: e7c1 91bc 9357 9c3c 71b6 0e3d 4bf5 273c
00000020: dfa9 5abc fdc1 fa3c 123e 17bb
-0.003296414 0.04749347 -0.047544762 0.004208881 -0.017792655 0.019084727 0.03484196 0.0102513535
-0.0133461645 0.030610079 -0.0023077768

weight f4 [11]
00000000: 2afe 8b3f a04e 823f 8199 7b3f fb94 833f
00000010: 0153 783f 8f6b 5b3f ec4d 833f c9b1 723f
00000020: 739b 743f 28c2 833f 6413 873f
1.093694 1.0180244 0.98281103 1.027984 0.97001654 0.85710996 1.0258155 0.9480253
0.95549697 1.0293627 1.0552793

bias f4 [11]
00000000: 3e2e 40bc 5fd6 5a3d 14c9 fabc 7fe2 46bc
00000010: 1940 f4bc 4fd5 a23c 48f2 4a3d 11fa a03a
00000020: d754 10bd cb51 153d 4db3 833c
-0.011729775 0.053427096 -0.03061346 -0.012138962 -0.02981572 0.019877104 0.049547464 0.0012281557
-0.03523716 0.036454957 0.016076708

in_proj_weight f4 [33, 11]
00000000: e7a8 a03e 366a 023e 0471 bfbd 6491 343d
00000010: b891 a2be f5a5 1c3d 92a4 1ebd 5204 95be
00000020: 0ddb 00be b23c b4be 416f 44be acdb a3bd
00000030: dd8b febd bbb4 65be aec1 333e fe0c 4abe
00000040: 6c7c c23d a7ad 443e 9947 fc3e 02ea c23e
00000050: c486 bb3e b324 ddbd 576e bb3e 41a2 50bd
00000060: 8c16 89bd 0d83 943e 5dd0 5dbe 6224 11bd
00000070: b23d b9be b2c6 84bd fabf 973d e02f aa3e
00000080: 54a0 39bd 79f8 59be da54 0bbd 9e6b cb3d
00000090: 30de ffbc a62d a2bd 23d9 9c3d 242e 1d3e
000000a0: 3592 00be d824 433d ea90 093e 21a0 1bbe
000000b0: 5a8d dcbd 69e9 353e 7a52 863e 39f0 933e
000000c0: 0eec 6bbe f246 96be 087e bfbe ef3f bebe
000000d0: 27a5 dcbe ab74 123b ca95 953e 4d8e ca3e
000000e0: bb34 92be 05df f33d 8afc 84be 37e9 ad3c
000000f0: 8849 8d3e 25b8 4e3e 4fb0 373e 351a f7bd
00000100: f842 713e fcd1 693e aa72 b3be e0eb 7e3d
00000110: 3ba0 99be 6d79 c8be 1594 913b c553 20be
00000120: f4f5 a8bd bbf8 053d 520a d53e 96d9 fb3d
00000130: d2f5 473e f175 8ebe af9b aebe 6256 6a3e
00000140: fc21 2cbe 161e 083e d752 a3bb c9e8 753e
00000150: 94a7 80be 6314 babe 9b0b c13e 9c42 96be
00000160: 1bf9 b33e 542e a13d 89db 71bd 9415 13be
00000170: 092e 203e 8921 c83e fa0e 253e 6dfb 813d
00000180: 08cb 1ebe 1c5f 86bd 3906 efbc 134d 813d
00000190: 6923 ac3e 51ab bc3e d03c 91be 24f1 b63d
000001a0: 3445 abbe a8ea 113d 38b5 bbbd 34dd 983e
000001b0: c202 0d3d 4262 39bd 9527 a33e 3cae be3d
000001c0: 883d a4be a63a 9bbe c98d b9bd 62a9 9b3e
000001d0: 054b 653e 65fe 85be a7ab 59bd 6760 413d
000001e0: 8bab 27be 8d8d 0e3e 0ab4 a0be f434 583d
000001f0: de15 303c 9590 563d f7a8 0dbe ea03 25bd
00000200: 1f60 49bd 6cad 9dbd 6063 90bd 2fb6 b03d
00000210: 362d 57be 08d1 8ebc 08c8 75be 30e9 0b3e
00000220: f25d c9be dd22 4d3e cbb7 54be babf b2bd
00000230: 0042 243c 989e 63be 4d99 013f dc4a 8cbe
00000240: 015c 1c3e e44f 11be 87ba 8dbe 972a 70be
00000250: 2d5b e53c fe1b 83be fa86 97be 674b 813e
00000260: 5a97 3e3a 2dc3 8ebd b802 37be 3f55 a53e
00000270: c23e c1be 350c 9f3d 1613 babe c94b 843d
00000280: b8bc c13d 7cc0 22be 19eb 82be 7e9f 9ebe
00000290: 6f01 f13d 4b0c e83c 5817 57be 5c9f 413e
000002a0: 6df2 1ebd 1fd8 a1be 7f6a 85be f1e4 883e
000002b0: 2722 6bbc 547f bf3d 5540 a2bd 4a63 713e
000002c0: 1118 4bbe d0cb 1ebe bada ac3d 4100 323e
000002d0: 64c2 a93e 0dd6 2ebe 662e 97be 3adf 663e
000002e0: 0060 5b3e 249d 3bbd d182 1abd 1b66 00bf
000002f0: 7af8 683d c0ef 0abe 8bad 85bd 2ff0 39be
00000300: 2eba 8a3d 06f7 ca3d 513a 343e 7d06 3a3e
00000310: 24d2 8fbe 903a acbe be56 6bbc 4b93 013e
00000320: 99c3 42be 105e cabc 8f13 0c3e dd64 c23e
00000330: 1921 803e 41ff e5bd 40e9 ed3d 71ce 123e
00000340: 586e 23bd 2e70 56be 8251 2fbd 49f4 923e
00000350: 0c01 80bc 511e 81be f38e b33d ff77 9abd
00000360: 98d1 d3bd 30e7 f5b7 bd59 a33e 06a3 c7be
00000370: 66b5 5bbe 8d10 9fbe a996 0fbe 7803 b33e
00000380: 9210 313e f836 a73e 6f84 463e 4f47 463c
00000390: 33de 2cbc 53ee a93e d372 853e 3ac4 edbd
000003a0: 09ae 8ebd 10f7 e73d 5900 b53e 766d 81be
000003b0: 9c89 b63e 17ad 913e 2c6d dcbd 2529 3d3e
000003c0: 2bdc 983e 7e06 2f3a 59c2 26be 5b61 9bbd
000003d0: 75d4 8b3e 4a6b 14bd 9bfe abbd 425a 813e
000003e0: 8c06 883a aed1 803e 903d bcbd 4a39 b43e
000003f0: 1c0f 423d f1c8 95be 71aa 1e3e 4f5a b83d
0.31378862 0.12735829 -0.09347728 0.044083968 -0.317518 0.038244206 -0.038731165 -0.2910486
-0.12583561 -0.35202557 -0.19183065 -0.080008835 -0.124290206 -0.22432224 0.17554352 -0.19731519
0.09496388 0.19206868 0.49273375 0.3806916 0.36626256 -0.107980154 0.3660762 -0.050935987
-0.066937536 0.29006234 -0.21661516 -0.035435088 -0.36179882 -0.064832106 0.074096635 0.3323965
-0.045318916 -0.21286191 -0.034016468 0.09932636 -0.031233877 -0.07918863 0.07658603 0.15349633
-0.12555774 0.04764256 0.13434187 -0.15197803 -0.10769148 0.1776482 0.262348 0.28894213
-0.23039266 -0.29351002 -0.37400842 -0.37158152 -0.4309475 0.0022347372 0.29215842 0.39561692
-0.28555855 0.11907772 -0.25973922 0.02122937 0.27595162 0.20187433 0.1793835 -0.120655455
0.23560703 0.22834009 -0.3504842 0.062236667 -0.3000506 -0.3915514 0.0044427016 -0.15656956
-0.08250037 0.03270791 0.41609436 0.122973606 0.19527367 -0.27824357 -0.34103152 0.22884515
-0.16809839 0.13292727 -0.0049842405 0.24014582 -0.25127852 -0.3634368 0.37704167 -0.29347694
0.3515099 0.078701645 -0.059047256 -0.143637 0.15642561 0.39088085 0.16118994 0.06346784
-0.15507138 -0.065611094 -0.029177772 0.06313529 0.33620766 0.36849454 -0.2836671 0.08932713
-0.33451235 0.035624176 -0.09165424 0.29856265 0.03442646 -0.04525972 0.31866136 0.09310576
-0.32078195 -0.30318183 -0.090602465 0.30402666 0.22391899 -0.2617065 -0.053142216 0.047211077
-0.16374032 0.13921185 -0.3138736 0.052784875 0.010747401 0.052383978 -0.13833986 -0.040286936
-0.049163934 -0.07699093 -0.07050204 0.08628499 -0.2101334 -0.017433658 -0.24002087 0.13663173
-0.39329487 0.2003283 -0.20773236 -0.08727975 0.010025501 -0.22228467 0.50624543 -0.27400863
0.15269472 -0.14190632 -0.27681372 -0.23453747 0.027997578 -0.25607294 -0.29595166 0.2525284
0.0007270478 -0.069708206 -0.17872131 0.322916 -0.37743193 0.07766 -0.36342686 0.06459767
0.09459823 -0.1589374 -0.2556999 -0.30981058 0.117678516 0.028326174 -0.21004999 0.18908447
-0.038805414 -0.316102 -0.26057813 0.26737168 -0.014351404 0.09350458 -0.079224266 0.23573032
-0.198334 -0.15507436 0.08440156 0.1738291 0.3315612 -0.17073841 -0.29527587 0.22546092
0.2142334 -0.045804158 -0.037722412 -0.501558 0.05687759 -0.1356802 -0.06527241 -0.18158029
0.06773792 0.09910397 0.17600371 0.18166538 -0.28090012 -0.3363843 -0.014363943 0.12653844
-0.19019927 -0.024703056 0.13679336 0.37967578 0.25025252 -0.112303264 0.116167545 0.14336564
-0.039900154 -0.2094123 -0.04280234 0.28702 -0.0156255 -0.25218442 0.087675 -0.07542419
-0.10342711 -2.9313931e-05 0.31904402 -0.38991565 -0.21455917 -0.31067315 -0.14022316 0.34963584
0.17291477 0.32659125 0.19386457 0.012101962 -0.010551023 0.3318964 0.26064166 -0.11609693
-0.06966788 0.1132642 0.35351828 -0.25278825 0.35651863 0.2845237 -0.107630104 0.18472727
0.29855475 0.00066766876 -0.16285075 -0.075869285 0.2731053 -0.03623513 -0.083981715 0.25264174
0.0010377928 0.25159973 -0.091914296 0.35199958 0.04737769 -0.2925487 0.15494706 0.090016

in_proj_bias f4 [33]
00000000: 63af db3c 536d 693d ca2f 65bb 897c 6c3d
00000010: db21 53bd 2377 90bc e792 debd e8c8 abbd
00000020: 833c 4f3c 75f5 4f3d e5da 91bd 9373 68b9
00000030: f5cb a9b9 2b32 363a adfe c9b9 50dc 07ba
00000040: d1ee 18ba b6a9 ff39 b2ee cd38 1ad7 153a
00000050: fe52 26b9 a041 8238 f288 cb3b 1bd8 e53c
00000060: e571 7b3c 3c61 19bd 28f1 99bb e088 5a3c
00000070: f633 0b3b 2a26 803d 1934 85bc ddd6 d23c
00000080: bf73 8bba
0.02681703 0.056989025 -0.0034971111 0.057735953 -0.05154596 -0.017634934 -0.10867863 -0.08387929
0.012648704 0.050771195 -0.07121829 -0.00022168299 -0.00032386152 0.00069502246 -0.00038527456 -0.00051826704
-0.0005833926 0.00048763835 9.819622e-05 0.00057159516 -0.0001586191 6.211107e-05 0.0062113935 0.028057149
0.015346979 -0.037446246 -0.0046979375 0.013338298 0.0021240688 0.06257279 -0.016260194 0.02573722
-0.0010639353

weight f4 [11, 11]
00000000: 777e 673d fc90 89be cca6 333d ca8b 8abe
00000010: 9f36 cf3c 735d 893d 3e9e 77be 4d50 073e
00000020: 480f 4a3e 10d6 afbc ae93 683e 0be9 5fbe
00000030: 9f63 7f3e 7879 9abd 07e1 55be 904b 293e
00000040: 77b5 bc3d 19e5 adbd c7e5 b0bd 1f87 223e
00000050: a2a4 433d adc6 3e3d 5d98 8b3d 228e 9b3e
00000060: 5eff 143e 0ba0 a83d 0ec8 143c 027b 87be
00000070: 1d31 f73d 0965 e1bd 1c5b 80be c030 2abe
00000080: 276e 74be 70c0 22be 6564 463e 42b4 90bb
00000090: e9c3 80be 081d 20be 3196 cd3d a191 0b3d
000000a0: a174 3abe 6e5e fabc 502f d5bd a117 dfbd
000000b0: 1cf8 4cbe 4762 c3bd 0c67 a8bd cc77 273e
000000c0: 0cb6 febd cf9f 96be f6a6 893e 8771 5fbd
000000d0: b7b0 363d 1e5d 05bc 99b2 213e 2191 a63e
000000e0: a73a 853e 092b 24bd d13c 7a3e cc30 7fbe
000000f0: 4405 12bc fa1d b23d 6387 573d 469f 6fbe
00000100: c02b 4fbe fc23 76bc e947 29be ee13 2f3e
00000110: 120e 4a3e f4d9 2dbe fbc8 313d 4c54 66be
00000120: 3170 003c fc0b 123e 85b9 f1bc fb92 793e
00000130: 0183 febd 75d4 583e 35c7 56bd be91 61be
00000140: dc4d e6bd 17a6 cc3d a8a7 6f3e 4c77 6cbd
00000150: 4b97 9cbe 7d0c ce3d b1d9 bc3d f7f6 a3bd
00000160: eac4 79be 2b0b 2abe e852 113e 3fab 7a3e
00000170: dcf8 263e 219a 00be 2ef7 6c3c eaf9 36be
00000180: 0d75 83bc 92bf 78be b569 fbbd 7d3c 883b
00000190: 14da 45be f19c 683e a0ba 42be 50a6 10be
000001a0: ab9c fabc a2df abbd 2861 cb3d 5eb4 5bbe
000001b0: 77c9 11be edc2 fc3d 032c 48bd c137 813e
000001c0: 2e84 5c3e ddcf 863e be5e 8abe 302d e13b
000001d0: 736e 1f3e 4ae9 233d 4433 9f3e e79b 9bbd
000001e0: acd1 533d
0.05651709 -0.26868427 0.04386024 -0.27059776 0.0252946 0.06707277 -0.24181458 0.13214226
0.19732392 -0.021464378 0.22712585 -0.21866243 0.24940346 -0.075426996 -0.20886622 0.16532731
0.09214299 -0.084909625 -0.086375766 0.15871857 0.047764428 0.04657619 0.0681617 0.30381876
0.1455054 0.08233651 0.0090809 -0.26461035 0.120699145 -0.11005599 -0.2506951 -0.16620159
-0.23870145 -0.15893722 0.19374235 -0.0044160197 -0.25149468 -0.15636075 0.10038412 0.03407443
-0.18208553 -0.030562606 -0.10409415 -0.10893179 -0.20016521 -0.09540229 -0.0822278 0.16354293
-0.124370664 -0.294188 0.26885194 -0.054551627 0.044602122 -0.008139877 0.15790786 0.325326
0.2602131 -0.040080104 0.24437262 -0.24920958 -0.008912388 0.08697124 0.05261935 -0.23400602
-0.20231533 -0.015023228 -0.16531338 0.17097446 0.1973193 -0.16977674 0.04340456 -0.22493094
0.0078392485 0.14262384 -0.029507408 0.24372475 -0.12427331 0.21174796 -0.052436072 -0.22028252
-0.11245319 0.099926166 0.234038 -0.057730958 -0.30584177 0.10060976 0.09221209 -0.08006089
-0.24391523 -0.16605823 0.14191782 0.24479388 0.1630587 -0.12558796 0.014463229 -0.17868772
-0.016047025 -0.24291828 -0.122760214 0.0041576014 -0.19321471 0.22716118 -0.19016504 -0.14125943
-0.030592283 -0.08392264 0.099306405 -0.21455523 -0.14237009 0.12341867 -0.048870098 0.2523785
0.21534798 0.26330462 -0.27025408 0.006871842 0.15569477 0.040017404 0.310938 -0.075980954
0.05171363

bias f4 [11]
00000000: bb0b 23bd 9985 b63c 2112 38bd 5005 c73b
00000010: 76b0 3cbd 63aa c1bb 71f4 16bc f3e8 22bd
00000020: 1f66 12bd deb5 973c 9099 db3c
-0.03980611 0.022280501 -0.044939164 0.0060736313 -0.046066724 -0.0059102043 -0.009213553 -0.03977294
-0.03574192 0.018519338 0.026806623
