PonziShield_tr_v2.pth (torch, 406178 bytes, 110 tensors)

weight f4 [108, 11]
00000000: 0662 ebbe f903 0240 7a5f 33bd 29c8 ee3e
00000010: b21a da3f 8daa d53f 3679 ecbe 0994 e63f
00000020: a39b ce3f cda8 a7be 5800 c23e 8003 a43f
00000030: e55d 06bf 7240 963d 2dd3 843f 5151 0d40
00000040: 953e 8a3f 2bcc a5be 7438 7dbf bb9b 1ac0
00000050: bc5b 1f3f a376 1340 2cdf 0ec0 22a9 c83f
00000060: 6140 043f c840 903f 5944 5cbf 1a43 a23f
00000070: 1728 a13b 2674 443e e985 c53e a2f7 86be
00000080: a146 0c40 fe59 5cbf da4f 203f cbb7 413f
00000090: 7f26 873f 5082 b6bf c13c 00bf eefc abbf
000000a0: c01a 85bd f463 62bf f62d 41bf 9672 983d
000000b0: 5b31 33bf b950 29bf 3010 51bf a0a3 e53f
000000c0: 5b06 5abf d6b7 62bf 7a6e 893f 742c 65bf
000000d0: e145 983c bce4 153f 31b7 a23f 7e5e 3bc0
000000e0: 26b0 7dbf f2a2 d03f bf6d 983f a39a 713f
000000f0: 7db5 17bf d2c4 b03e 3260 063f 48a0 863d
00000100: 39ee 4f3e c521 d4bc d33b 063f de0b fabf
00000110: 0a05 cebd 4dd8 953d 3159 cebf ae08 dfbe
00000120: e321 94bf 6d38 0dbe 751c 43bf ea4a f4bd
00000130: 012a 9f3f 6e84 06bf 6108 5e3f ea62 8bbe
00000140: 7282 133f 38f7 883f 230f 643f 0eb3 913f
00000150: beb0 8c3f da62 8f3f 6edd 04be 575a 81bc
00000160: bce8 9c3f d797 b6bf 1602 26bf 370a 1c3f
00000170: 7d3f be3f a138 223f afc6 9a3d 22b1 8c3f
00000180: a14a 0c3d 254d 95bf 40ee 0e3e 31cc 9a3f
00000190: 41a0 6abc b8a5 27bf 71f9 47bf 8e8e 273f
000001a0: 2b2c bebe 6678 1540 147c 51bf b958 72bf
000001b0: 6c92 db3e 410b e13f bc81 153f 8ae7 4ebe
000001c0: 8df1 a63d ef96 86ba 8d86 1cbf 0793 7c3f
000001d0: f3fd 53bf 7dc6 2dbf fcce 923e 9fd9 443f
000001e0: 0cc9 6b3f a731 793e e723 7dbf 5c53 9a3f
000001f0: 6fd0 a63f 884c a93e dbc7 d1bf 764b 47be
00000200: d59d febd 791b 8bbe 95db 513f cf5b 8b3f
00000210: c00c 423f 889f 9cbe 701f e83e ea76 be3f
00000220: a881 d83f 7d7a e03e b425 953f df54 b6be
00000230: ed49 8cbf 1da8 973f ac27 4d3f 1aa6 2e3d
00000240: 1e2b c33f 7963 853f aaef 90bf 7ee7 043f
00000250: f88d dfbe c06c d9bf 8dfb 34bf c5f1 8b3f
00000260: 8392 993f 61de 12bf 78e4 fcbe ef06 553f
00000270: d2de cfbe 426d 6abf a4ed 62be b0ba 7cbf
00000280: f73e 23bd 22a6 0e40 180c 42bf ccb1 413f
00000290: e5e2 4ebe 93f2 6a3d c6a0 8abf b94a 92be
000002a0: b868 b73f 9a1b d03e 7d5e cabe 372e ca3f
000002b0: d218 debd 3754 64be aba2 38bf 457d 51bf
000002c0: 6877 85be 215a f63d affa 05bf 46ed 1a3f
000002d0: 96de 70bd a500 333f 8856 243e d1b0 0bbf
000002e0: 7fc4 f13e 2b90 4d3f 9c3e 8c3d 28b8 21bf
000002f0: e489 ce3e e5b9 103f f0bf 2abf a3eb 5fbe
00000300: 41d8 733f 5e82 713f 4618 adbf 4847 bf3f
00000310: e50e 51bf cc06 56bf 4870 e9bf 3ebc 66bf
00000320: 2cdd ae3f a80b fd3f e905 cf3f 7085 793f
00000330: be65 df3f 134f 9d38 ac2a 7b3f e52d f1be
00000340: 8866 ef3f 4abf 94bf 0792 30bc afde 69bf
00000350: 180d 4fbf bd34 303f a3f7 803f 6f2d bf3e
00000360: b3c6 b4bd 80ed cabe e2ef 103e 96b8 70bf
00000370: a82b 363f 3ec3 923f aef4 d53e d1c1 363c
00000380: 51e0 1f3f 514d 3abf cd6a 9f3e edad cf3f
00000390: ceef dfbf e43a 9abd c17d 123e 9cdc ac3f
000003a0: a8be 7ebd d6f7 353f 35f3 b03f 612e 0a3f
000003b0: 9738 60bf 7a7f a6be 8cf4 6abf c29e 413f
000003c0: 99d5 2c3f acba c23e f312 85bf 11e1 cfbc
000003d0: a402 03c0 f5b0 3bbe 3071 cd3d 1be1 823d
000003e0: d46c 90be 68be 023e f635 f63f 5c9d 89bf
000003f0: 6748 ac3f bf7a a1bf ed93 73be f064 b33f
-0.45973223 2.0314925 -0.043792225 0.46637085 1.7039397 1.6692673 -0.46186227 1.8013927
1.6141247 -0.32745972 0.37890887 1.2813568 -0.5248702 0.07336511 1.0376946 2.2080882
1.0800349 -0.3238233 -0.98914266 -2.415755 0.6224935 2.304116 -2.2323713 1.5676615
0.51660734 1.126977 -0.8604179 1.2676728 0.004918109 0.19184932 0.38578728 -0.26360804
2.1918108 -0.8607482 0.62621844 0.7567107 1.0558623 -1.4258518 -0.50092703 -1.3436563
-0.06499243 -0.88433766 -0.75460756 0.074437305 -0.69997185 -0.661388 -0.81665325 1.7940559
-0.8516595 -0.8856176 1.073684 -0.89520955 0.018588008 0.58552146 1.2712156 -2.9276423
-0.99096906 1.6299727 1.1908492 0.9437658 -0.59261304 0.34525162 0.5249053 0.0657354
0.20305718 -0.025895009 0.52435035 -1.9534872 -0.10059555 0.07316647 -1.6120969 -0.4356131
-1.1572841 -0.13791056 -0.76215297 -0.11928351 1.2434694 -0.5254582 0.86731535 -0.27223903
0.5762092 1.0700445 0.89085597 1.1382768 1.0991437 1.1202042 -0.12975094 -0.015790148
1.2258525 -1.4265088 -0.6484693 0.60953087 1.4863125 0.6336766 0.07557427 1.0991557
0.03425086 -1.1664168 0.13958073 1.2093564 -0.014320434 -0.6548724 -0.7811499 0.65451896
-0.37143072 2.3354735 -0.81829953 -0.9466663 0.4288515 1.758156 0.58401084 -0.20205513
0.08151541 -0.001026837 -0.6114281 0.98661846 -0.8280937 -0.67880994 0.28673542 0.76894563
0.9210365 0.24335347 -0.9888291 1.2056689 1.3032359 0.330662 -1.6389116 -0.1946238
-0.12432448 -0.27169397 0.8197568 1.0887393 0.75800705 -0.30590463 0.45336485 1.488004
1.6914568 0.4384345 1.1652131 -0.35611627 -1.096006 1.1848179 0.8013866 0.042638876
1.5247533 1.0420982 -1.132314 0.5191573 -0.43663 -1.6986313 -0.70696336 1.0933157
1.1997837 -0.57370573 -0.49393058 0.83213705 -0.40599686 -0.91572964 -0.22160965 -0.9872236
-0.03985497 2.22889 -0.75799704 0.7566192 -0.20203741 0.057360243 -1.0830314 -0.28572634
1.4328833 0.40646058 -0.39525214 1.5795354 -0.10844578 -0.2229775 -0.7212321 -0.8183177
-0.26067662 0.120289095 -0.5233564 0.605183 -0.058806024 0.6992286 0.16048634 -0.54566675
0.47220227 0.8029811 0.06847879 -0.63171625 0.40339577 0.5653365 -0.66699123 -0.21867232
0.9525185 0.9433955 -1.3523033 1.4943628 -0.8166335 -0.8360412 -1.823739 -0.90130985
1.3661246 1.9769182 1.6173679 0.97469234 1.7452924 7.501072e-05 0.9811199 -0.47105327
1.8703165 -1.1620877 -0.010777003 -0.91355413 -0.80879354 0.6883047 1.0075573 0.3733935
-0.08826961 -0.39634323 0.14154008 -0.94031656 0.71160364 1.1465833 0.41788238 0.011154608
0.62451655 -0.72774225 0.3113617 1.6224953 -1.7495058 -0.07530764 0.14305784 1.3504825
-0.062193543 0.7108129 1.3824221 0.5397702 -0.8758635 -0.32519132 -0.917794 0.7563287
0.67513424 0.38033044 -1.0396408 -0.025375875 -2.0470362 -0.18329223 0.100313544 0.06390592
-0.2820803 0.12767947 1.9235218 -1.0751147 1.3459595 -1.2615584 -0.23786898 1.4015179

in_proj_weight f4 [33, 11]
00000000: adea f5bd 6887 3ebc c732 9dbe 60fb d3bc
00000010: b5ee 083e 49ec fdbd f265 43bd d5c1 983e
00000020: d5e7 a03c fe0f 9dbd b321 3fbe dbe3 77be
00000030: 190a c3be eff4 63bb 8053 283e 1cff 713e
00000040: 329c 763d 8f16 3bbe 51f6 103f c4cd 8a3d
00000050: dd7a d13e 4a65 20be b776 17be 73eb 3d3d
00000060: fda5 babe 2084 45be c24d 05be ebc8 ccbe
00000070: 205b b63d 6444 8dbe 957b ab3e 13ad 3bbe
00000080: 2a4a 403e 1569 b1be 19e9 98be 6dbe 3abd
00000090: 9c1c ecbd 6ddc 133e de77 473e 104e abbd
000000a0: ef72 4abe 4a0d b3be 80bd 9d3e 2eb8 87be
000000b0: 45c3 0c3f 72ac 9b3e ad6c ccbe 5304 b03e
000000c0: 67c4 023f fec6 90be bcf2 dc3e 08a8 173e
000000d0: 94cc cfbe 25c7 8dbe d53c d93d 1607 743e
000000e0: 9e41 2abe 4335 773e 3753 1c3e f6ad 093d
000000f0: fbf8 83bd f026 f5bd 7bd6 aa3d ddeb e5bd
00000100: 8892 ae3e 83d5 13be f7c0 ad3e ca3d e13e
00000110: 1812 073d b3b5 d23d ddae c03e 5edf 463e
00000120: d505 bc3e 4b0f 213d f3ad d5be bea6 c73e
00000130: 642c 9fbe 6c77 2fbe 5e9b a33d 023c 71be
00000140: 0193 9abe 0220 05bd 35fe 85be a89f 66be
00000150: dc89 833e 29ac 8a3e 6fc7 4e3e 3d4e 0d3e
00000160: db0f a9bd 6ad7 4a3e eb19 683e debe e8be
00000170: a6cb a9be 910b 5cbd beed 10be ce44 b73e
00000180: 4794 bc3d 38d5 7dbd da4b cfbe 159e bb3d
00000190: 5b3a 99bd 88b6 68be 6185 ce3e 0dda 48be
000001a0: 5448 4f3d 544c 8fbe 6d39 4ebe 88a8 b5be
000001b0: a249 003e 59ab 1fbd b898 6ebe 970d c73a
000001c0: ff57 a13e 021e 22be 5bfb db3d b2ff 483e
000001d0: 10e5 42be 27b8 2abe 1bf0 92be 91f4 aabe
000001e0: 3a43 26be 4e64 b53d 2c4c 75bd 774a c53e
000001f0: b883 c83b 422d 87be 78c1 423e 8460 4a3e
00000200: 8d5b 7dbd bb31 153e 8a0c ee3d bf3e 3dbe
00000210: 902f e9bd 5799 e6be 2dd1 a33c 4843 34bc
00000220: c3a1 3fbf 17f3 02bf 91c7 253d 0c01 1bbc
00000230: 51f0 b53e b82a 4bbe 7495 1d3e 3454 6f3e
00000240: 91d4 8a3e 1166 f0bd 8625 66be 9680 ed3c
00000250: 5ac5 9dbd 6dfc aabc db92 72be c707 23be
00000260: 38d1 393e 83c9 9a3e 069b c5be 0257 83be
00000270: 9aeb 803e 1ea6 e53d 47d4 0cbe 6667 50be
00000280: c22f e13d c761 09be 2e3d babe 6417 9cbe
00000290: a9b1 913e 7464 b3bd f329 21bf cd35 793e
000002a0: c77c 6d3d 9c03 ddbe 9332 9bbc e7a9 6a3e
000002b0: 14e1 e2be 0283 153e 51a4 29be 44aa 7d3e
000002c0: 467f 76be 49da 5dbe 7ad3 16be 1463 9b3d
000002d0: 3ea4 e63d a253 633e d352 953e 7d0a c53e
000002e0: c5c4 e1bc 2722 8d3e 39c2 b3be 11cc 36be
000002f0: 402f 233d c2f9 ca3d 4e52 f7bd 1edf e03d
00000300: 5490 3ebe 177d 87be 5ed6 14be 6449 f23e
00000310: 0e85 bebd b170 883e f41d 7fbe db81 953e
00000320: 70e5 b4be 4249 49be c5ec 80be 46a0 5b3d
00000330: 6566 763e ac0b 0dbf 823d 123e 26f6 ea3d
00000340: 8374 cdbe e23d 17be 5a6a 893e 9401 8d3e
00000350: 0968 90be 57c8 dbbe d6fa d3be 21a4 d53d
00000360: f8c1 48bd 059f 893d 762a 47be cb94 8fbe
00000370: d1ed c7bd f2c7 7f3d b2eb 0a3e fec6 c9bd
00000380: f783 a6be 1c7d d7be 77ab fcbc a0bb bcbe
00000390: 606c bebe 800d 22bd 6cf1 2bbd c208 13be
000003a0: 35d2 cdbe 4656 b63e e1a2 8d3d fd9f 983d
000003b0: 611f 7d3d d8ad ce3e 6229 8f3e 3e3c 0ebd
000003c0: 22e7 65be af8b f33d e61a 513d 97b1 e5bd
000003d0: ce4c 2dbd 086e 15be 7597 293e e3a2 9fbd
000003e0: d642 b43d c75b 29be ff37 413c b3e9 d63e
000003f0: 898d 88bd 941a f5bd c74c 9f3e f184 633e
-0.120076515 -0.011628963 -0.30702803 -0.0258767 0.1337231 -0.123985834 -0.047704645 0.29835382
0.019641796 -0.07669066 -0.18665199 -0.24208014 -0.3809364 -0.0034783443 0.16438103 0.23632473
0.060207553 -0.18270324 0.5662585 0.06777528 0.4091405 -0.15663639 -0.1479138 0.04636712
-0.36454764 -0.19288683 -0.13017944 -0.39997038 0.089040995 -0.2759124 0.33492723 -0.18327741
0.18778291 -0.34650484 -0.2986534 -0.04559176 -0.11528894 0.14439555 0.1947932 -0.083644986
-0.19770406 -0.34971076 0.3080864 -0.26507705 0.5498546 0.30405003 -0.39926663 0.343783
0.51080936 -0.2827682 0.43153942 0.14810193 -0.40585768 -0.27690998 0.10607306 0.23830828
-0.16626593 0.24141411 0.15266119 0.033613168 -0.06443974 -0.11970317 0.0834169 -0.11226628
0.3409617 -0.14436917 0.33936283 0.43992454 0.03297624 0.102885626 0.3763341 0.19421145
0.367232 0.039321225 -0.41734275 0.38994402 -0.31088555 -0.171354 0.07988618 -0.23558047
-0.3019028 -0.03250123 -0.26170507 -0.22521842 0.25691116 0.27084473 0.20193265 0.13799377
-0.08254977 0.19808736 0.22666137 -0.4545812 -0.33163184 -0.053721968 -0.14153191 0.3579468
0.09207969 -0.06197092 -0.40487558 0.09161011 -0.074818335 -0.2272588 0.40336135 -0.1961443
0.050606087 -0.2798792 -0.20139094 -0.35480142 0.12528089 -0.03898177 -0.23300445 0.0015186545
0.31512448 -0.1583176 0.107413016 0.1962879 -0.19032693 -0.16671811 -0.2869881 -0.33389714
-0.16236582 0.08857022 -0.059887096 0.38533375 0.0061192177 -0.26401716 0.19019115 0.1976338
-0.061854888 0.14569752 0.116234854 -0.18480967 -0.11386025 -0.45038864 0.019997204 -0.011002369
-0.74856204 -0.51152176 0.040473524 -0.009460699 0.3553491 -0.19840515 0.15389043 0.23371965
0.271153 -0.117382176 -0.22475252 0.028991979 -0.077036574 -0.02087232 -0.23688833 -0.15920936
0.18146217 0.30231866 -0.38594836 -0.2565232 0.2517975 0.11213325 -0.13752852 -0.20351943
0.10995437 -0.13416205 -0.363748 -0.30486596 0.28455856 -0.08759394 -0.62954634 0.2433693
0.057980325 -0.43166816 -0.018945014 0.22916375 -0.44312346 0.14600757 -0.16566588 0.24771982
-0.24071988 -0.216653 -0.1472911 0.07587257 0.112617955 0.22199872 0.29164752 0.38484564
-0.027559647 0.2756512 -0.35109118 -0.17851283 0.039839983 0.09910919 -0.12076245 0.10980056
-0.18609744 -0.26462623 -0.145349 0.47321618 -0.09302722 0.26648477 -0.2491377 0.29200634
-0.35331297 -0.19656852 -0.2518064 0.053619646 0.24062498 -0.55095935 0.14281276 0.1147273
-0.40127954 -0.147697 0.26838952 0.27540267 -0.28204373 -0.42926285 -0.4140231 0.10431696
-0.049013108 0.06719784 -0.19449791 -0.28043208 -0.09762157 0.062446542 0.13566473 -0.09852408
-0.32522556 -0.42087638 -0.03084348 -0.36861897 -0.3719206 -0.039563656 -0.041978285 -0.1435881
-0.40199438 0.35612696 0.06915832 0.0745239 0.061797503 0.40367007 0.2796126 -0.03472542
-0.22451451 0.11891877 0.051051043 -0.11215513 -0.042309575 -0.14592755 0.16561683 -0.0779474
0.088018104 -0.16538917 0.011793136 0.41975173 -0.06667621 -0.1196796 0.31113264 0.22218682

in_proj_bias f4 [33]
00000000: 4ece 94bd 2457 0e3e 0d52 1abe 968b 6b3d
00000010: 80b3 edbd fb4c 52bc 62d7 c7bd f69a d7bd
00000020: 0207 f4bd dc80 e4bd f4f4 a73d d140 1cb9
00000030: b5ea e93a 124e 523b 80f8 acbb e964 e63b
00000040: 53c8 653b 76f0 413b 7d23 a5bb 12e4 3abc
00000050: f95b 473c 73a6 e13b 669e 7cba 3c8f 50bd
00000060: 97e4 7fbd 17e8 89bc f8f8 cdbb 5de0 70bd
00000070: 76e4 58bc fcdc 2dbc ac86 9dbc 2d2c 403d
00000080: 98ac 00bc
-0.07265912 0.13900429 -0.15070362 0.057506166 -0.116065025 -0.012835736 -0.09757878 -0.10527603
-0.11915399 -0.111573905 0.08201018 -0.00014901465 0.0017846437 0.003208999 -0.005278647 0.0070310724
0.003506203 0.0029592789 -0.005039631 -0.011406915 0.012167924 0.0068862974 -0.00096366403 -0.05091785
-0.06247386 -0.016834302 -0.006285783 -0.05880772 -0.013238063 -0.010611769 -0.019229256 0.04691713
-0.00785365

weight f4 [11, 11]
00000000: 85c8 25be c601 a93d 5b97 143e c9df 803e
00000010: 094d bb3d 2fe8 993d aae8 b83c f5ab 3bbe
00000020: 1686 ee3d 93a0 653e be4d 4ebc 9ac0 9d3d
00000030: 3a7b a1be 40f4 3ebe a4f5 1d3e 56a4 6dbe
00000040: 59fc 503e 79a9 00be 09ad bb3e c955 a1be
00000050: 646c 933d 7962 ef3d 31ec 0a3e f450 ac3d
00000060: 7523 d63c 1bb2 623e 27d1 f83d c95a a83d
00000070: 688d d8be 0736 6abe 5aad 72bd f31c 17be
00000080: 5aab 903b 1b01 683e 13bc 683e f92b 433e
00000090: ff4d 0b3e 40ce af3e b7ce 1b3e ca48 10be
000000a0: a3ab dcbd bece 973e e264 91be 8c89 76bd
000000b0: 0e7a a4be e3b0 843d 8d19 8d3e a969 273d
000000c0: 0ffc 373e 6a6f b1bd 9fe1 3fbd a155 e9bd
000000d0: 9a31 3a3e 0f27 96bd 5372 aebe 3046 273d
000000e0: 3b6a 6f3e 8d4b 073e bc7d a8be 194c 043e
000000f0: 7a44 013d 6462 87be fdd8 cfbe a632 9abb
00000100: 12ce 373e d93c a9be b541 02be ce25 1f3d
00000110: 8bc4 18be d83f 06be 821c 8cbd c0fe df3a
00000120: 89a7 373c 8bb9 03be 798f 1f3e 8ffc f03d
00000130: 33ed 623e 83e6 00bd 7454 b43e 8036 d23d
00000140: 7cb6 0e3e 1925 033e 784a b33e e250 e3bd
00000150: e4f9 41bd 016f b33e 7a76 7bbe dfc7 c53d
00000160: ab17 123e 2d7f 593e da24 7bbe 9f64 25bc
00000170: 9043 0339 a453 3fbe a08d 61be 9567 003e
00000180: 194f 7b3e a438 46be da42 753d b7df 1d3e
00000190: 3e32 aabe d4fc 4d3e 4946 703d 3196 58be
000001a0: 249e 57be e4ad da3d 8610 2e3e 39a9 89be
000001b0: a437 673e b4e7 70be 7f88 1ebd 90e4 193e
000001c0: 1080 72bd 35c2 4c3e c515 67be 9daf 5c3e
000001d0: b45b a93e 927e 3f3e 2227 913e daa1 4bbe
000001e0: d9a4 a1be
-0.16189773 0.082522914 0.14510863 0.25170735 0.09145553 0.07514989 0.02257188 -0.18327315
0.116466686 0.22424535 -0.012591777 0.077027515 -0.31539327 -0.18647861 0.15425736 -0.2320722
0.20408763 -0.12564649 0.36655453 -0.3151076 0.07198408 0.11688704 0.13566662 0.08413878
0.026139954 0.22138254 0.12149268 0.08220441 -0.42295384 -0.22872172 -0.059247352 -0.14757137
0.004414958 0.22656672 0.22727995 0.19059743 0.13603972 0.34337044 0.15215574 -0.14090267
-0.107749246 0.2964992 -0.2839728 -0.06018977 -0.3212437 0.06479051 0.27558556 0.04087225
0.17967246 -0.08663829 -0.04684603 -0.113932855 0.18182984 -0.073316686 -0.34071597 0.04083842
0.23380367 0.13212414 -0.32908428 0.12919654 0.031559445 -0.26442254 -0.40595236 -0.004705745
0.17949703 -0.33054236 -0.12720378 0.038854413 -0.14918725 -0.13110292 -0.06841375 0.0017089471
0.011209377 -0.12863748 0.15582074 0.11766922 0.22160797 -0.031469833 0.35220683 0.10264301
0.139368 0.1280712 0.35017753 -0.110994115 -0.047357455 0.35045627 -0.24556914 0.09657263
0.14266841 0.2123992 -0.24525777 -0.010094791 0.00012518303 -0.1868425 -0.22026682 0.12539513
0.24541892 -0.19357544 0.059878208 0.15417372 -0.33241457 0.20115978 0.05866078 -0.21151043
-0.2105642 0.10677698 0.1699849 -0.2688692 0.22579819 -0.23525888 -0.03870439 0.15028596
-0.05920416 0.19995959 -0.22566898 0.21551366 0.33077776 0.18700626 0.28350168 -0.1988596
-0.3157108

bias f4 [11]
00000000: 4bcf 993d 17d8 193d 320e bd3c 497c c5bc
00000010: 5b55 1f3c db0a 72bc 21a5 113d d036 a7bd
00000020: 7df3 2e3d 38f6 64bc 060a 41bd
0.07510241 0.037559595 0.023078058 -0.024107115 0.00972494 -0.014773096 0.03555787 -0.081647515
0.042712677 -0.013974719 -0.0471287

weight f4 [8, 11]
00000000: 87f2 9cbe f434 d63d 566a 75bb 482a 96be
00000010: c2c2 5ebe 975d e3bd 55f7 923e 948a 5dbe
00000020: 9ec7 153e 7ad0 36be 5ddd d2bd e3dd b73d
00000030: 54c9 cabc dcac ccbe 481a 873d fa92 74bd
00000040: f648 f9bd 361e 0abe 774e c2bc 2989 ff3d
00000050: bece f9bd d477 afbd 5385 743e ec54 2e3e
00000060: 7613 643e 5a12 aa3e a073 4d3e f103 9abe
00000070: 1d59 283e ea20 bfbd 5c92 1b3e f56e 82be
00000080: 862a b9bc 9127 803d 1e9b 19be 603f 9a3d
00000090: 6cc1 d8bd 5719 febb 334c 96bd 33e5 783e
000000a0: 5b67 13be 241d b8be f277 a7bd 553c 813e
000000b0: 3d15 8cbd 5c20 883d 995a 8ebe 5417 00be
000000c0: de7f 31be 52d1 2b3d 41ab 843d dce4 32be
000000d0: 0c35 143d 225f 403e 5930 663d 38f9 27be
000000e0: 25d2 273d 130b 8c3d cb26 6ebe fd3b 3bbe
000000f0: a16c 71be aeea a33e 7a4b 683d e631 65bd
00000100: 43cb 80bd d30e 16be 50eb 363e c903 c0bc
00000110: 0be2 a5bb 7d83 3bbe 1104 ac3e 1c68 b6bd
00000120: 5707 94be 2066 553e fdf8 90be 357c 8abd
00000130: cda0 86bd 71ba a33d 8528 d43d 502a 57be
00000140: 0e35 30be 78aa 98be c56c 41bd 293b 21be
00000150: 783a 1abe 90f8 653e 2083 6abd d686 89bc
-0.30653784 0.10459319 -0.0037447414 -0.29329133 -0.21753982 -0.11101835 0.28704324 -0.21634895
0.14626929 -0.17852965 -0.10296128 0.089778684 -0.024754204 -0.3997563 0.065968096 -0.05971048
-0.12172119 -0.13488087 -0.023719056 0.12477333 -0.12197636 -0.08567777 0.23878984 0.17024583
0.22273049 0.33217126 0.20063639 -0.30081132 0.16440244 -0.0933245 0.1519255 -0.25475278
-0.022603285 0.06257547 -0.15000579 0.07531619 -0.10583767 -0.0077544856 -0.073387526 0.24306183
-0.14394896 -0.35959733 -0.08177175 0.25241342 -0.068399884 0.06646797 -0.27803496 -0.12508899
-0.17333934 0.04194767 0.064779766 -0.17470115 0.036183402 0.1878629 0.05619845 -0.16403663
0.040971894 0.0683805 -0.23256986 -0.18284602 -0.23576595 0.32014984 0.056712605 -0.05595579
-0.06288769 -0.14654092 0.17863202 -0.023439305 -0.005062347 -0.18311878 0.33596852 -0.08906576
-0.2891185 0.20839739 -0.28314963 -0.06761972 -0.06573639 0.07994545 0.10359291 -0.21012235
-0.17207739 -0.29817557 -0.04722287 -0.15745224 -0.15061367 0.224581 -0.057253957 -0.016787928

bias f4 [8]
00000000: e16f 273e 31a4 f4bb cece b63e 71e1 1dbe
00000010: 0363 6fbc 51e1 b53d 4688 3b3d aedf 673e
0.16351272 -0.007465862 0.35704654 -0.1541803 -0.014611009 0.08880866 0.045784257 0.22643921

weight f4 [11, 8]
00000000: 34eb 66be 129d 95be f1e5 503d e722 613d
00000010: c3ac 583e 2ffc b13e fdf9 90be 113f a0be
00000020: 3bb6 4ebe 7908 aebe 22dd 21be 4b35 93be
00000030: 16c2 7dbc 1cbd 5c3e 7390 af3e 27f7 573e
00000040: 72b6 723e 6140 923d 6dbd 683d 75e1 82bc
00000050: 62a9 423e 0c2a 003d 9af1 1f3d f9e7 c93e
00000060: b98f 4a3d 8ada 11be ecd7 293e be5e 813e
00000070: 134c c63d 90dc 223d fc93 493e 691d 2fbe
00000080: 24f0 c4bd 44d8 98be e53b 99be b762 acbe
00000090: 426c 303e 4d37 34bd 1945 f83d 414f 33be
000000a0: 7832 f93d e573 a43d 4bc7 17be 41d9 253d
000000b0: b2dd d53d d818 24be e469 293e f5fa e5bc
000000c0: 27eb 4fbe 6109 b53e f700 1fbe 4352 eebd
000000d0: 8ae9 efbb a79b aa3d 39dc a8be a19b 0bbe
000000e0: 7ea2 02be 4a38 313c 67c7 5fbd f086 ac3d
000000f0: f069 95be 64ab 543d 1389 29bc 691c b03d
00000100: 8a7e aabe 453a 17be f55d bc3e 3e18 b23d
00000110: 6382 bcbe 542c 343e 3ea1 cfbd 2362 40be
00000120: e294 7e3e 2212 4d3e 112d b9be 7411 8a3e
00000130: 9ad1 c73a 9dab a2bd 7fd6 01be 02fb ab3d
00000140: 5b6d 0dbe b673 273e 522a acbe 281e aabe
00000150: 7a65 bebc 52d1 bbbe 2e4e 08be 6cbe 91be
-0.2255066 -0.29221398 0.05100054 0.054964926 0.21159653 0.34762713 -0.28315726 -0.31298116
-0.20186703 -0.3399084 -0.15807012 -0.28751597 -0.015488168 0.21556515 0.34289894 0.21090375
0.2370241 0.071411856 0.056821276 -0.015976647 0.19009927 0.0312901 0.03904877 0.39434794
0.04945347 -0.14243522 0.16586274 0.25267595 0.09682479 0.039761126 0.19685358 -0.17101063
-0.09616116 -0.29852498 -0.29928508 -0.33669063 0.17228797 -0.04399805 0.12122554 -0.17510702
0.12167829 0.08029918 -0.14822118 0.040490393 0.10442676 -0.16025102 0.165443 -0.028073767
-0.20304547 0.35358718 -0.15527712 -0.11636784 -0.007321541 0.083304696 -0.32980517 -0.13633586
-0.12757298 0.010816643 -0.054633524 0.08424175 -0.29182386 0.051921263 -0.010347622 0.08599169
-0.33299667 -0.14768322 0.36790434 0.0869603 -0.36818227 0.17595035 -0.101381764 -0.18787436
0.24861482 0.20026448 -0.36167195 0.2696644 0.0015244961 -0.07942889 -0.1267948 0.08397485
-0.13811247 0.16352734 -0.33626038 -0.33226132 -0.023241747 -0.36683136 -0.13311073 -0.28465593

bias f4 [11]
00000000: 29b8 4d3d 648d cfbd 44a1 01be 706b 3cbe
00000010: 94f9 84be 5c3f cd3b 8961 913e 07ef f73d
00000020: db5e 74bc c03e 953e 980e 683d
0.050224457 -0.1013439 -0.12659174 -0.18400359 -0.25971663 0.0062636565 0.28394726 0.12106138
-0.014915193 0.29149437 0.056654543

weight f4 [11]
00000000: 9f09 613f b85c 8b3f ba4a 763f 9a4c 883f
00000010: 6f0f 813f fe43 823f e24a 663f 858d 873f
00000020: 8864 663f 825e 903f f4ac 653f
0.87905306 1.088767 0.96207774 1.0648377 1.0082835 1.0177 0.8995801 1.0590063
0.8999715 1.1278841 0.8971703

bias f4 [11]
00000000: 3c78 5a3d 82fe 3b3d 7cf9 0e3d 651a c23c
00000010: bb50 903c d35b 6f3a dcff 533d fcc7 d0bb
00000020: 8823 b13c 8542 3bbc c36a 81bc
0.05333732 0.045897014 0.034905896 0.023694227 0.01761662 0.00091308093 0.05175768 -0.0063714962
0.021623388 -0.011429434 -0.015797978

weight f4 [11]
00000000: e162 773f 5c71 883f 3cdd 703f c86f 813f
00000010: ffe3 803f d52a 813f 22bd 693f 3f1e 853f
00000020: c99f 703f c38a 913f 05bb 603f
0.9663525 1.0659595 0.94087577 1.0112238 1.0069579 1.0091196 0.9130422 1.0399855
0.9399381 1.1370472 0.8778537

bias f4 [11]
00000000: 1f52 6fbc bc40 663c 6260 5bbb fcea 173c
00000010: 49aa a3bc 8a3e dabb 5278 493d db97 b0bb
00000020: fb69 833c ed2d 57bc a240 66b8
-0.014606982 0.01405352 -0.0033474197 0.009272333 -0.01997866 -0.0066602873 0.049187012 -0.0053891963
0.016041746 -0.013133508 -5.4896467e-05

in_proj_weight f4 [33, 11]
00000000: 3013 ecbd 1f9f b43d 7070 7ebe 912a 2e3e
00000010: c878 a93e c407 e93b 8123 253e 3a4b 0f3d
00000020: b8cf 263d 7967 5abe 01cc 4dbe 6a6e 9abd
00000030: 2917 87be d77f 1dbe d40a 743d e712 773e
00000040: 5838 193e 9b63 6dbe e8ed e93e f5cc 853c
00000050: 2d6f c53d f5ce f3bd d067 e0bc 5fec 9c3c
00000060: 7487 b9be 7171 0cbe 4fea d5bd 4d5b e5be
00000070: a3ae 593e b4de 7fbe 7beb ba3e 2c93 66be
00000080: d7bd 9e3e 88cf 93be d611 63be 3a42 36bd
00000090: a2c2 6abe 6fd0 f03d ba40 c43d b510 9ebd
000000a0: b37d 9bbe 8572 2ebe d213 b73e e1b3 98be
000000b0: 8421 de3e 4721 183e d60e 90be 028f a63e
000000c0: 8eb5 9f3e 6724 1bbd a37b 923e a192 7d3d
000000d0: e521 83be 1a99 b7be 982a 413e d759 d03e
000000e0: 5718 dabc 6edc a73d a390 773d 970a 593c
000000f0: a33f 07be a25a a7be 195f 01be 1eea 39be
00000100: 53e4 9f3e d935 be3d 4b71 8e3e 22c5 b13e
00000110: 6d1b d03d c018 993d 15b1 983e 4a87 5b3e
00000120: d740 873e 4e1c a23d 856a 72be 90c8 9f3e
00000130: a234 95be c388 46be 67dd 35bd febf 3bbe
00000140: ce7d 27be c7ee 163d b2fb 4fbd a950 6dbe
00000150: 71b4 503e 3f31 a93e c1d7 d33d 742a 433e
00000160: b963 a5bd b8cc a33d 6177 913e f86b 61be
00000170: 93e8 51be 9b09 513d 4f71 f4bc c8b7 8e3e
00000180: c45d 4a3e acdd 99be 38f1 a6be 9e8b 54bc
00000190: 33d2 8abd 9359 5bbe b996 323e f9c9 03be
000001a0: f5d8 5c3d d114 85be 8bd9 6fbe 6b77 7ebe
000001b0: be6e 023e a800 2dbe 4f7e 46be b33a 9a3b
000001c0: abe6 b63e 658e b4bd e6cc 1f3d fe3e 573e
000001d0: d40a 98be 1caa 66bd b02e 8cbe 4dcd babe
000001e0: 9465 2ebe 0166 d53d d725 133e c1a9 c63e
000001f0: 63db 273e 8cbc 38be e8a8 5c3e 2989 283e
00000200: 1cac 30bd 70e0 fd3c 75cf ef3d 2ba7 95be
00000210: d72b 93bd d7b5 a2be 1c13 95bd dd47 d6bd
00000220: d455 87be a050 b7be 44fb a3bc 3b78 193e
00000230: 4cbd 9a3e c09e 1ebe cc9a 883e c5c7 a93e
00000240: 43c9 bf3e a81b e4be 4ba3 d4bd 81a3 95bd
00000250: 8364 d4bd ffa9 683d b98d 1cbe 5612 b2bd
00000260: ddb1 8e3e 45c4 e03e 8090 c5be 5595 78be
00000270: 852f f33d b1d2 233d 6eba 1bbe c327 49be
00000280: 2cb7 913e 28af a1bc 947e c7be e8d5 edbd
00000290: 4ff5 223e cd5a 163e 54d7 aebe c31f 9d3e
000002a0: 1e97 883a 07cf 55be 4ffa 2b3e d618 993e
000002b0: ce8a f7be abdf 813e 0303 f33b 8feb c63e
000002c0: 2830 5ebe 8886 80be 714b 4bbb 74ac a6bc
000002d0: 7c78 9ebc c78e 793e c0cf b43e 0d3f bd3e
000002e0: 2ba7 443e cb21 0d3e 4cdf cabe e17d 87be
000002f0: a765 9dbd 2e8d cc3d c04e fcbd 3d94 c9bc
00000300: a916 4bbe e376 72be d993 9bbd 8133 f43d
00000310: 7a65 d6bd 0b7e 923e 8101 6ebe 3261 ab3e
00000320: fe47 a3be 142e 49be b43c 87be 308c 5b3d
00000330: 26b9 3d3e dbc6 b0be 9270 fd3d f1cf 403e
00000340: 4528 a0be cf8e bebd 44fe ca3d 3893 5b3e
00000350: 1a39 e2bc c417 d1be a7ba 23be c8ed 043e
00000360: be80 95bd 6439 0fbe 4ccf 9abd 2437 b1ba
00000370: 0cb0 4ebe e78a 853d 8b38 073e 7357 dfbd
00000380: 3f67 b4bd 5e18 8bbe 4052 d0bc 9879 a1bd
00000390: 4c39 28be 92f6 f43c 26c5 1c3d 7f74 46bd
000003a0: 281b 97be 4395 a53e 4b33 cf3d 980b e7bb
000003b0: bcb0 2e3d 3da5 923e 549e ae3e 1d53 be3d
000003c0: 7ad7 49be face bb3c bcb0 433c 3e83 d6bb
000003d0: 27d1 5cbe 5396 cebe 3aa3 143e c65c 3abe
000003e0: 845b c83d f875 8cbe d372 a53d 4e60 fb3e
000003f0: fef0 08be ed0b 4a3d 8f3c 883e 3390 943e
-0.11527097 0.088194124 -0.24847579 0.17008425 0.3309996 0.0071115214 0.16126825 0.03498385
0.04072544 -0.21328534 -0.20097353 -0.07540591 -0.26384857 -0.15380798 0.05958064 0.24128304
0.149629 -0.23182528 0.4568932 0.016333083 0.09640346 -0.11904708 -0.027393252 0.01915568
-0.36236155 -0.1371515 -0.104450814 -0.4479622 0.21258025 -0.24987298 0.36507782 -0.22517079
0.3100421 -0.2886927 -0.22174773 -0.044496752 -0.22925809 0.117585056 0.09582658 -0.0771803
-0.30369338 -0.17035873 0.3575731 -0.29824737 0.43384945 0.14856444 -0.2813632 0.3253098
0.31193203 -0.037876513 0.28609952 0.061907414 -0.25611797 -0.35858995 0.18863904 0.40693542
-0.026622934 0.081963405 0.06044067 0.013247154 -0.13207869 -0.32686335 -0.12633933 -0.18155715
0.31228885 0.092876144 0.2782081 0.34720713 0.10161481 0.07475424 0.29822603 0.21438327
0.26416656 0.07915555 -0.23673446 0.31207705 -0.29141718 -0.19388108 -0.0444006 -0.18334958
-0.16356584 0.03684881 -0.050777145 -0.231753 0.20381333 0.33045384 0.10343886 0.19059163
-0.08075661 0.079980314 0.2841139 -0.22013843 -0.20498876 0.05103455 -0.029839186 0.2787459
0.19762331 -0.30051935 -0.3260591 -0.01297274 -0.067783736 -0.21420889 0.17440309 -0.12870015
0.053917844 -0.25992444 -0.2342283 -0.24850242 0.12737557 -0.16894782 -0.1938412 0.0047067045
0.3572286 -0.08816222 0.039013766 0.21020123 -0.2969576 -0.056314573 -0.2737937 -0.36484757
-0.17030936 0.10419846 0.14369904 0.38801387 0.16392283 -0.18040675 0.21548808 0.16458572
-0.043132886 0.03099081 0.11709491 -0.29229102 -0.07186096 -0.31779358 -0.072790354 -0.104629256
-0.2643267 -0.358037 -0.020017274 0.1498727 0.30222547 -0.15490246 0.266806 0.33160225
0.37458238 -0.4455235 -0.10382708 -0.073065765 -0.103707336 0.056802746 -0.15288438 -0.086949036
0.27870074 0.43899742 -0.38586807 -0.24275716 0.11874298 0.039995853 -0.15207836 -0.19644074
0.28460062 -0.019736841 -0.3896376 -0.11613065 0.1591389 0.14683075 -0.34148657 0.30688295
0.0010421013 -0.20879756 0.16794704 0.2990176 -0.48348087 0.25365958 0.0074161305 0.38851592
-0.21698058 -0.2510264 -0.0031020308 -0.020345904 -0.01934456 0.24370871 0.3531475 0.36962166
0.19204395 0.13782422 -0.39623487 -0.26463225 -0.07685404 0.099878654 -0.12319708 -0.024606818
-0.19832863 -0.23678164 -0.07596559 0.11923886 -0.10468574 0.28611788 -0.23242761 0.33472592
-0.31890863 -0.19646484 -0.264135 0.05360049 0.1852766 -0.34526715 0.12374987 0.18829323
-0.31280723 -0.09304582 0.099117786 0.21442878 -0.027615119 -0.40838444 -0.15989171 0.12981331
-0.07299946 -0.13986737 -0.0755907 -0.0013520462 -0.20184344 0.06520634 0.13205163 -0.109053515
-0.08808755 -0.27167028 -0.025429845 -0.0788452 -0.16428107 0.02990273 0.038273953 -0.048450943
-0.29512906 0.3234044 0.10117205 -0.0070509426 0.042649016 0.28641692 0.3410517 0.09293196
-0.19711104 0.022925843 0.011943992 -0.006546407 -0.2156416 -0.40349063 0.14515391 -0.18199453
0.0978308 -0.27433753 0.080785416 0.49096912 -0.13373181 0.04932778 0.26608703 0.29016265

in_proj_bias f4 [33]
00000000: 3131 a23c 8626 dbbd 198e 32bc b626 1e3a
00000010: 690c 05bc 7c7c c2bd 5d28 1f3d 3b78 18bc
00000020: 5983 b9bd bbb8 f8bc e124 423d 3647 253b
00000030: 1451 a4ba 7372 1abb 1782 13b9 00f3 443b
00000040: d071 b7b9 babd 9db8 3076 a2ba 972f 6cbb
00000050: 91b4 8e3a 6e3e ddb9 5497 32bb 4ac8 f9bb
00000060: 662d 5bbd dd11 ccbc 10d2 1c3c 8975 8bba
00000070: bf05 84bc 90f3 3fbb ee76 823b 6a15 8cbc
00000080: b307 1b3d
0.019798847 -0.10700707 -0.0108981365 0.000603299 -0.008120635 -0.094964 0.038856853 -0.009306009
-0.09058256 -0.030361524 0.04739845 0.0025219447 -0.001253637 -0.0023566752 -0.00014067475 0.0030052066
-0.00034989277 -7.521683e-05 -0.0012394842 -0.0036039108 0.0010887553 -0.00042198919 -0.0027250843 -0.0076227533
-0.053510092 -0.024910862 0.009571567 -0.0010639887 -0.016116021 -0.0029289462 0.0039814627 -0.017100055
0.03784914

weight f4 [11, 11]
00000000: 2f8c 183d e1e6 da3d ee2b 363d 8c54 7c3e
00000010: 082d 2c3d 37c4 f73d f544 233d 30f4 37be
00000020: 8269 2d3d 497c 9c3e dcdd 64be 9076 603e
00000030: e41e b1be a319 83be 5864 123d 763c 94be
00000040: b8b1 933e bd04 11be d550 853e 59ac 73be
00000050: 66e6 f7bc f042 943d e6ab 793e 1160 25be
00000060: 4829 d03d 9b84 d43d 8f1f 5fbb 1cde ca3d
00000070: d32d 80be 2321 26be cfbd 37be 30c9 41be
00000080: e67b 58be f65f c93d 9597 fd3d eba3 773e
00000090: 2ba7 203e fcbf 813e 0929 cf3d 883f b5bc
000000a0: 25ed 67bd 3dbf 5d3e 1705 c3bd 7d09 44be
000000b0: e8b5 ecbe d871 493e e758 923e 8258 ea3d
000000c0: b12f 863e 3ea0 eebd 4375 24be 435a 68bd
000000d0: 4427 6a3e bad9 0ebe 9ee4 1ebe 9eb0 18be
000000e0: cc41 9b3e 62c6 2e3e 0fa7 5dbe 5149 6e3e
000000f0: be8c 903c 04b1 d1be 76f5 99be 240b af3d
00000100: 9aae 223e 1d1b efbd 4a08 56be ef69 cfbd
00000110: 3f09 16be 22e0 39be 6c50 f7bc daca fdbd
00000120: 65cb 253d 728b 07be 472a 023e e977 f23d
00000130: 5881 a13e 99a4 26be c942 893e 33d6 283e
00000140: 0a04 473e 8f72 2cbc d67b b23e 1020 623d
00000150: 0c3d 4ebd 02d4 423e 3139 8dbc df22 06be
00000160: 06c2 cf3c 4a20 2a3e 1648 71be 34b7 2a3d
00000170: 6903 fe3d 5cc9 81be 404a 91be bfa1 173e
00000180: a62d 7a3e 386d 8fbe d17d 4c3e 8bab a53e
00000190: 7168 61be c5aa 3f3e e2fd 603d c28a 07be
000001a0: c5f9 59be e0f8 943c 5b9e 273e 5e04 4bbe
000001b0: 9ce2 713d b91d 3bbe f3f9 d63b 72d9 843e
000001c0: 5d5b 44be f8b6 363e f0cd 98be 872e 5a3e
000001d0: 9c75 ac3e 8689 883c 378d a53e 3f44 7abe
000001e0: c26e 7dbe
0.037243064 0.10688568 0.04447549 0.24641627 0.042035133 0.12097972 0.039860684 -0.17964244
0.04233695 0.30563572 -0.22350258 0.21920228 -0.3459388 -0.25605497 0.035740227 -0.28952378
0.28846526 -0.14161964 0.26038232 -0.23796214 -0.03026123 0.0723933 0.2438198 -0.16149928
0.10164124 0.10376855 -0.003404591 0.09905645 -0.2503496 -0.16223578 -0.179435 -0.18924403
-0.21141014 0.09832756 0.123824276 0.24183623 0.1568877 0.25341785 0.10115249 -0.02212502
-0.056622643 0.21654983 -0.09522455 -0.19144244 -0.46232533 0.19672334 0.28583452 0.11442663
0.2620826 -0.116516575 -0.16060357 -0.056726705 0.22866541 -0.13950244 -0.15516898 -0.14911124
0.30323637 0.17067865 -0.21645759 0.23270155 0.017645236 -0.40955365 -0.30070084 0.08547047
0.15886918 -0.11675093 -0.209016 -0.10127627 -0.14651965 -0.18151906 -0.030189715 -0.123922065
0.040477175 -0.13236788 0.1271144 0.11839277 0.31543994 -0.16273727 0.26808766 0.1648796
0.19435135 -0.01052536 0.34860104 0.05520636 -0.050351188 0.19026187 -0.017239185 -0.1309924
0.025361072 0.1661388 -0.23562655 0.041678622 0.12402994 -0.25348938 -0.2837696 0.14807795
0.24431476 -0.28013015 0.1996987 0.3235744 -0.22012497 0.18717487 0.05492962 -0.13236526
-0.21286686 0.01818508 0.16369002 -0.19825885 0.059054002 -0.18273057 0.006560558 0.25947148
-0.19175477 0.17843235 -0.29844618 0.21306811 0.3368348 0.016667139 0.323343 -0.24440096
-0.24749282

bias f4 [11]
00000000: d749 37bc 28d4 a33c 8136 5c3b b03a 1b3d
00000010: 255b 5bbc 1c9c 86bc 203e 0c3d 09ad eebc
00000020: 0048 a1bc f07e 96bc a7de b33c
-0.011187038 0.019998625 0.0033601823 0.037897766 -0.01338843 -0.01643186 0.034238935 -0.029135244
-0.019687653 -0.018371075 0.021956755

weight f4 [8, 11]
00000000: bf35 72be 3ad2 5d3e 72af 3e3d 1fd6 8cbe
00000010: b31b 5ebe 8a9e 38be 3850 643e 97e0 99be
00000020: 24c5 1f3e 5cbc 28be 7925 00be 0beb ce3c
00000030: d791 933c f8e4 95be 7a36 123e 44d2 9bbd
00000040: 6b41 03be fed1 afbe c08b fdbd ec9b 123e
00000050: a8d6 acbd 37ea 01be 199c 963e dc67 a73d
00000060: e6e0 683d de37 873e 9db8 a83e 4115 b3be
00000070: 3c9d 973d ae4a 0dbd a32a 823e 33e0 3abe
00000080: eff0 2f3c 7e62 193e e14e a4bd 4c19 253e
00000090: afa9 36be b6e1 adbc 5cba c7bd b521 693e
000000a0: 376b 8bbe 564f 41be a831 69bd 19ca a23d
000000b0: d3a8 dbbd 44cb a93d f5d8 73be 850d efbd
000000c0: 1589 26be dd28 543e 695f 173a 1022 5abe
000000d0: d5cf 02be a860 683e d11c a43d 667a 25bd
000000e0: ed52 3a3d c93e 993c aa92 66be 43f3 53be
000000f0: beca 84be dc5b 423e e05a 373d 7e23 a2ba
00000100: d1c8 8dbd 4e54 ccbd f515 1a3e f155 c43d
00000110: 3f7a b73c 9831 3ebe 7477 b13e 2cf6 6dbe
00000120: 9cce 39be bb03 763e 0c32 45be 9adc 1cbe
00000130: 241a 34bd f24b 0d3e 58b8 6a3e 370c 1fbe
00000140: 92f5 ffbd 49a7 4abe 69e2 75bd 477b 44be
00000150: 2c9e 45be fa1e 3b3e df96 f2bd 98d3 37be
-0.23653315 0.21662226 0.046554036 -0.2750711 -0.21690254 -0.18029228 0.22296226 -0.3005416
0.15602547 -0.16478103 -0.12514295 0.025258562 0.018013878 -0.29276252 0.14278594 -0.07608464
-0.12817924 -0.343399 -0.12380171 0.14317292 -0.0843938 -0.12687002 0.29415968 0.081741065
0.056855105 0.2640981 0.3295335 -0.34977153 0.07403037 -0.03449505 0.25423154 -0.18249588
0.010738595 0.14978978 -0.080228575 0.16122931 -0.17838167 -0.021225791 -0.09752342 0.22766764
-0.27230236 -0.1887792 -0.05693212 0.07948703 -0.1072556 0.08290723 -0.23813231 -0.116725005
-0.1626323 0.20718713 0.000577441 -0.21302056 -0.12774594 0.22693121 0.08013309 -0.04039993
0.04548924 0.018706696 -0.22516885 -0.20698266 -0.2593593 0.18980354 0.0447644 -0.0012370197
-0.06923068 -0.09977017 0.15047438 0.095867045 0.022397159 -0.18573606 0.34661448 -0.23238438
-0.18145221 0.2402486 -0.19257373 -0.15318528 -0.043970242 0.13798502 0.22921884 -0.15532003
-0.12498011 -0.19790377 -0.060030375 -0.19187652 -0.19298619 0.18273535 -0.118451826 -0.1795181

bias f4 [8]
00000000: d963 0b3e a656 683d 2e56 a53e cdfd 43be
00000010: eefe 123b c0b2 b63d 0ca3 ab3d 78cb 843e
0.13612308 0.05672326 0.32292312 -0.19139786 0.0022429782 0.089208126 0.08380708 0.25936484

weight f4 [11, 8]
00000000: d10f 67be f2ad 80be 04b9 cd3d 6cbf 82bb
00000010: 316e 973e 01b3 933e 15fe b9be 3844 81be
00000020: 26e0 febd 74b2 8fbe 371a f7bd ce3b 5ebe
00000030: 0df3 c9bd 39fc 863e 4b9b a53e d66c 8b3e
00000040: c334 863e ba8d 9c3d e543 563d 8c6b 8c38
00000050: b146 5c3e ee65 d1bd bb77 f73d d2a2 d33e
00000060: aecd 803c 382f 3cbe 14fe 723e 144c 363e
00000070: 3aff 503e b8e7 cd3c 351d 4f3e 7d0e fabd
00000080: 2ce5 bbbd fa32 9fbe e1f4 a4be 28f7 1abe
00000090: 6755 8d3e 8a09 cfbc 82a8 c43d 93c1 05be
000000a0: 2e40 1c3e ed35 7c3d 5f3c 35be 0b57 883c
000000b0: a37b 863d 0e56 06be fc3d f33d 1f08 1cbe
000000c0: bc63 0bbe c2c3 b43e 65ea b5bd 94bd a7bd
000000d0: 319d 12bd c014 043e 5814 88be 8e1e 25be
000000e0: af82 28be 789d d2bb fae4 cbbd 15a8 163e
000000f0: 32d7 63be e14f 673d ba14 1ebc b65b ee3d
00000100: dfdf c4be d913 31be 3c90 bf3e 4c3c f93c
00000110: 8d95 bbbe aa46 623e a97c babd 4298 25be
00000120: 0a69 8a3e 7e75 843e 6f56 b6be 7f3c 8b3e
00000130: 6c64 b53c c4ba 69bd c379 0fbe 0b7a b13d
00000140: 2466 61bd c06d 813e a223 99be b1e5 a5be
00000150: aa2f d33d de14 8ebe abad 4bbe 2c28 6fbe
-0.22564627 -0.2513271 0.100450546 -0.0039901044 0.29576257 0.28847507 -0.36326662 -0.2524736
-0.12445097 -0.28065836 -0.12065547 -0.21702501 -0.098608114 0.26364306 0.32345042 0.27231473
0.2621213 0.0764422 0.052310843 6.6957524e-05 0.21511342 -0.1022452 0.12083384 0.4133516
0.015723076 -0.18377388 0.23729736 0.17802459 0.20409861 0.025134906 0.20225985 -0.12209795
-0.091745704 -0.3109358 -0.32218078 -0.15133345 0.2760422 -0.025273103 0.09602453 -0.13062124
0.15258858 0.061574865 -0.17698811 0.016643068 0.065665506 -0.13118765 0.11877057 -0.15237473
-0.13612264 0.353056 -0.08882598 -0.08190456 -0.03579444 0.1289854 -0.2657802 -0.16124937
-0.16456102 -0.006427463 -0.09955783 0.14712556 -0.22250059 0.056472663 -0.009648496 0.11638586
-0.3845205 -0.17292728 0.3741473 0.03042426 -0.36637536 0.22097269 -0.09105808 -0.16171363
0.27033263 0.2587089 -0.3561282 0.27194592 0.022142611 -0.05706288 -0.14011292 0.08665856
-0.05502905 0.25279045 -0.29909998 -0.32401803 0.103118256 -0.27750295 -0.19890468 -0.23355168

bias f4 [11]
00000000: 1c77 963c b490 bebd df81 b7bd a8a5 2ebe
00000010: 427e 53be 31e6 f93a 0c10 963e 034f 463e
00000020: 76d9 1f3d 9313 803e 290c e53d
0.018367343 -0.09304944 -0.08960318 -0.1705538 -0.20653632 0.0019065795 0.29309118 0.19366078
0.039025746 0.25014934 0.1118396

weight f4 [11]
00000000: ed23 653f 1651 8e3f 6d48 683f e3b2 793f
00000010: d50d 8a3f c0cc 823f df24 703f 7e0a 893f
00000020: 4a8e 723f 3052 8c3f a561 663f
0.89507943 1.1118495 0.9073551 0.97538584 1.0785471 1.0218735 0.9380626 1.0706327
0.94748366 1.0962582 0.89992744

bias f4 [11]
00000000: ade4 9b3c 5e0e 8a3c 7781 de3c cabb 283d
00000010: 938b ebbc ca39 c7bc 4cd9 e63c e3ed 953c
00000020: 70d8 d63b d44c 6cbc 1a71 123d
0.01902994 0.016852554 0.027161343 0.041194715 -0.028753078 -0.024319548 0.028179787 0.01830191
0.006556563 -0.014422614 0.035752393

weight f4 [11]
00000000: dfa6 763f cc2c 853f b1ea 773f aad3 713f
00000010: fb73 883f 61a6 763f bb3c 723f 33b7 873f
00000020: 5ae7 7b3f 9a7f 883f edc4 683f
0.96348375 1.0404296 0.96842486 0.944636 1.0660394 0.96347624 0.9462392 1.0602783
0.9839989 1.0663941 0.90925485

bias f4 [11]
00000000: 4063 6ebc 0fd3 a73a cf1e ceba 9441 e23c
00000010: 7757 34bd 162d adbc fd4f 033d a392 623c
00000020: 8213 cb3b 8988 a6bc 816a f53c
-0.01455003 0.0012803989 -0.0015725734 0.02761916 -0.044028725 -0.021139663 0.032058705 0.013828906
0.006197394 -0.020328777 0.029958012

in_proj_weight f4 [33, 11]
00000000: 14df 42ba d51a 9bbc cad3 a1be e085 0c3e
00000010: 718d a53e 593b fdbd 4e06 233b f78f 623e
00000020: 3946 ef3d 1658 2abe afe6 09be 5fd5 0bbe
00000030: 4e9c 42be c4c5 10be 1ed7 7f3c 084a df3e
00000040: d37f fc3d 5edc b8be 32f9 783e 7f60 f83c
00000050: cfcc 363e 7ef3 aebd 17cd 93bd 0f6a c93d
00000060: 85ba b5be dd64 4bbe 1925 1dbe d7b5 c6be
00000070: abd1 273e 4b44 7fbe b467 c73e c5e4 4ebe
00000080: 10ee 493e 7b11 82be 9c14 94be c866 12be
00000090: c483 60be 6ccb dc3d aff4 123e a38c 7ebd
000000a0: 6ff9 9bbe a1b4 46be 8d06 c43e c940 64be
000000b0: d9ce c93e 7e76 113e 0586 66be ba62 993e
000000c0: d7fe 7c3e eb86 b7bd e555 943e d706 f83d
000000d0: a845 02be 5cfe 98be b121 273e 2c17 c73e
000000e0: 62d3 1ebe eaa3 413e a4b1 4f3d 94c7 7ebd
000000f0: 1509 8bbe 9867 aebe e3ff c9bd 7501 1fbd
00000100: 6af5 db3e d9f2 033e 841e 0c3e 7411 db3e
00000110: 6420 8c3c 89b2 303d 5281 d23e 6f35 303e
00000120: 2acf a03e d65d dc3d 9d57 78be 102e b13e
00000130: 53fb b2be 53a9 1ebe 27d9 953d 2e93 8fbe
00000140: 7dd2 5ebe ed11 c93d 1003 7fbd 1681 38be
00000150: 3089 733e 9182 823e 2935 9c3d 9477 4e3e
00000160: a9af 73bd cfe9 c23d f1e2 2c3e f2cd 86be
00000170: 3071 49be d6df 683d 3f9b ddbd 9ffd 813e
00000180: c87d 7b3e 37da 74be 2c87 5abe 658f 9a3c
00000190: 56cd 3abe 6531 34be 12b6 b13e 2b3b 9cbd
000001a0: 92d4 cf3d 8fb3 9fbe 1a33 6dbe 002d a6be
000001b0: 87af ed3d 4bd7 8cbe d32a 00be 86a6 12bd
000001c0: 11ba d53e 9429 82bd 6774 ed3d cd71 063e
000001d0: a73f 8ebe 57d0 90bd 0769 a4be f09f b4be
000001e0: 63a5 04be e353 8b3d 83c5 113e adaf d23e
000001f0: f4da 353e 8b38 40be 766f 583e cfab ce3d
00000200: 9382 713d f93d 733e 38e9 263d 386a 4fbe
00000210: 7f2b 98bc 3f08 a6be c329 4f3d 9fbb 943d
00000220: 16a5 8ebe ef40 b4be 5c98 27bd 916f 623e
00000230: 9a3a ca3e 3c58 62be 6c0e d63c 4968 ac3e
00000240: d600 d03e 7197 bfbe eb1e dbbd 8f34 a7bd
00000250: f7af 99bc 2481 353d ce63 37be 2a46 c3bd
00000260: f926 933e e644 cb3e 7ebd c6be 6ad8 09be
00000270: fadc 2c3e dd3f cc3d 6f54 67be fc3d 87be
00000280: 2abd 813e 8be5 60bd 12f6 c0be fa0b cdbb
00000290: 0bfa 183e c984 033e 69c6 9bbe 7a7c 373e
000002a0: 3c6b 9b3d 2880 2ebe 1774 cb3d bfc6 843e
000002b0: 730f a7be 62cf 5b3e 85e5 d9bd 0f56 c83e
000002c0: 3ec4 86be 410d 25be c064 09bd 2b82 bfbd
000002d0: c896 d6bd 64e2 fd3d a513 a23e cfd5 053f
000002e0: 598f 043e f247 863e 15ec b1be bd1b 66be
000002f0: 95b7 91bc 027b e13d 96f9 42bb f1d2 8d3d
00000300: 808c a5be 9722 9dbe e52d 05bd 2e5c 5a3e
00000310: 0b46 ccbd ca3c 893e c8e0 4fbe 855c d73e
00000320: 1f09 cebe 07b1 6dbe c20f 68be 3063 e43c
00000330: ff76 fe3d 12d2 b2be 73ba cd3d 69fb 0c3e
00000340: 63ca 99be 040f 2dbd b445 183e 6370 553e
00000350: 26e9 66bd 19cd a8be 3dd5 91be ac3f 013e
00000360: c7af ffbd 9731 3bbe 0c44 acbc 1213 1cbd
00000370: 4f6c e8bd 5876 b53c ffbc 7f3e eff2 f5bc
00000380: a8da 3dbe 4989 adbe 58a0 753d dfcc 32be
00000390: 0d56 68be 9506 72bd 1050 963d 20be 13be
000003a0: b32a c5be 6bb3 a53e e106 8c3d fe52 c13d
000003b0: c526 2e3d af32 b53e 3f41 bb3e 720d 8a3d
000003c0: ee29 5ebe 4f27 8c3c a79a 4cbd 08a3 ccbc
000003d0: 67f5 39be 6d88 b0be d40e 233e 3723 38be
000003e0: 0ce9 853d acb6 92be a988 ae3d c44f d43e
000003f0: 2e35 2cbe 8db7 f63d 914b 9d3e 5475 863e
-0.0007433754 -0.018933693 -0.31606895 0.13722944 0.32334474 -0.12364835 0.0024875584 0.2212523
0.11683316 -0.16635165 -0.13466905 -0.13655613 -0.19004938 -0.14137942 0.015615253 0.4361117
0.12329068 -0.36105627 0.2431381 0.03031945 0.17851566 -0.08542536 -0.07216852 0.09834682
-0.35493866 -0.19862695 -0.15346183 -0.38810608 0.16388576 -0.24928395 0.38946307 -0.20204456
0.1971972 -0.25403962 -0.28921974 -0.1429702 -0.21925265 0.10780987 0.14351152 -0.06214584
-0.3046374 -0.19404842 0.38286248 -0.22290339 0.39415625 0.14205357 -0.22512062 0.29958135
0.24706589 -0.089612804 0.28971782 0.121106796 -0.12721884 -0.2988156 0.16321446 0.38884866
-0.15510324 0.18910185 0.05070652 -0.06220205 -0.27155367 -0.3406341 -0.0986326 -0.03881975
0.42960674 0.12885608 0.13683516 0.42786753 0.017105289 0.043139014 0.4111429 0.17207883
0.31408054 0.10760085 -0.24252172 0.34605455 -0.3495737 -0.1549428 0.07316809 -0.28041977
-0.21759982 0.09817872 -0.06225878 -0.18017992 0.23782802 0.2549024 0.07627327 0.20162803
-0.059493694 0.09517252 0.16883446 -0.26329 -0.19672084 0.05685409 -0.108206265 0.2538881
0.245597 -0.23911367 -0.21340626 0.018867204 -0.18242392 -0.17596968 0.3470922 -0.07628473
0.101479664 -0.3119168 -0.23164025 -0.32456207 0.11605745 -0.27508005 -0.12516336 -0.03580334
0.4174352 -0.06355587 0.115944676 0.13129349 -0.27782938 -0.07070988 -0.3211138 -0.35278273
-0.12953715 0.068031095 0.14235501 0.41149655 0.17759305 -0.1877157 0.21136269 0.10091364
0.058962416 0.2375411 0.04074976 -0.20255363 -0.018575428 -0.32428166 0.050576936 0.072623484
-0.27860326 -0.3520579 -0.040916786 0.22112872 0.39497834 -0.22103971 0.026129924 0.33673313
0.40625638 -0.37420228 -0.106992565 -0.08164322 -0.018760664 0.04431261 -0.17909166 -0.09534867
0.2874067 0.39701003 -0.38816446 -0.13461462 0.16881171 0.099731185 -0.22590803 -0.26414478
0.25339633 -0.05490641 -0.37687737 -0.0062575312 0.14939134 0.12843622 -0.30424812 0.17918578
0.07588813 -0.17041075 0.09934252 0.2593288 -0.32628974 0.21465829 -0.106394805 0.39128157
-0.26321596 -0.16118337 -0.03354335 -0.093509994 -0.10477978 0.12396696 0.31655613 0.5227937
0.12945308 0.26226765 -0.3475043 -0.22471519 -0.017787734 0.1100979 -0.0029750816 0.069249995
-0.32333755 -0.30690452 -0.03251447 0.21324226 -0.09974297 0.2680419 -0.20300591 0.42062774
-0.40241334 -0.23212062 -0.22662261 0.027879328 0.124250405 -0.34925896 0.10045328 0.1376778
-0.3003722 -0.04225065 0.1487034 0.20843653 -0.05637469 -0.32968977 -0.28483 0.12621945
-0.12484699 -0.18280636 -0.021028541 -0.038104124 -0.11348783 0.022151157 0.2497444 -0.030023066
-0.18540442 -0.33893803 0.05996737 -0.17460965 -0.22689076 -0.05908831 0.073394895 -0.14427996
-0.3850914 0.32363448 0.068372495 0.09439658 0.042517442 0.3539023 0.36573216 0.06740846
-0.21695682 0.017108588 -0.049952175 -0.024980083 -0.1816002 -0.34479085 0.15923625 -0.17982183
0.06538591 -0.28654993 0.085221596 0.41467106 -0.16817161 0.12046728 0.30721715 0.2626139

in_proj_bias f4 [33]
00000000: 0b63 91bd 122b 26be aaf3 42bc 5236 31bc
00000010: 1991 8d3c f41f babd 018b a4bd 1948 2ebd
00000020: 3762 ffbd 052a 623d c3b3 f03c 8637 8a39
00000030: 97bf 343a b390 0c37 deb1 4bb8 a14a e33a
00000040: 2c59 6bba dbf2 c0b9 c6b1 b8b9 01e5 1fba
00000050: 67ca 953a 41c5 3aba c6fd 61bb 8dd6 013c
00000060: 0a23 22bd e285 64b9 729d 443c 981d a13b
00000070: dfac babc ce5b 8c39 09fc fd3b 4c1e 12bd
00000080: 6e18 ad3c
-0.07098969 -0.16227368 -0.011898914 -0.010816174 0.017281102 -0.09088126 -0.080343254 -0.042549226
-0.12469905 0.055215854 0.029382592 0.0002636278 0.0006895004 8.378341e-06 -4.8564623e-05 0.0017340967
-0.0008977826 -0.00036802035 -0.00035227666 -0.0006099493 0.0011428118 -0.000712473 -0.0034483536 0.007924688
-0.039584197 -0.0002179365 0.0120004285 0.004916858 -0.02278751 0.0002677128 0.007750992 -0.035673425
0.021129813

weight f4 [11, 11]
00000000: 5096 93bc b50c 1e3e 9cac 7d3d 0214 813e
00000010: 929c 893d 56c4 b83d a919 383d 49e4 35be
00000020: 527f 943d e68c 843e 9b4e 72be 0250 1e3e
00000030: 847a 88be 3677 4abe bb4a 033c f34c 9ebe
00000040: 887c 543e 38d6 74be d908 723e 219e 44be
00000050: 7621 bbbd 1de0 993d 713b 8d3e efe4 1fbe
00000060: cf51 3a3d 64e6 2e3d 8256 79bd 3787 d73d
00000070: ef0b 76be f7a1 53be 6536 debd b97f 36be
00000080: 1d14 40be 7173 373e a72e a23d 3b38 823e
00000090: 4c93 1d3e c8f5 703e 9c7e 453e 0225 d13c
000000a0: eff8 50bc 57d7 e23d bed9 84bd 6222 93be
000000b0: 5d82 f1be 696b bb3d 6bf0 903e 2a88 1e3e
000000c0: 2d07 9a3e 8f39 c5bd af70 1cbe 13a4 89bd
000000d0: 16e4 6d3e 40f1 14be e6ac b2bd 78e8 08be
000000e0: 8a96 9f3e 9261 3c3e edc9 5cbe d6ea 743e
000000f0: 9c13 553d 22f9 a7be 3146 82be 2c29 e03c
00000100: a774 6c3e d480 10be 0ac4 25be 012f 02be
00000110: 9a11 08be d079 2dbe 9ced 7ebc 9435 91bd
00000120: b207 7e3d 91aa fabd 5a34 e03d 616c cf3d
00000130: 2632 8f3e ad05 a2bd dd0d 823e 3257 0a3e
00000140: 17fb 383e 6219 113c da2b b83e bed4 c13d
00000150: 589d af3c 2d78 da3d 621a 4c3d 3e6a 3cbe
00000160: 0c6b 9a3d 4af7 2c3e a059 5ebe 4dbd 313d
00000170: 0c9c de3d 8a8a 76be 9209 77be c2b3 1b3e
00000180: 9f7f 5a3e 9073 89be cd31 233e c688 843e
00000190: 09af 24be 24bf 433e cc49 863d 2670 1ebe
000001a0: 7b06 6fbe 9af0 0d3c 36dc ef3d e2d7 a7bd
000001b0: 77c5 523d 33f4 1cbe a033 993c a420 5c3e
000001c0: bf5c 1ebe 4985 5e3e 0040 81be d074 4e3e
000001d0: eb7c 4e3e 44a3 a83d 1460 9f3e dc86 8bbe
000001e0: b894 97be
-0.01801601 0.15434535 0.06193219 0.25210577 0.067193165 0.09021823 0.044946346 -0.17762865
0.07250847 0.25888747 -0.23662798 0.15460208 -0.26655972 -0.19772038 0.008013423 -0.30918083
0.2075063 -0.23909843 0.23636188 -0.19200946 -0.091372415 0.07513449 0.27584413 -0.15614675
0.045488175 0.042700186 -0.060873516 0.10523837 -0.2402799 -0.20667253 -0.10850219 -0.1782216
-0.18757673 0.17915131 0.079190545 0.25433525 0.1538822 0.23531258 0.19286579 0.025530342
-0.012754663 0.11076229 -0.064868435 -0.2873717 -0.47169772 0.09151346 0.28308424 0.1548163
0.300836 -0.09630119 -0.1527736 -0.06720748 0.23231539 -0.14545155 -0.08724384 -0.1336993
0.3116954 0.18396595 -0.21561404 0.23917708 0.052020654 -0.3280726 -0.25444177 0.027363382
0.23091374 -0.14111644 -0.16188064 -0.12713243 -0.13287964 -0.16940999 -0.01555958 -0.07090297
0.062019058 -0.12239564 0.10947485 0.101280935 0.27967948 -0.07911239 0.25401202 0.13509825
0.18064533 0.008856149 0.35970956 0.094644055 0.021437332 0.10667453 0.049829848 -0.18399903
0.07539949 0.16891208 -0.21713877 0.043393422 0.10869607 -0.24076286 -0.24124745 0.15205291
0.21337746 -0.2684598 0.15936966 0.258856 -0.16082396 0.19115883 0.065570444 -0.15472469
-0.23342316 0.008663321 0.11711924 -0.08195473 0.05145785 -0.1532753 0.018701375 0.21496826
-0.15465067 0.21730532 -0.2524414 0.20161748 0.2016484 0.082342654 0.3112799 -0.27251327
-0.2960565

bias f4 [11]
00000000: cbf8 77bb ed10 cbbb 7d87 433d 7e00 283d
00000010: e6d2 743b 1c8a 1dbd bfea d03c 7e78 52bc
00000020: 61db c9bc 27bd e0bc 427b b23c
-0.00378375 -0.006197086 0.047736634 0.041016094 0.003735715 -0.03846179 0.02550256 -0.01284611
-0.02464074 -0.027433945 0.02178729
